asic/fixed_point_accuracy_study/reference_data/model_quant.tflite (tflite, 74416 bytes, 26 tensors)

vision_transformer/patch_projection_dense/bias f4 [64]
-0.015241463 -0.5710363 -0.10928853 1.1193618 -0.11452369 0.6216842 0.27847722 0.8362113
0.5543626 0.78935254 -0.25630555 0.60255754 -0.76208127 -0.8761144 0.09333607 -0.15767074
-1.0054064 -0.5093099 0.050523438 -0.19962375 0.42960292 0.98088884 0.0017287668 -0.8672586
-0.15460478 -0.5749907 1.0254152 -0.2211692 0.12223946 0.2855914 -0.34341368 0.7163879
0.36211276 -0.26758173 -0.26769394 -0.34712487 -0.51705885 0.4443137 0.7361448 -0.7901281
1.0378215 -0.40660468 -0.8894879 0.14113955 -1.173839 -1.2083683 0.18949874 -0.820798
-0.078791544 0.64109373 1.0101272 -0.503705 0.429752 -0.2551636 -0.12945502 1.1249168
0.22612424 -1.3910916 0.30902123 -0.085859284 0.21969937 0.8705742 -0.08304879 0.056846853
00000000: 54b7 79bc 6f2f 12bf aad2 dfbd 3f47 8f3f
00000010: 658b eabd b226 1f3f 9194 8e3e f211 563f
00000020: b5ea 0d3f 0213 4a3f 7b3a 83be 3641 1a3f
00000030: c217 43bf 0949 60bf fb26 bf3d 7074 21be
00000040: 28b1 80bf 2262 02bf aaf1 4e3d 2b6a 4cbe
00000050: eaf4 db3e 881b 7b3f ca97 e23a a904 5ebf
00000060: b750 1ebe 9732 13bf ce40 833f 2e7a 62be
00000070: af58 fa3d 0939 923e ebd3 afbe 3365 373f
00000080: d866 b93e 7900 89be 2e0f 89be 5aba b1be
00000090: f85d 04bf 167d e33e fc73 3c3f d645 4abf
000000a0: 56d7 843f 7d2e d0be 7bb5 63bf e386 103e
000000b0: 5b40 96bf d0ab 9abf f50b 423e d11f 52bf
000000c0: 765d a1bd b81e 243f d94b 813f d0f2 00bf
000000d0: 7408 dc3e cea4 82be db8f 04be 46fd 8f3f
000000e0: 1d8d 673e 4a0f b2bf 0838 9e3e fed6 afbd
000000f0: dff8 603e f3dd 5e3f 7c15 aabd 3fd8 683d

vision_transformer/mlp_head_softmax/bias f4 [5]
-14.464364 -0.34659863 0.6576591 -0.16168389 -0.6649921
00000000: 096e 67c1 6075 b1be 595c 283f 7690 25be
00000010: ec3c 2abf

vision_transformer/mlp_head_layerNorm/gamma f4 [64]
1.5400035 0.111787654 0.14407292 0.07472691 0.0705035 1.2750634 0.11470679 0.24880646
0.21671331 0.44908276 0.8552441 0.23993534 0.110661305 0.09216372 0.22253948 0.12334252
0.20532246 0.10321746 0.051674042 0.057676993 0.4055621 0.23248614 0.14099476 0.115632996
0.26439628 0.1608384 0.41807452 0.18494825 0.051557414 0.094731614 0.15139434 0.23367639
0.27707812 0.25593522 0.40202144 0.30239323 0.32411382 0.16026781 0.20183729 0.08381221
0.238673 0.10729816 0.40589145 0.3246834 0.3600808 0.059983213 0.3452947 0.13091598
0.1256923 0.108053595 0.11148241 0.6535209 0.4207747 0.22987714 0.44617036 0.31188533
0.113852404 1.1048201 0.6165965 0.114203475 0.25000092 0.15540263 0.7151918 0.17390175
00000000: d61e c53f edf0 e43d da87 133e 6c0a 993d
00000010: 2464 903d 4735 a33f 65eb ea3d 1fc7 7e3e
00000020: 18ea 5d3e 2dee e53e 47f1 5a3f 9cb1 753e
00000030: 65a2 e23d 55c0 bc3d 64e1 633e 019b fc3d
00000040: 0d40 523e ad63 d33d 29a8 533d b63e 6c3d
00000050: d6a5 cf3e d910 6e3e ee60 103e fed0 ec3d
00000060: f35e 873e d2b2 243e dd0d d63e 1363 3d3e
00000070: de2d 533d a602 c23d 1e07 1b3e dd48 6f3e
00000080: 2fdd 8d3e f109 833e c1d5 cd3e 49d3 9a3e
00000090: 3ff2 a53e 3f1d 243e 6fae 4e3e bca5 ab3d
000000a0: b266 743e 23bf db3d 01d1 cf3e e73c a63e
000000b0: 835c b83e f5b0 753d 78ca b03e d70e 063e
000000c0: 7bb5 003e 344b dd3d e450 e43d 254d 273f
000000d0: c86f d73e ea64 6b3e 7170 e43e 6faf 9f3e
000000e0: 732b e93d bf6a 8d3f 45d9 1d3f 83e3 e93d
000000f0: 1f00 803e de21 1f3e cf16 373f 4d13 323e

vision_transformer/mlp_head_layerNorm/beta f4 [64]
0.33412248 -0.12672333 -0.7301881 -0.0329619 0.03082413 -0.42106527 -0.18019514 -0.039176956
0.24249813 0.13070019 -0.10232679 -0.03655075 0.33383763 -0.12897871 0.07830609 0.018627541
0.16581333 -0.13526797 0.060801525 -0.056934625 0.16938877 0.024094002 -0.016477482 -0.02262418
0.05886267 0.0116182035 0.1609146 0.06728697 -0.10030167 -0.015959406 0.03356345 0.12510017
-0.0010081262 0.16155519 -0.0034505185 0.2113172 -0.046641115 0.05600373 -0.07805768 -0.25184107
0.07025065 -0.26248422 -0.10720233 -0.07223892 -0.11162113 0.027223028 -0.071291 0.17662992
0.281983 0.31086048 0.35935944 -0.31905508 0.1873303 0.2632078 0.21386854 0.0057960846
-0.018485803 -0.45816416 0.3014999 -0.19930312 -0.103231475 0.40275502 0.1358067 0.05361101
00000000: 1a12 ab3e c3c3 01be 9bed 3abf 0f03 07bd
00000010: e382 fc3c de95 d7be 1385 38be 0478 20bd
00000020: 6e51 783e 45d6 053e b590 d1bd 3db6 15bd
00000030: c4ec aa3e ff12 04be f15e a03d c998 983c
00000040: f8ca 293e b083 0abe 050b 793d 4834 69bd
00000050: 4074 2d3e c960 c53c c9fb 86bc 5856 b9bc
00000060: fc19 713d 475a 3e3c ccc6 243e c0cd 893d
00000070: f66a cdbd 4dbd 82bc d479 093d 421a 003e
00000080: 1a23 84ba b96e 253e 1822 62bb 8963 583e
00000090: c10a 3fbd 2b64 653d b4dc 9fbd 50f1 80be
000000a0: 93df 8f3d 5564 86be e58c dbbd 00f2 93bd
000000b0: 9e99 e4bd d402 df3c 0401 92bd 79de 343e
000000c0: 1360 903e 1b29 9f3e f6fd b73e 305b a3be
000000d0: 84d3 3f3e 2cc3 863e 5b00 5b3e 15ed bd3b
000000e0: 8a6f 97bc 7e94 eabe 325e 9a3e 1e16 4cbe
000000f0: 066b d3bd e835 ce3e e910 0b3e 3897 5b3d

vision_transformer/Encoder_1/mlp_dense2_encoder/bias f4 [64]
0.21662368 0.11316698 0.54294515 -0.3637773 0.08704458 -0.28964323 -0.8400041 -0.38804406
0.35946634 0.29789075 -0.31117865 0.70724696 0.7244 -0.8478045 -0.79841566 -0.108239524
0.21461408 -0.54721224 -0.45837268 -0.45320737 0.48719817 0.8128156 -0.5364445 0.9185232
-0.95648396 -0.6307574 0.34261018 -0.74195176 -0.7880527 -0.6969291 -0.84688354 0.34058243
0.8383504 0.39497116 0.26150364 0.8001772 -0.60968447 -0.92383474 -0.44183177 -1.0200115
-0.6904318 -0.9852496 -0.13920644 -0.5051574 -0.06992131 -0.07603334 -0.39849237 1.2027249
0.7197805 0.91311646 0.73252076 -0.2376931 0.9267495 0.07112857 -0.42236498 1.0206563
0.92626953 -0.4105413 0.56575507 -1.219275 -1.0160596 1.0284724 0.104817435 -0.96531075
00000000: 99d2 5d3e 17c4 e73d 74fe 0a3f 0541 babe
00000010: 6e44 b23d 1e4c 94be 820a 57bf b6ad c6be
00000020: f90b b83e 2385 983e cf52 9fbe 230e 353f
00000030: 4772 393f b709 59bf f864 4cbf afac ddbd
00000040: cbc3 5b3e 1a16 0cbf d3af eabe cc0a e8be
00000050: 0a72 f93e af14 503f 6d54 09bf 5624 6b3f
00000060: 22dc 74bf 5179 21bf 9a6a af3e 8df0 3dbf
00000070: d2bd 49bf f269 32bf 5ccd 58bf d260 ae3e
00000080: 229e 563f a939 ca3e cee3 853e 6ad8 4c3f
00000090: 4814 1cbf 6f80 6cbf c637 e2be bd8f 82bf
000000a0: 23c0 30bf 5139 7cbf 228c 0ebe ff51 01bf
000000b0: e732 8fbd 5eb7 9bbd 3107 ccbe e4f2 993f
000000c0: 8943 383f 00c2 693f 7b86 3b3f d265 73be
000000d0: 753f 6d3f dbab 913d 3940 d8be dea4 823f
000000e0: 0020 6d3f 7832 d2be 53d5 103f 3411 9cbf
000000f0: 3e0e 82bf fca4 833f 86aa d63d 9b1e 77bf

vision_transformer/Encoder_1/mlp_dense1_encoder/bias f4 [32]
0.23067775 -0.6231924 -0.62805915 -0.26261184 0.62871647 -0.59877014 0.5434973 -0.67973655
-0.6883888 0.49830356 0.06421093 -0.257032 -0.08136211 0.76210177 -0.65108764 0.53464943
0.045029562 0.65844065 0.58932245 -0.4499374 -0.27996358 -0.7537467 -0.44129312 0.8937381
-0.35427764 -0.6125459 -0.6723185 -0.5076865 -0.088617206 -0.35482633 0.5098858 0.7018907
00000000: ca36 6c3e 8a89 1fbf 7cc8 20bf 0f75 86be
00000010: 90f3 203f 0049 19bf a422 0b3f 3703 2ebf
00000020: 403a 30bf a521 ff3e 0581 833d b399 83be
00000030: 2ea1 a6bd 1a19 433f aead 26bf c9de 083f
00000040: eb70 383d 918f 283f d6dd 163f 325e e6be
00000050: 6357 8fbe 8bf5 40bf 2cf1 e1be 05cc 643f
00000060: e163 b5be cfcf 1cbf 111d 2cbf bef7 01bf
00000070: f07c b5bd ccab b5be e087 023f 1caf 333f

vision_transformer/Encoder_1/layerNorm2_encoder/gamma f4 [64]
0.47648022 0.22070713 0.709716 1.0580219 0.9377968 1.0488089 0.3671433 0.97659576
0.47963747 0.6815765 1.2574364 0.5717528 0.46934012 0.24920473 0.58440816 0.7913254
0.31993553 0.20854177 0.73854375 1.282646 0.5897103 0.5044595 0.40028143 0.4928982
0.29322305 0.52444404 1.6835471 0.86001205 0.39431816 0.9848835 0.28198543 1.7497209
0.4318614 0.6636864 0.9525329 0.7958967 1.0158863 0.5670926 0.8657662 0.68979365
0.8049645 0.8446765 0.9866891 1.2182715 0.7569308 1.031998 0.9378011 0.62840337
0.69416356 0.3319134 0.30793148 1.3976387 0.5942343 0.12836687 0.5149241 0.6573215
0.63137656 0.9207096 0.5662122 0.7299664 0.9814474 0.48086852 0.60206497 0.57474726
00000000: 37f5 f33e 0d01 623e f3af 353f 436d 873f
00000010: 7313 703f 5f3f 863f 35fa bb3e 2e02 7a3f
00000020: 0b93 f53e cc7b 2e3f adf3 a03f 645e 123f
00000030: 594d f03e 862f 7f3e c69b 153f 4d94 4a3f
00000040: 97ce a33e f98b 553e 3411 3d3f be2d a43f
00000050: 41f7 163f 4224 013f b0f1 cc3e 275d fc3e
00000060: 5521 963e f741 063f 797e d73f c029 5c3f
00000070: 12e4 c93e 5321 7c3f 6560 903e dbf6 df3f
00000080: f01c dd3e 5ae7 293f 32d9 733f e3bf 4b3f
00000090: 9008 823f fb2c 113f dba2 5d3f 5196 303f
000000a0: 2712 4e3f b83c 583f a897 7c3f 52f0 9b3f
000000b0: 38c6 413f 8318 843f bc13 703f 0bdf 203f
000000c0: b4b4 313f 8ef0 a93e 32a9 9d3e d3e5 b23f
000000d0: bd1f 183f 9b72 033e 11d2 033f 3946 283f
000000e0: e5a1 213f a0b3 6b3f 48f3 103f 14df 3a3f
000000f0: 2340 7b3f 6634 f63e ee20 1a3f a322 133f

vision_transformer/Encoder_1/layerNorm2_encoder/beta f4 [64]
-0.3977932 0.16796188 -0.49941906 0.79578775 -0.023706539 0.55532813 0.57396924 1.2341799
-0.26798138 -0.1254322 0.37774163 -0.70318246 -0.15170342 -0.2390476 0.66817564 0.32711685
0.16804574 -0.41627243 0.45273146 0.50413346 -0.51812214 -0.25598586 0.12577637 -0.89586073
0.13362612 0.7852867 -0.5762832 0.56141526 0.26351124 0.26853982 0.55937856 -0.5069591
-0.6250712 -0.07298882 -0.66172135 -0.94229233 0.21759667 0.6044338 0.75614977 0.81005526
0.4116525 1.3366579 0.17896862 0.35846496 -1.8925302e-05 0.38407376 0.24784723 -1.2857068
-0.16877672 -0.45161048 -0.14072004 0.41142562 -0.9894852 0.30967152 0.21017897 -0.40085614
-0.46520665 -0.016546812 -0.29600692 1.3932287 0.44099003 -0.62052244 -0.40844896 0.36498994
00000000: 8dab cbbe 33fe 2b3e dbb3 ffbe bfb8 4b3f
00000010: 3734 c2bc fc29 0e3f a6ef 123f 9bf9 9d3f
00000020: db34 89be 4c71 00be 5a67 c13e c403 34bf
00000030: 2458 1bbe e5c8 74be 8f0d 2b3f dc7b a73e
00000040: 2f14 2c3e a921 d5be 6bcc e73e e40e 013f
00000050: a7a3 04bf 9410 83be 85cb 003e 2157 65bf
00000060: 49d5 083e 8d08 493f 4c87 13bf e9b8 0f3f
00000070: f2ea 863e 0d7e 893e 6f33 0f3f 12c8 01bf
00000080: ab04 20bf 2a7b 95bd 9266 29bf 123a 71bf
00000090: a9d1 5e3e 2cbc 1a3f 0893 413f c85f 4f3f
000000a0: 1ec4 d23e 9b17 ab3f 8d43 373e b888 b73e
000000b0: c7c1 9eb7 51a5 c43e aacb 7d3e 0a92 a4bf
000000c0: ced3 2cbe 7d39 e7be ea18 10be 61a6 d23e
000000d0: e74e 7dbf 448d 9e3e 2839 573e 043d cdbe
000000e0: 912f eebe 2e8d 87bc 388e 97be 5155 b23f
000000f0: 72c9 e13e 8fda 1ebf 3920 d1be f6df ba3e

vision_transformer/Encoder_1/layerNorm1_encoder/gamma f4 [64]
0.09057299 0.6807281 0.727363 0.60927004 0.08156231 0.4248165 1.061991 1.490031
0.6984145 0.5884548 0.24222116 0.33265698 1.0315946 1.2983336 0.40631038 1.0087719
0.59526473 1.0940514 0.64130497 1.0039376 0.31928328 0.37636724 0.77957726 0.8211906
0.7721187 0.46153444 0.9151165 0.67977077 0.3203529 1.4056405 0.99539036 1.22919
0.3828123 0.29978207 0.7879672 1.0024023 0.8205896 1.1366354 1.1211718 1.2437031
1.267721 0.6466681 0.9073212 0.85333705 0.7883462 1.3847895 0.03099894 0.8282667
0.42858517 0.36753353 0.6636607 0.4934239 0.0029108168 0.21230659 1.0903386 0.9096484
0.413922 1.2413577 -0.066308275 1.5067265 0.8928852 0.8351911 0.8032273 0.75219584
00000000: 557e b93d 3244 2e3f 7634 3a3f 1ff9 1b3f
00000010: 240a a73d 8c81 d93e 52ef 873f 56b9 be3f
00000020: 4bcb 323f f9a4 163f d308 783e 0452 aa3e
00000030: 4b0b 843f cc2f a63f ea07 d03e 701f 813f
00000040: 4563 183f e009 8c3f 902c 243f 0781 803f
00000050: 1979 a33e 35b3 c03e 6092 473f 8c39 523f
00000060: 92a9 453f 3e4e ec3e 1345 6a3f 7505 2e3f
00000070: 4c05 a43e 07ec b33f e7d1 7e3f 1956 9d3f
00000080: f9ff c33e 097d 993e 38b8 493f b84e 803f
00000090: 2912 523f 457d 913f 8f82 8f3f aa31 9f3f
000000a0: af44 a23f 0a8c 253f 3446 683f 4c74 5a3f
000000b0: 0ed1 493f c840 b13f 7df1 fd3c 4909 543f
000000c0: 846f db3e 5b2d bc3e abe5 293f 0fa2 fc3e
000000d0: 67c3 3e3b e666 593e 3790 8b3f b8de 683f
000000e0: 96ed d33e cfe4 9e3f a2cc 87bd 6adc c03f
000000f0: 2094 643f 15cf 553f 4ea0 4d3f e88f 403f

vision_transformer/Encoder_1/layerNorm1_encoder/beta f4 [64]
-0.26143587 -0.6688754 0.5613334 -0.054710627 -0.19685674 0.32215324 0.82926226 0.25791866
-0.013611445 0.4802458 0.093819164 0.07056475 0.5576586 -0.020824766 0.19874981 -0.71496046
0.2809753 0.056704283 0.5936349 -0.6682161 -0.14949846 -0.35337493 0.35668838 -0.41897276
0.3897478 0.48424685 0.47370836 0.30114156 0.050087113 0.36770537 0.1401904 0.5536226
-0.4806011 0.27487665 0.23337568 -0.11297051 -0.47646818 0.26611933 0.51668376 -0.21609947
0.24072863 -0.49554116 0.32279617 0.29618502 0.3391117 -0.42589614 0.008871723 0.4170708
0.47155795 0.35706732 -0.54572994 -0.14210916 0.005017136 0.3561265 0.54489183 -0.12001175
0.3541044 0.04361888 0.054706044 -0.3323115 0.22176598 0.039356966 -0.2838869 -0.24733537
00000000: ecda 85be 6b3b 2bbf 8cb3 0f3f 4018 60bd
00000010: d094 49be 45f1 a43e 884a 543f ea0d 843e
00000020: 8a02 5fbc c7e2 f53e 4324 c03d 4084 903d
00000030: b7c2 0e3f b398 aabc 1285 4b3e a607 37bf
00000040: ffdb 8f3e c042 683d 75f8 173f 3610 2bbf
00000050: 2016 19be 8fed b4be dc9f b63e 9983 d6be
00000060: 068d c73e 34ef f73e e789 f23e 3a2f 9a3e
00000070: 2528 4d3d e143 bc3e 128e 0f3e 36ba 0d3f
00000080: 5911 f6be a2bc 8c3e 09fa 6e3e 155d e7bd
00000090: a3f3 f3be cb40 883e 6345 043f 2e49 5dbe
000000a0: 9181 763e 92b7 fdbe 8a45 a53e 90a5 973e
000000b0: 0ca0 ad3e 0f0f dabe b45a 113c 4e8a d53e
000000c0: 0b70 f13e 87d1 b63e f5b4 0bbf 1085 11be
000000d0: ca66 a43b 3656 b63e 087e 0b3f b8c8 f5bd
000000e0: 2c4d b53e b6a9 323d 7213 603d bc24 aabe
000000f0: 9f16 633e c534 213d a059 91be 7c45 7dbe

pos_emb f4 [1, 61, 64]
1.2327424 0.3444502 -0.40187892 -0.1384944 0.98181146 -0.50088364 -0.47146425 0.03420883
-0.11641215 -0.16446653 -0.31747285 -0.08464443 -0.41541097 -0.026085388 -0.29765782 0.20792119
-0.24515076 0.032891482 -0.45556256 0.34711748 0.093503155 0.58683276 -0.29734594 -0.003117891
-0.11546183 -0.68260646 -0.28769672 -0.21119697 -0.018795094 -0.081275344 0.046933185 -0.16436303
0.57025033 -0.3360764 -0.12553348 -0.15727864 0.30644393 0.104955874 -0.09761724 -0.14068556
-0.03875676 0.19673331 -0.20512149 -0.31487325 -0.31219447 0.14185172 -0.35928234 -0.2023177
-1.1516181 -0.377766 0.40316743 0.03825471 1.3744273 -0.8821675 -0.40332738 0.17461446
-0.18478228 0.20204857 0.95303214 -0.06752358 -0.16381581 -0.096198775 0.24779662 0.19668779
-0.25042534 -0.63305116 -0.25387007 -0.10764039 -0.29695758 0.41392025 0.09750635 0.6210665
0.65295017 -0.2865754 -0.098383375 -0.31484696 -0.26742652 -0.2621927 0.47348824 -0.5545526
-0.030392846 0.044609193 -0.0675859 -0.32466036 -0.2743108 -0.26082903 -0.28094563 -0.5606786
0.32538322 0.081303924 0.12306376 0.8079795 0.11607733 -0.09167925 0.29175174 0.6076661
-0.2060744 -0.07515045 -0.56732416 -0.67316264 -0.37367278 0.5853121 -0.08538208 -0.66278905
0.34046865 0.01982343 -0.03329719 -0.04512437 -0.2832136 -0.2317194 0.13375059 0.10204112
0.5544341 0.84099907 0.21198523 0.19827217 0.06970303 0.15233862 0.02398034 0.068180524
-0.056839455 -0.13827972 -0.035222724 -0.035636235 0.20933819 0.502305 0.18528952 0.38907313
-0.07333033 -0.44218755 -0.1238588 0.0145614315 -0.39533406 0.34209567 0.1410542 0.5373604
0.28644362 -0.36076173 0.00036403697 -0.18249191 -0.3622513 -0.31352943 0.59398586 -0.444207
0.1456818 -0.023602461 -0.05787927 -0.32381678 -0.112081155 -0.479697 -0.28036797 -0.3426376
0.34823042 0.27811927 0.071586125 0.670049 0.37011907 0.112721786 0.42691126 0.639661
-0.254731 -0.0043310677 -0.4087577 -0.86251265 -0.3813309 0.46919733 0.11126649 -0.7512937
0.30457243 -0.07784087 0.13454258 -0.1198352 -0.09598593 -0.18074684 0.07673063 0.04213576
0.21259885 0.6680272 0.3952748 0.101343535 -0.010840316 0.18801858 0.024155425 0.26029143
0.013786502 0.11235487 -0.17635246 -0.18690185 0.4303241 0.49747872 0.35645425 0.21582244
0.10440074 -0.4915817 -0.06937014 0.043572705 -0.44243518 0.31648737 0.12913735 0.7797764
0.444921 -0.050861504 0.06009047 -0.30943543 -0.23625046 -0.20449357 0.5805843 -0.47725543
0.29315862 0.029334428 0.14002782 -0.29751408 0.10913625 -0.34738678 -0.3861815 -0.38167852
0.34132424 -0.055781525 0.09989265 0.79188514 0.40798315 0.054975737 0.26297984 0.6262736
-0.23059613 -0.062074576 -0.55496305 -0.6424039 -0.35908267 0.53097445 0.20279716 -0.570284
0.27966955 -0.19257115 -0.082119666 -0.07417165 -0.0807663 -0.12457392 0.01164151 0.0567829
0.6572519 0.8408378 0.36157763 0.20328651 0.19472301 0.188403 -0.011936612 0.27771965
0.1844293 0.15377149 -0.018753959 -0.097063385 0.29015553 0.5995815 0.33196643 0.38945514
00000000: 81ca 9d3f c75b b03e 13c3 cdbe 7ad1 0dbe
00000010: ff57 7b3f e939 00bf c363 f1be 8f1e 0c3d
00000020: 7e69 eebd ea69 28be cd8b a2be 0f5a adbd
00000030: bfb0 d4be 06b1 d5bc 9b66 98be 4be9 543e
00000040: cd08 7bbe 38b9 063d 7f3f e9be 62b9 b13e
00000050: 957e bf3d ac3a 163f ba3d 98be 8855 4cbb
00000060: 4077 ecbd 4cbf 2ebf fc4c 93be 0544 58be
00000070: 2bf8 99bc b073 a6bd 033d 403d c84e 28be
00000080: edfb 113f 3512 acbe d98b 00be a70d 21be
00000090: 38e6 9c3e 1bf3 d63d 8ceb c7bd e00f 10be
000000a0: 69bf 1ebd 7574 493e 5e0b 52be 1137 a1be
000000b0: f4d7 9fbe 9441 113e dbf3 b7be 5f2c 4fbe
000000c0: 3968 93bf 8c6a c1be f66b ce3e f9b0 1c3d
000000d0: 3ced af3f bbd5 61bf ed80 cebe 22ce 323e
000000e0: 9137 3dbe d2e5 4e3e eaf9 733f cd49 8abd
000000f0: 55bf 27be dd03 c5bd 66be 7d3e 8668 493e
00000100: c037 80be a40f 22bf 42fb 81be 9172 dcbd
00000110: d30a 98be 5bed d33e 69b1 c73d 37fe 1e3f
00000120: be27 273f 03ba 92be 397d c9bd 9f33 a1be
00000130: 21ec 88be 1f3e 86be 0d6d f23e 29f7 0dbf
00000140: 6bfa f8bc 21b8 363d 7a6a 8abd e239 a6be
00000150: 7772 8cbe 628b 85be 1bd8 8fbe a288 0fbf
00000160: a198 a63e ac82 a63d da08 fc3d bfd7 4e3f
00000170: f4b9 ed3d 55c2 bbbd 7c60 953e 0190 1b3f
00000180: 2b05 53be 7be8 99bd 283c 11bf 6354 2cbf
00000190: 0a52 bfbe 04d7 153f cddc aebd 8bac 29bf
000001a0: e851 ae3e bf64 a23c a262 08bd 55d4 38bd
000001b0: 5f01 91be da47 6dbe eaf5 083e effa d03d
000001c0: 65ef 0d3f b74b 573f a812 593e dc07 4b3e
000001d0: 76c0 8e3d a8fe 1b3e 6b72 c43c 3ba2 8b3d
000001e0: 7dd0 68bd 3399 0dbe b445 10bd 4df7 11bd
000001f0: c05c 563e 0f97 003f 89bc 3d3e 9834 c73e
00000200: 362e 96bd 6866 e2be afa9 fdbd 1293 6e3c
00000210: 3a69 cabe 2a27 af3e 8370 103e 7490 093f
00000220: bda8 923e c3b5 b8be 37dc be39 29df 3abe
00000230: 0179 b9be ee86 a0be 750f 183f 1a6f e3be
00000240: 9c2d 153e f359 c1bc d012 6dbd 50cb a5be
00000250: ce8a e5bd d89a f5be 648c 8fbe 326e afbe
00000260: 424b b23e a665 8e3e bf9b 923d 5588 2b3f
00000270: 3f80 bd3e aeda e63d 1d94 da3e d3c0 233f
00000280: 1a6c 82be a1eb 8dbb b048 d1be a1cd 5cbf
00000290: ce3d c3be a23a f03e afdf e33d c954 40bf
000002a0: ebf0 9b3e 096b 9fbd 88c5 093e 286c f5bd
000002b0: 4594 c4bd b315 39be f324 9d3d 8c96 2c3d
000002c0: 83b3 593e d503 2b3f 7561 ca3e 338d cf3d
000002d0: 959b 31bc f187 403e 99e1 c53c eb44 853e
000002e0: c8e0 613c 4f1a e63d bd95 34be 3363 3fbe
000002f0: 7153 dc3e 88b5 fe3e 2c81 b63e 8f00 5d3e
00000300: 0ed0 d53d 99b0 fbbe ef11 8ebd 4b79 323d
00000310: dd86 e2be a20a a23e 953c 043e 6d9f 473f
00000320: afcc e33e 2754 50bd 6d21 763d 526e 9ebe
00000330: a4eb 71be c366 51be 2ca1 143f d35a f4be
00000340: e318 963e c14e f03c 7463 0f3e c453 98be
00000350: d482 df3d aedc b1be 95b9 c5be 5e6b c3be
00000360: 0dc2 ae3e 2b7b 64bd 8594 cc3d fcb8 4a3f
00000370: 2be3 d03e 3d2e 613d 4ba5 863e 7753 203f
00000380: 6421 6cbe e941 7ebd 0f12 0ebf 9574 24bf
00000390: afd9 b7be f1ed 073f 0faa 4f3e 22fe 11bf
000003a0: d930 8f3e 5f31 45be 5b2e a8bd 4ee7 97bd
000003b0: cd68 a5bd 9d20 ffbd 08bc 3e3c 3095 683d
000003c0: a941 283f 2541 573f b420 b93e 572a 503e
000003d0: 7865 473e b7ec 403e c891 43bc 4531 8e3e
000003e0: 09db 3c3e 4676 1d3e e7a1 99bc 2bc9 c6bd
000003f0: 448f 943e 2c7e 193f 81f7 a93e aa66 c73e

mlp_head_dense1/bias f4 [32]
-0.112009026 0.5887207 -0.00665064 -0.41305348 0.070962474 -0.18472743 0.011833557 -0.06756159
0.643831 0.61838377 -0.03792694 0.12062744 -0.116490275 -0.37437057 -0.059962343 -0.38048688
-0.43234834 -0.02953265 0.52098167 -0.7167819 0.02199082 -0.91414213 -0.90938497 -0.19367126
0.6004992 -0.031936374 -0.03667736 -0.27193594 -0.32664707 0.028907953 -0.18268152 -0.12583065
00000000: fd64 e5bd 66b6 163f 9ded d9bb bf7b d3be
00000010: c654 913d 3029 3dbe 89e1 413c bb5d 8abd
00000020: 1cd2 243f 664e 1e3f 4759 1bbd 850b f73d
00000030: 7492 eebd 80ad bfbe 139b 75bd 2dcf c2be
00000040: c35c ddbe 75ee f1bc 0e5f 053f 057f 37bf
00000050: 1826 b43c 3805 6abf 74cd 68bf c251 46be
00000060: 51ba 193f b7cf 02bd 003b 16bd 303b 8bbe
00000070: 493e a7be 5fd0 ec3c dd10 3bbe c0d9 00be

mhsa_value_dense/bias f4 [64]
0.24272923 -0.032926764 -0.09210143 0.012599667 0.09707644 -0.036729418 -0.069749534 0.067402996
-0.3542351 -0.2815994 0.04352255 0.42397937 -0.49376413 -0.2578483 0.33772907 0.06652315
-0.5195029 -0.37856165 0.3377201 0.30649623 -0.15171467 -0.11527419 -0.14445655 -0.22782464
0.061255753 0.10083272 -0.10081067 0.13682376 0.025649557 0.1006919 -0.0010348222 -0.08756164
-0.012257836 0.0907309 -0.09790556 0.09140736 -0.1640784 -0.027254682 -0.084316514 0.055555273
0.0020165641 -0.35794687 -0.34586263 0.18541607 -0.23600635 -0.38117474 -0.02552775 0.40830135
-0.057576787 -0.05940645 -0.058397233 -0.071577124 0.3648949 -0.090670854 0.21297027 -0.106021486
-0.03798202 -0.25681716 -0.12481508 -0.06793225 0.064766474 0.14900053 0.088328905 -0.018551758
00000000: 038e 783e 37de 06bd ad9f bcbd d56e 4e3c
00000010: 03d0 c63d 9671 16bd d8d8 8ebd 950a 8a3d
00000020: 4e5e b5be cc2d 90be b444 323d d313 d93e
00000030: a7ce fcbe b104 84be d3ea ac3e 4a3d 883d
00000040: 24fe 04bf d5d2 c1be a6e9 ac3e 13ed 9c3e
00000050: 175b 1bbe e014 ecbd 6bec 13be dd4a 69be
00000060: 50e7 7a3d 6381 ce3d d375 cebd 871b 0c3e
00000070: 051f d23c 8e37 ce3d dfa2 87ba 8453 b3bd
00000080: 17d5 48bc 1fd1 b93d b682 c8bd c833 bb3d
00000090: 2b04 28be 3645 dfbc 23ae acbd ed8d 633d
000000a0: 5528 043b d044 b7be e814 b1be b6dd 3d3e
000000b0: a6ab 71be 5629 c3be 921f d1bc e00c d13e
000000c0: a3d5 6bbd 2d54 73bd f031 6fbd 0797 92bd
000000d0: 81d3 ba3e a4b1 b9bd e114 5a3e cb21 d9bd
000000e0: 0993 1bbd 8a7d 83be 0c9f ffbd 1020 8bbd
000000f0: 49a4 843d 9893 183e c9e5 b43d dbf9 97bc

mhsa_query_dense/bias f4 [64]
0.042569835 0.15212828 0.0006628393 0.26588452 0.0522662 0.0689515 -0.033911828 -0.068092085
-0.19401683 -0.10354334 0.3206529 0.16759366 -0.17742114 -0.36520886 0.233854 0.11961086
-0.119116746 0.60698813 -0.14331368 -0.51927996 -0.22044036 0.17043665 -0.41967714 0.31394717
-0.13848971 0.05412436 -0.2529482 -0.23150848 0.021512743 -0.17169023 0.31369635 0.0041530817
0.3474094 0.018114751 -0.14808781 -0.030493265 0.15075776 0.012705483 0.024093479 -0.22078076
0.19410035 0.46570003 0.050833754 0.06296039 -0.060116567 0.2621639 -0.09615091 1.0864714
0.076677226 -0.054315224 -0.14440037 0.09244972 -0.0625909 -0.26980382 0.19400927 0.15132272
-0.121069364 -0.29566777 -0.3060266 0.16230652 0.033102445 -0.18574624 0.02225283 -0.0036323003
00000000: b55d 2e3d 84c7 1b3e 64c2 2d3a 0422 883e
00000010: 1515 563d 7236 8d3d 21e7 0abd dd73 8bbd
00000020: 59ac 46be 880e d4bd 9e2c a43e ac9d 2b3e
00000030: e3ad 35be a8fc babe 6c77 6f3e 8af6 f43d
00000040: 7bf3 f3bd 9363 1b3f d2c0 12be 88ef 04bf
00000050: 1ebb 61be f286 2e3e ecdf d6be afbd a03e
00000060: 3fd0 0dbe 81b1 5d3d 6d82 81be 8f10 6dbe
00000070: 7e3b b03c 90cf 2fbe cf9c a03e 9316 883b
00000080: a5df b13e 6365 943c 55a4 17be 03cd f9bc
00000090: 3e60 1a3e a82a 503c b05f c53c 5a14 62be
000000a0: 3ec2 463e 3c70 ee3e 0e37 503d 60f1 803d
000000b0: ca3c 76bd 593a 863e c5ea c4bd 7f11 8b3f
000000c0: f308 9d3d a479 5ebd b1dd 13be 4756 bd3d
000000d0: a82f 80bd ba23 8abe 5eaa 463e 58f4 1a3e
000000e0: 37f3 f7bd c461 97be 85af 9cbe ae33 263e
000000f0: 6e96 073d 4334 3ebe 914b b63c e30b 6ebb

mhsa_key_dense/bias f4 [64]
-0.1578739 0.48316854 -0.07554626 0.26956773 0.095659204 0.09489804 -0.040199816 -0.00066484744
0.3535483 0.20375273 -0.12292197 -0.33092487 0.37945345 0.26364717 -0.18688592 -0.084666625
-0.13310596 0.39156824 -0.14120229 -0.2736549 -0.3351821 0.16688706 -0.10691935 0.16945937
0.24529056 -0.09572205 0.15958595 0.12921952 0.0010940761 0.042046063 -0.24567367 0.060909968
-0.1936026 0.05300733 0.17118147 0.007021263 -0.09042002 -0.01989498 -0.06747403 0.12630035
0.044857133 -0.06369756 0.010232982 -0.01633276 -0.043707497 0.054686423 0.0073888525 0.04848501
-0.2740861 0.037576057 0.18831302 -0.05463746 0.06358635 0.30958197 -0.2709332 -0.14586255
-0.023432128 0.02724719 0.07414789 -0.030332118 0.0071455385 0.101503976 -0.040394135 0.09119521
00000000: b2a9 21be de61 f73e ffb7 9abd c804 8a3e
00000010: f9e8 c33d e759 c23d 90a8 24bd 2849 2eba
00000020: 4804 b53e 8ea4 503e 84be fbbd fc6e a9be
00000030: b947 c23e c3fc 863e 065f 3fbe b265 adbd
00000040: ee4c 08be a27b c83e 5597 10be 7f1c 8cbe
00000050: fd9c abbe 71e4 2a3e 88f8 dabd c286 2d3e
00000060: 732d 7b3e ec09 c4bd 806a 233e 1f52 043e
00000070: 1a67 8f3a 7e38 2c3d e191 7bbe bb7c 793d
00000080: c33f 46be 371e 593d 324a 2f3e 9f12 e63b
00000090: 222e b9bd ccfa a2bc d32f 8abd e154 013e
000000a0: 1dbc 373d de73 82bd 3da8 273c 48cc 85bc
000000b0: a206 33bd dffe 5f3d 301e f23b 3898 463d
000000c0: 0355 8cbe 5ae9 193d 21d5 403e 87cb 5fbd
000000d0: 8f39 823d 8781 9e3e c2b7 8abe fe5c 15be
000000e0: bcf4 bfbc 8035 df3c d9da 973d 107b f8bc
000000f0: 1f25 ea3b 51e1 cf3d 5274 25bd 8ec4 ba3d

mhsa_combine_head_dense/bias f4 [64]
0.033510312 0.16696478 -0.053188995 0.0070059793 -0.20118392 -0.021452205 -0.27831587 -0.07480601
0.38099787 0.19756873 -0.007560276 0.7277886 0.4119679 -0.19358298 -0.8407431 -0.06906595
-0.16352265 0.058569986 -0.28416318 -0.14859976 0.22635394 0.44131324 0.016535543 0.9370984
-0.7457603 -0.8355358 -0.04340168 -0.25748402 -0.41591337 -0.033569172 -0.9734517 0.104446724
0.627445 -0.022815622 0.053782325 0.57404125 -0.14403643 -0.9194052 -0.13268453 -0.50978893
-0.4060541 -0.44151852 -0.100317456 -0.1922691 -0.069792956 -0.16356646 -0.087729156 0.10250345
0.4696834 0.057643842 0.119359426 0.09058875 0.62800866 -0.2558141 0.115077674 0.2852498
0.3079732 -0.079706125 0.29651248 -0.36761582 -0.3210993 0.2666633 0.07516992 -0.22443864
00000000: 1c42 093d d1f8 2a3e b4dc 59bd 6a92 e53b
00000010: 2803 4ebe 89bc afbc 6b7f 8ebe e533 99bd
00000020: 2712 c33e 754f 4a3e 31bc f7bb 5b50 3a3f
00000030: 75ed d23e 9e3a 46be f13a 57bf 7372 8dbd
00000040: 7b72 27be 15e7 6f3d d67d 91be 892a 18be
00000050: 54c9 673e cff3 e13e 8c75 873c aee5 6f3f
00000060: 26ea 3ebf ade5 55bf f6c5 31bd f2d4 83be
00000070: 99f2 d4be d47f 09bd 2134 79bf 2ae8 d53d
00000080: 3ca0 203f d4e7 babc db4a 5c3d 5ef4 123f
00000090: 497e 13be 245e 6bbf 74de 07be 8781 02bf
000000a0: 53e6 cfbe b70e e2be 3d73 cdbd 31e2 44be
000000b0: 9cef 8ebd f77d 27be 58ab b3bd 54ed d13d
000000c0: 587a f03e f31b 6c3d b772 f43d 9886 b93d
000000d0: 2dc5 203f 11fa 82be d8ad eb3d 430c 923e
000000e0: aaae 9d3e f73c a3bd 7cd0 973e 2438 bcbe
000000f0: 2167 a4be 1888 883e b0f2 993d 3ed3 65be

class_emb f4 [1, 1, 64]
1.5726811 0.47046366 -0.32436183 0.17249611 1.1058935 -0.42659763 -0.25141641 -0.23787579
0.07443099 -0.58435935 -0.06842101 -0.10217064 -0.11527603 -0.008509493 -0.1842497 0.35623613
-0.2192416 -0.12833494 -0.537218 0.2350381 0.27937454 0.43804604 -0.15534243 0.40286803
-0.3931222 -0.39687306 0.07169514 -0.26555106 -0.16619791 -0.21512409 -0.22380824 -0.2845632
0.5103652 -0.4953021 -0.18400551 0.212285 0.14444819 -0.36554393 0.003334436 0.23902372
-0.1878747 0.41273203 -0.15579975 -0.03825903 -0.10114345 0.08094159 -0.036556106 -0.3044412
-1.2398633 -0.57772005 0.26893663 0.16115291 1.5527656 -0.9608092 -0.07863872 -0.09545505
-0.6116904 -0.27335784 1.0646036 0.21266 -0.10930276 0.011246891 0.008790374 0.039745703
00000000: 9d4d c93f 9de0 f03e c112 a6be d2a2 303e
00000010: eb8d 8d3f 016b dabe a7b9 80be b695 73be
00000020: 466f 983d 9398 15bf 5120 8cbd d73e d1bd
00000030: d715 ecbd 676b 0bbc f4ab 3cbe 9564 b63e
00000040: df80 60be 3c6a 03be 1e87 09bf d4ad 703e
00000050: 2e0a 8f3e 9247 e03e 1612 1fbe b844 ce3e
00000060: 5047 c9be f232 cbbe e7d4 923d 4ff6 87be
00000070: c92f 2abe 7d49 5cbe fd2d 65be 45b2 91be
00000080: 4ba7 023f 3d98 fdbe f16b 3cbe 3d61 593e
00000090: 3aea 133e 9328 bbbe 8e86 5a3b a2c2 743e
000000a0: 3a62 40be 9d51 d33e f889 1fbe 80b5 1cbd
000000b0: 4c24 cfbd b4c4 a53d dbbb 15bd b8df 9bbe
000000c0: d7b3 9ebf 76e5 13bf 10b2 893e 4505 253e
000000d0: 06c1 c63f 97f7 75bf 560d a1bd f07d c3bd
000000e0: be97 1cbf 8ff5 8bbe ee44 883f 8bc3 593e
000000f0: 20da dfbd e144 383c 8005 103c 64cc 223d

vision_transformer/patch_projection_dense/Tensordot/MatMul i1 [64, 64] scale=0.009043003 zero_point=0
-0.2893761 -0.018086007 -0.090430036 -0.15373106 -0.23511809 -0.036172014 -0.22607508 0.045215018
0.12660205 -0.06330103 -0.34363413 -0.39789215 0.018086007 -0.2622471 -0.08138703 0.07234403
0.045215018 0.16277406 0.2532041 0.2893761 0.35267714 0.34363413 0.3255481 -0.09947304
-0.009043003 0.0 -0.045215018 0.2803331 0.02712901 0.12660205 0.44310716 0.36172014
0.44310716 0.4792792 0.08138703 0.2893761 0.2622471 0.090430036 0.009043003 -0.08138703
-0.090430036 -0.18990307 -0.18990307 -0.018086007 0.21703207 0.045215018 0.18086007 0.20798908
-0.16277406 -0.22607508 -0.15373106 -0.39789215 -0.38884914 0.018086007 -0.018086007 -0.18990307
-0.18990307 0.090430036 -0.20798908 -0.2893761 -0.33459112 0.036172014 -0.10851604 -0.14468805
0.2622471 0.15373106 -0.036172014 0.20798908 0.090430036 -0.05425802 0.090430036 -0.22607508
0.090430036 0.2803331 0.46119317 0.5154512 0.5877952 0.5877952 0.35267714 0.47023618
0.009043003 -0.08138703 -0.090430036 0.018086007 -0.15373106 -0.21703207 -0.20798908 0.05425802
-0.018086007 0.21703207 0.42502117 0.47023618 0.2622471 0.018086007 0.018086007 -0.42502117
-0.35267714 -0.44310716 -0.29841912 -0.5064082 -0.22607508 -0.36172014 -0.37980613 -0.10851604
-0.37980613 -0.5335372 -0.5606662 -0.31650513 -0.18990307 -0.16277406 -0.29841912 -0.37980613
-0.49736518 -0.38884914 -0.06330103 0.018086007 0.06330103 0.02712901 0.33459112 0.06330103
0.49736518 0.64205325 0.68726826 0.66918224 0.35267714 0.5516232 0.117559046 0.39789215
-0.21703207 -0.4792792 -0.5787522 -0.8229133 -0.61492425 -0.2712901 -0.5064082 -0.21703207
-0.036172014 0.0 0.15373106 -0.21703207 -0.2532041 0.0 -0.20798908 0.16277406
0.02712901 0.5154512 0.66918224 0.38884914 0.5516232 0.39789215 0.117559046 0.20798908
-0.19894607 0.18990307 0.47023618 0.29841912 0.69631124 0.7234403 0.5787522 0.42502117
0.090430036 0.12660205 0.05425802 -0.090430036 0.3255481 0.17181706 0.4883222 0.18990307
0.19894607 0.2441611 0.23511809 0.07234403 0.18990307 0.08138703 0.18990307 0.02712901
-0.09947304 -0.38884914 -0.47023618 -0.42502117 -0.40693516 -0.33459112 -0.2532041 -0.23511809
-0.090430036 -0.12660205 -0.045215018 -0.42502117 -0.13564505 -0.49736518 -0.2712901 -0.16277406
0.16277406 -0.07234403 0.18086007 -0.009043003 -0.14468805 0.08138703 0.2532041 0.12660205
0.07234403 0.15373106 0.29841912 0.2893761 0.43406415 0.42502117 0.06330103 0.2803331
-0.117559046 -0.05425802 0.15373106 0.036172014 0.33459112 0.15373106 -0.06330103 -0.018086007
-0.21703207 -0.018086007 -0.31650513 -0.16277406 0.018086007 -0.21703207 -0.15373106 -0.29841912
0.045215018 -0.02712901 0.18990307 0.14468805 0.41597816 0.2441611 0.2893761 0.20798908
0.18990307 -0.018086007 -0.13564505 -0.045215018 0.090430036 -0.19894607 0.090430036 0.02712901
-0.19894607 -0.19894607 -0.2893761 -0.34363413 -0.2803331 -0.38884914 -0.5154512 -0.6782253
-0.5425802 -0.13564505 -0.47023618 -0.09947304 -0.33459112 -0.10851604 -0.37980613 -0.59683824
00000000: e0fe f6ef e6fc e705 0ef9 dad4 02e3 f708
00000010: 0512 1c20 2726 24f5 ff00 fb1f 030e 3128
00000020: 3135 0920 1d0a 01f7 f6eb ebfe 1805 1417
00000030: eee7 efd4 d502 feeb eb0a e9e0 db04 f4f0
00000040: 1d11 fc17 0afa 0ae7 0a1f 3339 4141 2734
00000050: 01f7 f602 efe8 e906 fe18 2f34 1d02 02d1
00000060: d9cf dfc8 e7d8 d6f4 d6c5 c2dd ebee dfd6
00000070: c9d5 f902 0703 2507 3747 4c4a 273d 0d2c
00000080: e8cb c0a5 bce2 c8e8 fc00 11e8 e400 e912
00000090: 0339 4a2b 3d2c 0d17 ea15 3421 4d50 402f
000000a0: 0a0e 06f6 2413 3615 161b 1a08 1509 1503
000000b0: f5d5 ccd1 d3db e4e6 f6f2 fbd1 f1c9 e2ee
000000c0: 12f8 14ff f009 1c0e 0811 2120 302f 071f
000000d0: f3fa 1104 2511 f9fe e8fe ddee 02e8 efdf
000000e0: 05fd 1510 2e1b 2017 15fe f1fb 0aea 0a03
000000f0: eaea e0da e1d5 c7b5 c4f1 ccf5 dbf4 d6be

mhsa_key_dense/Tensordot/MatMul i1 [64, 64] scale=0.013017501 zero_point=0
0.0 -0.026035002 -0.026035002 0.052070003 -0.117157504 -0.24733251 0.117157504 -0.13017501
-0.0390525 0.065087505 -0.013017501 -0.14319251 -0.117157504 0.14319251 -0.078105 -0.0390525
0.065087505 -0.117157504 -0.18224502 -0.065087505 0.0 0.18224502 0.117157504 -0.20828001
-0.026035002 -0.026035002 -0.32543752 0.0390525 0.16922751 0.065087505 -0.104140006 0.13017501
0.28638503 -0.052070003 0.013017501 0.013017501 -0.013017501 0.052070003 0.013017501 0.052070003
-0.104140006 -0.065087505 -0.078105 -0.078105 0.0390525 -0.22129752 -0.20828001 -0.117157504
0.026035002 -0.13017501 0.065087505 0.16922751 0.14319251 -0.104140006 -0.09112251 0.026035002
0.026035002 -0.013017501 -0.15621 -0.09112251 -0.078105 -0.14319251 0.16922751 -0.09112251
0.052070003 0.13017501 0.013017501 -0.57277006 0.1952625 -0.2994025 -0.26035002 -0.013017501
-0.26035002 0.09112251 -0.0390525 -0.104140006 -0.026035002 0.16922751 -0.20828001 0.85915506
-0.09112251 0.27336752 -0.45561254 0.23431501 0.20828001 -0.20828001 0.09112251 0.1952625
0.45561254 0.0 -0.8201026 0.065087505 -0.48164752 -0.31242 0.09112251 0.23431501
0.33845502 0.41656002 0.1952625 -0.117157504 0.14319251 0.33845502 0.0390525 -0.20828001
-0.390525 -0.40354252 0.0 0.0390525 -0.13017501 -0.18224502 -0.09112251 -0.013017501
0.5076825 -0.052070003 -0.026035002 -0.16922751 0.065087505 -0.28638503 0.14319251 -0.14319251
-0.0390525 0.2994025 -0.32543752 0.13017501 -0.026035002 -0.117157504 0.078105 0.065087505
0.104140006 0.13017501 0.026035002 0.078105 0.15621 -0.18224502 0.052070003 -0.16922751
-0.0390525 -0.09112251 0.013017501 0.1952625 -0.104140006 0.078105 -0.14319251 -0.117157504
-0.0390525 -0.09112251 -0.18224502 0.22129752 0.0390525 0.2994025 0.104140006 -0.15621
-0.20828001 -0.078105 -0.14319251 0.117157504 0.0390525 0.0390525 -0.18224502 0.052070003
0.24733251 0.14319251 0.026035002 0.09112251 -0.052070003 -0.117157504 -0.052070003 -0.16922751
-0.15621 0.0 -0.13017501 0.0390525 0.065087505 -0.09112251 -0.013017501 -0.0390525
0.09112251 -0.09112251 -0.013017501 0.09112251 -0.14319251 -0.16922751 0.0 0.0390525
0.13017501 -0.052070003 0.065087505 -0.0390525 0.14319251 0.14319251 -0.0390525 0.16922751
0.026035002 0.065087505 -0.065087505 -0.598805 0.20828001 -0.31242 -0.28638503 -0.065087505
-0.27336752 -0.104140006 0.09112251 0.0 -0.052070003 0.28638503 0.0 0.74199754
-0.16922751 0.31242 -0.5076825 0.18224502 0.16922751 -0.3775075 0.18224502 0.22129752
0.20828001 -0.0390525 -0.65087503 0.20828001 -0.46863002 -0.390525 0.15621 0.2994025
0.32543752 0.48164752 0.013017501 -0.13017501 0.09112251 0.24733251 0.026035002 0.052070003
-0.48164752 -0.41656002 0.28638503 0.27336752 -0.22129752 -0.1952625 -0.104140006 -0.065087505
0.72898006 0.078105 -0.065087505 -0.16922751 -0.052070003 -0.24733251 0.052070003 -0.20828001
-0.15621 0.35147253 -0.40354252 0.20828001 -0.117157504 0.33845502 0.23431501 -0.09112251
00000000: 00fe fe04 f7ed 09f6 fd05 fff5 f70b fafd
00000010: 05f7 f2fb 000e 09f0 fefe e703 0d05 f80a
00000020: 16fc 0101 ff04 0104 f8fb fafa 03ef f0f7
00000030: 02f6 050d 0bf8 f902 02ff f4f9 faf5 0df9
00000040: 040a 01d4 0fe9 ecff ec07 fdf8 fe0d f042
00000050: f915 dd12 10f0 070f 2300 c105 dbe8 0712
00000060: 1a20 0ff7 0b1a 03f0 e2e1 0003 f6f2 f9ff
00000070: 27fc fef3 05ea 0bf5 fd17 e70a fef7 0605
00000080: 080a 0206 0cf2 04f3 fdf9 010f f806 f5f7
00000090: fdf9 f211 0317 08f4 f0fa f509 0303 f204
000000a0: 130b 0207 fcf7 fcf3 f400 f603 05f9 fffd
000000b0: 07f9 ff07 f5f3 0003 0afc 05fd 0b0b fd0d
000000c0: 0205 fbd2 10e8 eafb ebf8 0700 fc16 0039
000000d0: f318 d90e 0de3 0e11 10fd ce10 dce2 0c17
000000e0: 1925 01f6 0713 0204 dbe0 1615 eff1 f8fb
000000f0: 3806 fbf3 fced 04f0 f41b e110 f71a 12f9

mhsa_query_dense/Tensordot/MatMul i1 [64, 64] scale=0.010368698 zero_point=0
-0.010368698 -0.010368698 0.05184349 -0.020737397 0.06221219 0.020737397 0.082949586 -0.09331828
-0.11405568 0.0 0.10368698 -0.05184349 0.041474793 0.06221219 0.031106096 -0.010368698
0.14516178 0.0 0.041474793 -0.020737397 -0.031106096 -0.07258089 -0.06221219 -0.041474793
0.05184349 0.09331828 0.031106096 0.18663657 -0.05184349 0.010368698 0.010368698 0.0
-0.14516178 0.05184349 0.031106096 0.0 0.05184349 -0.010368698 0.031106096 0.020737397
-0.010368698 0.020737397 0.082949586 0.0 0.010368698 -0.031106096 -0.09331828 -0.031106096
0.06221219 0.09331828 0.041474793 0.010368698 0.031106096 -0.19700527 0.07258089 -0.10368698
0.10368698 0.05184349 -0.06221219 -0.09331828 0.09331828 0.0 0.14516178 -0.031106096
0.041474793 -0.031106096 0.05184349 -0.05184349 -0.20737396 0.21774267 0.19700527 0.15553047
0.041474793 0.29032356 0.05184349 0.07258089 -0.010368698 0.06221219 0.09331828 -0.09331828
0.16589917 0.05184349 -0.16589917 -0.041474793 0.010368698 0.041474793 0.13479307 -0.07258089
-0.082949586 0.10368698 0.082949586 -0.082949586 0.23848006 -0.05184349 0.06221219 0.031106096
0.041474793 0.06221219 0.10368698 -0.18663657 -0.031106096 0.11405568 0.21774267 0.031106096
0.010368698 0.0 0.010368698 0.05184349 0.010368698 -0.15553047 0.31106094 0.12442438
-0.23848006 0.020737397 0.082949586 -0.10368698 0.05184349 0.10368698 -0.06221219 0.0
0.020737397 0.18663657 0.11405568 0.05184349 0.031106096 -0.010368698 0.15553047 -0.19700527
0.09331828 -0.06221219 0.020737397 0.06221219 -0.13479307 0.11405568 0.16589917 -0.041474793
0.031106096 0.16589917 0.082949586 0.12442438 0.06221219 0.020737397 0.082949586 0.10368698
0.16589917 -0.010368698 0.16589917 -0.09331828 0.010368698 -0.031106096 0.082949586 -0.031106096
0.10368698 0.07258089 0.17626788 -0.041474793 0.05184349 0.020737397 -0.010368698 0.07258089
0.07258089 0.10368698 0.06221219 0.031106096 0.05184349 -0.010368698 0.06221219 0.09331828
-0.06221219 -0.031106096 0.07258089 0.07258089 0.031106096 0.05184349 0.10368698 0.18663657
0.0 0.19700527 -0.020737397 -0.031106096 0.041474793 0.17626788 0.031106096 0.041474793
0.041474793 0.05184349 0.09331828 0.041474793 0.09331828 -0.031106096 -0.020737397 0.0
0.06221219 0.031106096 -0.041474793 0.031106096 0.16589917 -0.031106096 0.0 -0.11405568
-0.020737397 -0.12442438 -0.020737397 0.07258089 0.041474793 -0.041474793 -0.07258089 0.05184349
-0.07258089 -0.010368698 -0.082949586 -0.082949586 -0.020737397 0.010368698 -0.05184349 0.041474793
0.06221219 0.041474793 0.23848006 -0.16589917 -0.10368698 0.041474793 -0.06221219 0.010368698
0.031106096 0.041474793 -0.06221219 0.14516178 -0.010368698 -0.10368698 0.13479307 -0.041474793
0.0 -0.07258089 0.020737397 -0.010368698 0.082949586 0.12442438 0.0 -0.11405568
-0.21774267 -0.031106096 -0.10368698 0.09331828 -0.041474793 -0.22811136 0.05184349 0.041474793
0.06221219 -0.11405568 -0.10368698 -0.020737397 -0.041474793 0.05184349 -0.15553047 0.11405568
00000000: ffff 05fe 0602 08f7 f500 0afb 0406 03ff
00000010: 0e00 04fe fdf9 fafc 0509 0312 fb01 0100
00000020: f205 0300 05ff 0302 ff02 0800 01fd f7fd
00000030: 0609 0401 03ed 07f6 0a05 faf7 0900 0efd
00000040: 04fd 05fb ec15 130f 041c 0507 ff06 09f7
00000050: 1005 f0fc 0104 0df9 f80a 08f8 17fb 0603
00000060: 0406 0aee fd0b 1503 0100 0105 01f1 1e0c
00000070: e902 08f6 050a fa00 0212 0b05 03ff 0fed
00000080: 09fa 0206 f30b 10fc 0310 080c 0602 080a
00000090: 10ff 10f7 01fd 08fd 0a07 11fc 0502 ff07
000000a0: 070a 0603 05ff 0609 fafd 0707 0305 0a12
000000b0: 0013 fefd 0411 0304 0405 0904 09fd fe00
000000c0: 0603 fc03 10fd 00f5 fef4 fe07 04fc f905
000000d0: f9ff f8f8 fe01 fb04 0604 17f0 f604 fa01
000000e0: 0304 fa0e fff6 0dfc 00f9 02ff 080c 00f5
000000f0: ebfd f609 fcea 0504 06f5 f6fe fc05 f10b

mhsa_value_dense/Tensordot/MatMul i1 [64, 64] scale=0.012264886 zero_point=0
0.11038397 0.47833055 0.28209236 -0.1717084 -0.11038397 -0.41700613 -0.23303284 0.91986644
-0.14717864 -0.0858542 -0.5273901 0.049059544 -0.24529772 -0.012264886 0.0858542 0.03679466
0.28209236 0.06132443 -0.5519199 0.09811909 -0.2575626 0.012264886 -0.31888703 0.3434168
-0.80948246 -0.049059544 -0.26982749 -0.7849527 0.5028603 0.8708069 0.5028603 -0.91986644
0.7236283 0.024529772 0.74815804 0.03679466 0.73589313 0.47833055 0.41700613 -0.22076795
0.80948246 -0.83401227 -0.15944351 0.53965497 -0.3556817 -0.4415359 -0.3434168 0.28209236
-0.33115193 0.31888703 -0.09811909 0.22076795 0.11038397 -0.65003896 0.19623818 0.049059544
0.15944351 -0.19623818 -0.024529772 -0.5519199 -0.6868336 -0.20850307 -0.5273901 0.5641847
0.06132443 0.19623818 0.429271 0.49059543 -0.5151252 -0.22076795 0.13491374 0.6132443
0.20850307 -0.13491374 -0.26982749 -0.07358932 -0.4415359 0.47833055 0.24529772 0.06132443
0.11038397 0.49059543 0.09811909 -0.12264886 -0.2575626 0.12264886 0.22076795 -0.06132443
-0.1717084 -0.13491374 0.18397328 -0.5273901 0.24529772 0.57644963 0.38021147 -0.24529772
0.20850307 0.0 0.26982749 -0.53965497 0.11038397 -0.012264886 0.06132443 -0.57644963
0.06132443 -0.3434168 -0.14717864 0.3556817 -0.03679466 -0.012264886 -0.0858542 0.1717084
-0.23303284 0.20850307 0.30662215 -0.0858542 -0.09811909 -0.36794657 -0.22076795 -0.31888703
0.13491374 -0.18397328 -0.049059544 -0.41700613 -0.66230386 0.22076795 -0.40474123 -0.03679466
0.12264886 0.0 -0.07358932 -0.15944351 0.6255092 0.07358932 0.31888703 -0.5273901
0.024529772 0.09811909 0.024529772 0.024529772 0.20850307 -0.58871454 -0.6255092 0.11038397
-0.012264886 -0.3556817 0.024529772 0.0 0.15944351 0.29435727 -0.06132443 -0.15944351
-0.012264886 0.33115193 0.26982749 0.41700613 -0.30662215 -0.41700613 -0.66230386 0.33115193
0.07358932 -0.33115193 -0.23303284 0.40474123 -0.33115193 -0.09811909 0.26982749 0.5028603
-0.13491374 0.18397328 -0.15944351 -0.4415359 -0.09811909 -0.14717864 0.33115193 -0.18397328
0.29435727 -0.41700613 -0.20850307 0.11038397 0.18397328 0.18397328 0.26982749 0.1717084
-0.23303284 0.0 -0.03679466 0.3556817 0.23303284 -0.46606568 0.15944351 0.09811909
0.23303284 0.74815804 0.3434168 0.0 0.2575626 -0.13491374 -0.15944351 0.39247635
-0.29435727 0.11038397 -0.3434168 0.049059544 0.0858542 -0.2575626 0.03679466 -0.14717864
0.3556817 -0.429271 -0.4415359 -0.0858542 -0.28209236 0.09811909 -0.5028603 0.14717864
-0.7726878 0.20850307 -0.429271 -0.5151252 0.49059543 0.0858542 0.1717084 -0.5028603
0.24529772 -0.07358932 0.5641847 0.06132443 0.80948246 0.22076795 0.82174736 0.03679466
1.0302504 -0.57644963 -0.28209236 0.024529772 -0.33115193 -0.5519199 -0.29435727 -0.1717084
-0.11038397 -0.13491374 0.28209236 -0.13491374 0.07358932 -0.5273901 0.3556817 0.63777405
0.0858542 -0.14717864 0.11038397 -0.18397328 0.14717864 -0.4415359 -0.40474123 0.3434168
00000000: 0927 17f2 f7de ed4b f4f9 d504 ecff 0703
00000010: 1705 d308 eb01 e61c befc eac0 2947 29b5
00000020: 3b02 3d03 3c27 22ee 42bc f32c e3dc e417
00000030: e51a f812 09cb 1004 0df0 fed3 c8ef d52e
00000040: 0510 2328 d6ee 0b32 11f5 eafa dc27 1405
00000050: 0928 08f6 eb0a 12fb f2f5 0fd5 142f 1fec
00000060: 1100 16d4 09ff 05d1 05e4 f41d fdff f90e
00000070: ed11 19f9 f8e2 eee6 0bf1 fcde ca12 dffd
00000080: 0a00 faf3 3306 1ad5 0208 0202 11d0 cd09
00000090: ffe3 0200 0d18 fbf3 ff1b 1622 e7de ca1b
000000a0: 06e5 ed21 e5f8 1629 f50f f3dc f8f4 1bf1
000000b0: 18de ef09 0f0f 160e ed00 fd1d 13da 0d08
000000c0: 133d 1c00 15f5 f320 e809 e404 07eb 03f4
000000d0: 1ddd dcf9 e908 d70c c111 ddd6 2807 0ed7
000000e0: 14fa 2e05 4212 4303 54d1 e902 e5d3 e8f2
000000f0: f7f5 17f5 06d5 1d34 07f4 09f1 0cdc df1c

mhsa_combine_head_dense/Tensordot/MatMul i1 [64, 64] scale=0.015089032 zero_point=0
-0.9807871 -0.950609 0.39231485 -0.015089032 0.31686968 -0.21124645 0.13580129 -0.34704775
0.030178064 0.30178064 0.6186503 0.07544516 0.13580129 -0.15089032 -0.45267096 0.10562322
0.10562322 0.40740386 0.13580129 0.27160257 -0.12071226 0.36213678 0.25651354 0.36213678
0.015089032 0.31686968 0.24142452 0.6035613 -0.22633548 0.36213678 -0.16597936 -0.58847225
0.015089032 0.40740386 -0.21124645 -0.12071226 -0.16597936 -0.63373935 -0.030178064 0.21124645
0.15089032 -0.46776 -0.34704775 0.0 0.045267098 -0.5281161 -0.030178064 0.39231485
-0.30178064 -1.3127458 0.36213678 -0.07544516 -0.16597936 0.39231485 0.07544516 -0.3319587
0.82989675 0.090534195 0.67900646 0.13580129 -0.31686968 -0.58847225 -0.39231485 0.75445163
0.4224929 -0.13580129 -0.49793807 -0.31686968 0.21124645 0.5733832 0.25651354 0.18106839
-0.75445163 -0.13580129 0.24142452 0.48284903 -0.36213678 -0.5130271 0.10562322 -0.6035613
-0.37722582 -0.5582942 0.6035613 0.3319587 -0.21124645 -1.418369 -0.8148077 -0.5130271
0.45267096 0.45267096 -0.82989675 1.0260541 0.18106839 0.5582942 -0.6186503 -0.67900646
0.25651354 0.5733832 0.16597936 0.31686968 -0.46776 0.99587613 -0.13580129 0.46776
0.49793807 -0.22633548 -0.43758193 0.45267096 -0.13580129 -0.25651354 -0.72427356 0.19615743
1.1165884 -1.373102 0.9053419 -0.15089032 0.8600748 -1.5541704 0.58847225 -0.39231485
-0.8902529 -1.4485471 0.49793807 -0.46776 0.8148077 0.7091845 0.79971874 0.06035613
0.27160257 -0.24142452 0.46776 0.090534195 0.34704775 -0.48284903 0.090534195 -0.27160257
0.045267098 -0.13580129 0.16597936 -0.015089032 -0.30178064 -0.34704775 0.12071226 0.07544516
-0.090534195 0.06035613 0.030178064 0.27160257 0.045267098 -0.090534195 -0.18106839 0.12071226
0.3319587 0.54320514 -0.37722582 0.21124645 0.6186503 0.63373935 -0.49793807 -0.8902529
-0.6940955 -0.54320514 0.34704775 0.4224929 0.12071226 -0.87516385 -0.5130271 -0.5582942
0.30178064 -0.015089032 0.22633548 -0.37722582 -0.16597936 -0.10562322 0.37722582 0.12071226
0.12071226 -0.18106839 0.5582942 0.82989675 0.0 -0.43758193 -0.48284903 -0.6940955
0.34704775 -0.10562322 -0.07544516 0.40740386 -0.2866916 0.07544516 -0.6488284 -0.045267098
-0.36213678 -0.06035613 0.22633548 -0.13580129 -0.43758193 0.25651354 -0.31686968 -0.27160257
-0.43758193 -0.16597936 0.16597936 0.07544516 0.30178064 0.0 -0.3319587 0.31686968
-0.25651354 -0.45267096 0.030178064 -0.36213678 0.10562322 -0.07544516 -0.030178064 -0.06035613
-0.8600748 -0.5130271 0.92043096 -0.45267096 -0.82989675 -0.7091845 0.6940955 1.1316774
0.8902529 0.5582942 -0.54320514 -1.0109651 -0.24142452 0.7846297 0.6186503 0.5733832
0.0 0.16597936 0.49793807 0.13580129 0.58847225 0.6035613 0.015089032 -0.030178064
-0.58847225 0.36213678 -1.0109651 -1.6296154 -0.22633548 0.9053419 0.6639174 1.1920335
0.090534195 0.2866916 0.06035613 -0.2866916 -0.045267098 -0.21124645 0.45267096 0.18106839
00000000: bfc1 1aff 15f2 09e9 0214 2905 09f6 e207
00000010: 071b 0912 f818 1118 0115 1028 f118 f5d9
00000020: 011b f2f8 f5d6 fe0e 0ae1 e900 03dd fe1a
00000030: eca9 18fb f51a 05ea 3706 2d09 ebd9 e632
00000040: 1cf7 dfeb 0e26 110c cef7 1020 e8de 07d8
00000050: e7db 2816 f2a2 cade 1e1e c944 0c25 d7d3
00000060: 1126 0b15 e142 f71f 21f1 e31e f7ef d00d
00000070: 4aa5 3cf6 3999 27e6 c5a0 21e1 362f 3504
00000080: 12f0 1f06 17e0 06ee 03f7 0bff ece9 0805
00000090: fa04 0212 03fa f408 1624 e70e 292a dfc5
000000a0: d2dc 171c 08c6 dedb 14ff 0fe7 f5f9 1908
000000b0: 08f4 2537 00e3 e0d2 17f9 fb1b ed05 d5fd
000000c0: e8fc 0ff7 e311 ebee e3f5 0b05 1400 ea15
000000d0: efe2 02e8 07fb fefc c7de 3de2 c9d1 2e4b
000000e0: 3b25 dcbd f034 2926 000b 2109 2728 01fe
000000f0: d918 bd94 f13c 2c4f 0613 04ed fdf2 1e0c

vision_transformer/Encoder_1/mlp_dense1_encoder/Tensordot/MatMul i1 [32, 64] scale=0.015235794 zero_point=0
0.13712214 -0.045707382 0.65513915 -0.5332528 -1.1883919 0.33518746 0.0 -0.091414765
-0.27424428 -0.060943175 0.19806533 0.0 0.2133011 -0.12188635 0.36565906 -0.8074971
0.2285369 -0.060943175 0.60943174 -0.27424428 0.10665055 0.5789602 -0.35042325 -0.518017
-0.030471588 -0.015235794 -0.2285369 0.16759373 -0.10665055 0.6856107 0.44183803 0.2590085
0.41136643 0.5789602 -0.19806533 0.2133011 -0.30471587 0.65513915 -0.36565906 -0.015235794
0.12188635 0.030471588 0.2590085 -0.2285369 0.12188635 -0.2437727 -0.045707382 0.015235794
0.13712214 0.045707382 0.15235794 0.35042325 -0.5789602 0.10665055 -0.16759373 -0.47230962
0.2590085 0.15235794 0.091414765 -0.030471588 0.7922613 0.15235794 -0.10665055 -0.091414765
-1.2645708 -0.5332528 -0.36565906 -0.030471588 -0.19806533 -0.045707382 -0.47230962 0.18282953
0.83796865 -0.7008465 0.6246675 -0.38089484 0.2437727 -0.6246675 0.045707382 -0.2590085
0.35042325 -0.54848856 -0.39613065 0.2894801 -0.77702546 -1.1122129 1.1274488 -0.07617897
0.959855 -0.060943175 0.4266022 0.10665055 -0.4875454 -0.5637244 0.015235794 -0.41136643
-0.8532044 -1.1274488 -0.2894801 -0.2437727 0.9293834 0.07617897 0.36565906 -0.31995168
0.27424428 -0.2133011 -0.9141476 0.4266022 -0.33518746 0.015235794 0.65513915 0.31995168
0.27424428 0.41136643 0.4570738 -0.16759373 -0.30471587 0.47230962 0.63990337 -0.38089484
0.30471587 -0.31995168 -1.2188635 -0.2894801 -0.19806533 0.2894801 -0.16759373 0.7617897
-1.0055624 -0.15235794 -0.12188635 -0.44183803 -1.0055624 0.38089484 -0.015235794 -0.77702546
0.2133011 0.33518746 0.2894801 -0.07617897 -0.060943175 -0.13712214 0.15235794 -0.9750908
0.10665055 -0.12188635 0.33518746 -0.19806533 0.12188635 -0.7617897 0.060943175 -0.33518746
0.9141476 -0.18282953 -0.2285369 0.39613065 -0.07617897 0.6856107 -0.030471588 0.2590085
-0.07617897 -0.5332528 -0.4570738 -0.015235794 0.2437727 0.18282953 -0.15235794 0.0
0.5027812 -0.045707382 0.16759373 0.2894801 0.045707382 -0.2285369 -0.2590085 0.07617897
0.015235794 0.091414765 -0.015235794 0.2590085 -0.33518746 0.30471587 0.59419596 -1.0969771
-0.2894801 0.10665055 -0.6856107 -0.12188635 0.4570738 0.13712214 0.030471588 0.77702546
-0.091414765 -0.045707382 0.2437727 -0.4266022 0.2590085 0.18282953 -0.2133011 0.2285369
0.7465539 -0.4266022 0.045707382 0.045707382 0.33518746 -0.39613065 0.5789602 -0.31995168
0.27424428 -0.47230962 -0.5332528 -0.2133011 0.54848856 -0.030471588 0.2590085 0.12188635
-0.07617897 0.13712214 0.2285369 0.18282953 -0.13712214 -0.2133011 0.35042325 0.13712214
-0.060943175 0.5637244 -0.2133011 -0.10665055 0.27424428 0.35042325 0.60943174 -0.30471587
0.2590085 -0.6246675 -0.27424428 -0.18282953 -0.33518746 0.35042325 0.41136643 0.2437727
0.4875454 0.2437727 0.045707382 -0.8684403 -0.59419596 0.13712214 -0.19806533 0.31995168
-0.15235794 -1.0055624 -0.2437727 -0.35042325 -0.060943175 0.31995168 -0.12188635 0.35042325
00000000: 09fd 2bdd b216 00fa eefc 0d00 0ef8 18cb
00000010: 0ffc 28ee 0726 e9de feff f10b f92d 1d11
00000020: 1b26 f30e ec2b e8ff 0802 11f1 08f0 fd01
00000030: 0903 0a17 da07 f5e1 110a 06fe 340a f9fa
00000040: addd e8fe f3fd e10c 37d2 29e7 10d7 03ef
00000050: 17dc e613 cdb7 4afb 3ffc 1c07 e0db 01e5
00000060: c8b6 edf0 3d05 18eb 12f2 c41c ea01 2b15
00000070: 121b 1ef5 ec1f 2ae7 14eb b0ed f313 f532
00000080: bef6 f8e3 be19 ffcd 0e16 13fb fcf7 0ac0
00000090: 07f8 16f3 08ce 04ea 3cf4 f11a fb2d fe11
000000a0: fbdd e2ff 100c f600 21fd 0b13 03f1 ef05
000000b0: 0106 ff11 ea14 27b8 ed07 d3f8 1e09 0233
000000c0: fafd 10e4 110c f20f 31e4 0303 16e6 26eb
000000d0: 12e1 ddf2 24fe 1108 fb09 0f0c f7f2 1709
000000e0: fc25 f2f9 1217 28ec 11d7 eef4 ea17 1b10
000000f0: 2010 03c7 d909 f315 f6be f0e9 fc15 f817
