asic/fixed_point_accuracy_study/reference_data/model_full_quant_16bx8b.tflite (tflite, 63088 bytes, 9 tensors)

vision_transformer/patch_projection_dense/Tensordot/MatMul i1 [64, 64] scale=0.009043003 zero_point=0
000000 e0 fe f6 ef e6 fc e7 05 0e f9 da d4 02 e3 f7 08
       -0.2893761 -0.018086007 -0.090430036 -0.15373106 -0.23511809 -0.036172014 -0.22607508 0.045215018 0.12660205 -0.06330103 -0.34363413 -0.39789215 0.018086007 -0.2622471 -0.08138703 0.07234403
000010 05 12 1c 20 27 26 24 f5 ff 00 fb 1f 03 0e 31 28
       0.045215018 0.16277406 0.2532041 0.2893761 0.35267714 0.34363413 0.3255481 -0.09947304 -0.009043003 0.0 -0.045215018 0.2803331 0.02712901 0.12660205 0.44310716 0.36172014
000020 31 35 09 20 1d 0a 01 f7 f6 eb eb fe 18 05 14 17
       0.44310716 0.4792792 0.08138703 0.2893761 0.2622471 0.090430036 0.009043003 -0.08138703 -0.090430036 -0.18990307 -0.18990307 -0.018086007 0.21703207 0.045215018 0.18086007 0.20798908
000030 ee e7 ef d4 d5 02 fe eb eb 0a e9 e0 db 04 f4 f0
       -0.16277406 -0.22607508 -0.15373106 -0.39789215 -0.38884914 0.018086007 -0.018086007 -0.18990307 -0.18990307 0.090430036 -0.20798908 -0.2893761 -0.33459112 0.036172014 -0.10851604 -0.14468805
000040 1d 11 fc 17 0a fa 0a e7 0a 1f 33 39 41 41 27 34
       0.2622471 0.15373106 -0.036172014 0.20798908 0.090430036 -0.05425802 0.090430036 -0.22607508 0.090430036 0.2803331 0.46119317 0.5154512 0.5877952 0.5877952 0.35267714 0.47023618
000050 01 f7 f6 02 ef e8 e9 06 fe 18 2f 34 1d 02 02 d1
       0.009043003 -0.08138703 -0.090430036 0.018086007 -0.15373106 -0.21703207 -0.20798908 0.05425802 -0.018086007 0.21703207 0.42502117 0.47023618 0.2622471 0.018086007 0.018086007 -0.42502117
000060 d9 cf df c8 e7 d8 d6 f4 d6 c5 c2 dd eb ee df d6
       -0.35267714 -0.44310716 -0.29841912 -0.5064082 -0.22607508 -0.36172014 -0.37980613 -0.10851604 -0.37980613 -0.5335372 -0.5606662 -0.31650513 -0.18990307 -0.16277406 -0.29841912 -0.37980613
000070 c9 d5 f9 02 07 03 25 07 37 47 4c 4a 27 3d 0d 2c
       -0.49736518 -0.38884914 -0.06330103 0.018086007 0.06330103 0.02712901 0.33459112 0.06330103 0.49736518 0.64205325 0.68726826 0.66918224 0.35267714 0.5516232 0.117559046 0.39789215
000080 e8 cb c0 a5 bc e2 c8 e8 fc 00 11 e8 e4 00 e9 12
       -0.21703207 -0.4792792 -0.5787522 -0.8229133 -0.61492425 -0.2712901 -0.5064082 -0.21703207 -0.036172014 0.0 0.15373106 -0.21703207 -0.2532041 0.0 -0.20798908 0.16277406
000090 03 39 4a 2b 3d 2c 0d 17 ea 15 34 21 4d 50 40 2f
       0.02712901 0.5154512 0.66918224 0.38884914 0.5516232 0.39789215 0.117559046 0.20798908 -0.19894607 0.18990307 0.47023618 0.29841912 0.69631124 0.7234403 0.5787522 0.42502117
0000a0 0a 0e 06 f6 24 13 36 15 16 1b 1a 08 15 09 15 03
       0.090430036 0.12660205 0.05425802 -0.090430036 0.3255481 0.17181706 0.4883222 0.18990307 0.19894607 0.2441611 0.23511809 0.07234403 0.18990307 0.08138703 0.18990307 0.02712901
0000b0 f5 d5 cc d1 d3 db e4 e6 f6 f2 fb d1 f1 c9 e2 ee
       -0.09947304 -0.38884914 -0.47023618 -0.42502117 -0.40693516 -0.33459112 -0.2532041 -0.23511809 -0.090430036 -0.12660205 -0.045215018 -0.42502117 -0.13564505 -0.49736518 -0.2712901 -0.16277406
0000c0 12 f8 14 ff f0 09 1c 0e 08 11 21 20 30 2f 07 1f
       0.16277406 -0.07234403 0.18086007 -0.009043003 -0.14468805 0.08138703 0.2532041 0.12660205 0.07234403 0.15373106 0.29841912 0.2893761 0.43406415 0.42502117 0.06330103 0.2803331
0000d0 f3 fa 11 04 25 11 f9 fe e8 fe dd ee 02 e8 ef df
       -0.117559046 -0.05425802 0.15373106 0.036172014 0.33459112 0.15373106 -0.06330103 -0.018086007 -0.21703207 -0.018086007 -0.31650513 -0.16277406 0.018086007 -0.21703207 -0.15373106 -0.29841912
0000e0 05 fd 15 10 2e 1b 20 17 15 fe f1 fb 0a ea 0a 03
       0.045215018 -0.02712901 0.18990307 0.14468805 0.41597816 0.2441611 0.2893761 0.20798908 0.18990307 -0.018086007 -0.13564505 -0.045215018 0.090430036 -0.19894607 0.090430036 0.02712901
0000f0 ea ea e0 da e1 d5 c7 b5 c4 f1 cc f5 db f4 d6 be
       -0.19894607 -0.19894607 -0.2893761 -0.34363413 -0.2803331 -0.38884914 -0.5154512 -0.6782253 -0.5425802 -0.13564505 -0.47023618 -0.09947304 -0.33459112 -0.10851604 -0.37980613 -0.59683824

mhsa_key_dense/Tensordot/MatMul i1 [64, 64] scale=0.013017501 zero_point=0
000000 00 fe fe 04 f7 ed 09 f6 fd 05 ff f5 f7 0b fa fd
       0.0 -0.026035002 -0.026035002 0.052070003 -0.117157504 -0.24733251 0.117157504 -0.13017501 -0.0390525 0.065087505 -0.013017501 -0.14319251 -0.117157504 0.14319251 -0.078105 -0.0390525
000010 05 f7 f2 fb 00 0e 09 f0 fe fe e7 03 0d 05 f8 0a
       0.065087505 -0.117157504 -0.18224502 -0.065087505 0.0 0.18224502 0.117157504 -0.20828001 -0.026035002 -0.026035002 -0.32543752 0.0390525 0.16922751 0.065087505 -0.104140006 0.13017501
000020 16 fc 01 01 ff 04 01 04 f8 fb fa fa 03 ef f0 f7
       0.28638503 -0.052070003 0.013017501 0.013017501 -0.013017501 0.052070003 0.013017501 0.052070003 -0.104140006 -0.065087505 -0.078105 -0.078105 0.0390525 -0.22129752 -0.20828001 -0.117157504
000030 02 f6 05 0d 0b f8 f9 02 02 ff f4 f9 fa f5 0d f9
       0.026035002 -0.13017501 0.065087505 0.16922751 0.14319251 -0.104140006 -0.09112251 0.026035002 0.026035002 -0.013017501 -0.15621 -0.09112251 -0.078105 -0.14319251 0.16922751 -0.09112251
000040 04 0a 01 d4 0f e9 ec ff ec 07 fd f8 fe 0d f0 42
       0.052070003 0.13017501 0.013017501 -0.57277006 0.1952625 -0.2994025 -0.26035002 -0.013017501 -0.26035002 0.09112251 -0.0390525 -0.104140006 -0.026035002 0.16922751 -0.20828001 0.85915506
000050 f9 15 dd 12 10 f0 07 0f 23 00 c1 05 db e8 07 12
       -0.09112251 0.27336752 -0.45561254 0.23431501 0.20828001 -0.20828001 0.09112251 0.1952625 0.45561254 0.0 -0.8201026 0.065087505 -0.48164752 -0.31242 0.09112251 0.23431501
000060 1a 20 0f f7 0b 1a 03 f0 e2 e1 00 03 f6 f2 f9 ff
       0.33845502 0.41656002 0.1952625 -0.117157504 0.14319251 0.33845502 0.0390525 -0.20828001 -0.390525 -0.40354252 0.0 0.0390525 -0.13017501 -0.18224502 -0.09112251 -0.013017501
000070 27 fc fe f3 05 ea 0b f5 fd 17 e7 0a fe f7 06 05
       0.5076825 -0.052070003 -0.026035002 -0.16922751 0.065087505 -0.28638503 0.14319251 -0.14319251 -0.0390525 0.2994025 -0.32543752 0.13017501 -0.026035002 -0.117157504 0.078105 0.065087505
000080 08 0a 02 06 0c f2 04 f3 fd f9 01 0f f8 06 f5 f7
       0.104140006 0.13017501 0.026035002 0.078105 0.15621 -0.18224502 0.052070003 -0.16922751 -0.0390525 -0.09112251 0.013017501 0.1952625 -0.104140006 0.078105 -0.14319251 -0.117157504
000090 fd f9 f2 11 03 17 08 f4 f0 fa f5 09 03 03 f2 04
       -0.0390525 -0.09112251 -0.18224502 0.22129752 0.0390525 0.2994025 0.104140006 -0.15621 -0.20828001 -0.078105 -0.14319251 0.117157504 0.0390525 0.0390525 -0.18224502 0.052070003
0000a0 13 0b 02 07 fc f7 fc f3 f4 00 f6 03 05 f9 ff fd
       0.24733251 0.14319251 0.026035002 0.09112251 -0.052070003 -0.117157504 -0.052070003 -0.16922751 -0.15621 0.0 -0.13017501 0.0390525 0.065087505 -0.09112251 -0.013017501 -0.0390525
0000b0 07 f9 ff 07 f5 f3 00 03 0a fc 05 fd 0b 0b fd 0d
       0.09112251 -0.09112251 -0.013017501 0.09112251 -0.14319251 -0.16922751 0.0 0.0390525 0.13017501 -0.052070003 0.065087505 -0.0390525 0.14319251 0.14319251 -0.0390525 0.16922751
0000c0 02 05 fb d2 10 e8 ea fb eb f8 07 00 fc 16 00 39
       0.026035002 0.065087505 -0.065087505 -0.598805 0.20828001 -0.31242 -0.28638503 -0.065087505 -0.27336752 -0.104140006 0.09112251 0.0 -0.052070003 0.28638503 0.0 0.74199754
0000d0 f3 18 d9 0e 0d e3 0e 11 10 fd ce 10 dc e2 0c 17
       -0.16922751 0.31242 -0.5076825 0.18224502 0.16922751 -0.3775075 0.18224502 0.22129752 0.20828001 -0.0390525 -0.65087503 0.20828001 -0.46863002 -0.390525 0.15621 0.2994025
0000e0 19 25 01 f6 07 13 02 04 db e0 16 15 ef f1 f8 fb
       0.32543752 0.48164752 0.013017501 -0.13017501 0.09112251 0.24733251 0.026035002 0.052070003 -0.48164752 -0.41656002 0.28638503 0.27336752 -0.22129752 -0.1952625 -0.104140006 -0.065087505
0000f0 38 06 fb f3 fc ed 04 f0 f4 1b e1 10 f7 1a 12 f9
       0.72898006 0.078105 -0.065087505 -0.16922751 -0.052070003 -0.24733251 0.052070003 -0.20828001 -0.15621 0.35147253 -0.40354252 0.20828001 -0.117157504 0.33845502 0.23431501 -0.09112251

mhsa_query_dense/Tensordot/MatMul i1 [64, 64] scale=0.010368698 zero_point=0
000000 ff ff 05 fe 06 02 08 f7 f5 00 0a fb 04 06 03 ff
       -0.010368698 -0.010368698 0.05184349 -0.020737397 0.06221219 0.020737397 0.082949586 -0.09331828 -0.11405568 0.0 0.10368698 -0.05184349 0.041474793 0.06221219 0.031106096 -0.010368698
000010 0e 00 04 fe fd f9 fa fc 05 09 03 12 fb 01 01 00
       0.14516178 0.0 0.041474793 -0.020737397 -0.031106096 -0.07258089 -0.06221219 -0.041474793 0.05184349 0.09331828 0.031106096 0.18663657 -0.05184349 0.010368698 0.010368698 0.0
000020 f2 05 03 00 05 ff 03 02 ff 02 08 00 01 fd f7 fd
       -0.14516178 0.05184349 0.031106096 0.0 0.05184349 -0.010368698 0.031106096 0.020737397 -0.010368698 0.020737397 0.082949586 0.0 0.010368698 -0.031106096 -0.09331828 -0.031106096
000030 06 09 04 01 03 ed 07 f6 0a 05 fa f7 09 00 0e fd
       0.06221219 0.09331828 0.041474793 0.010368698 0.031106096 -0.19700527 0.07258089 -0.10368698 0.10368698 0.05184349 -0.06221219 -0.09331828 0.09331828 0.0 0.14516178 -0.031106096
000040 04 fd 05 fb ec 15 13 0f 04 1c 05 07 ff 06 09 f7
       0.041474793 -0.031106096 0.05184349 -0.05184349 -0.20737396 0.21774267 0.19700527 0.15553047 0.041474793 0.29032356 0.05184349 0.07258089 -0.010368698 0.06221219 0.09331828 -0.09331828
000050 10 05 f0 fc 01 04 0d f9 f8 0a 08 f8 17 fb 06 03
       0.16589917 0.05184349 -0.16589917 -0.041474793 0.010368698 0.041474793 0.13479307 -0.07258089 -0.082949586 0.10368698 0.082949586 -0.082949586 0.23848006 -0.05184349 0.06221219 0.031106096
000060 04 06 0a ee fd 0b 15 03 01 00 01 05 01 f1 1e 0c
       0.041474793 0.06221219 0.10368698 -0.18663657 -0.031106096 0.11405568 0.21774267 0.031106096 0.010368698 0.0 0.010368698 0.05184349 0.010368698 -0.15553047 0.31106094 0.12442438
000070 e9 02 08 f6 05 0a fa 00 02 12 0b 05 03 ff 0f ed
       -0.23848006 0.020737397 0.082949586 -0.10368698 0.05184349 0.10368698 -0.06221219 0.0 0.020737397 0.18663657 0.11405568 0.05184349 0.031106096 -0.010368698 0.15553047 -0.19700527
000080 09 fa 02 06 f3 0b 10 fc 03 10 08 0c 06 02 08 0a
       0.09331828 -0.06221219 0.020737397 0.06221219 -0.13479307 0.11405568 0.16589917 -0.041474793 0.031106096 0.16589917 0.082949586 0.12442438 0.06221219 0.020737397 0.082949586 0.10368698
000090 10 ff 10 f7 01 fd 08 fd 0a 07 11 fc 05 02 ff 07
       0.16589917 -0.010368698 0.16589917 -0.09331828 0.010368698 -0.031106096 0.082949586 -0.031106096 0.10368698 0.07258089 0.17626788 -0.041474793 0.05184349 0.020737397 -0.010368698 0.07258089
0000a0 07 0a 06 03 05 ff 06 09 fa fd 07 07 03 05 0a 12
       0.07258089 0.10368698 0.06221219 0.031106096 0.05184349 -0.010368698 0.06221219 0.09331828 -0.06221219 -0.031106096 0.07258089 0.07258089 0.031106096 0.05184349 0.10368698 0.18663657
0000b0 00 13 fe fd 04 11 03 04 04 05 09 04 09 fd fe 00
       0.0 0.19700527 -0.020737397 -0.031106096 0.041474793 0.17626788 0.031106096 0.041474793 0.041474793 0.05184349 0.09331828 0.041474793 0.09331828 -0.031106096 -0.020737397 0.0
0000c0 06 03 fc 03 10 fd 00 f5 fe f4 fe 07 04 fc f9 05
       0.06221219 0.031106096 -0.041474793 0.031106096 0.16589917 -0.031106096 0.0 -0.11405568 -0.020737397 -0.12442438 -0.020737397 0.07258089 0.041474793 -0.041474793 -0.07258089 0.05184349
0000d0 f9 ff f8 f8 fe 01 fb 04 06 04 17 f0 f6 04 fa 01
       -0.07258089 -0.010368698 -0.082949586 -0.082949586 -0.020737397 0.010368698 -0.05184349 0.041474793 0.06221219 0.041474793 0.23848006 -0.16589917 -0.10368698 0.041474793 -0.06221219 0.010368698
0000e0 03 04 fa 0e ff f6 0d fc 00 f9 02 ff 08 0c 00 f5
       0.031106096 0.041474793 -0.06221219 0.14516178 -0.010368698 -0.10368698 0.13479307 -0.041474793 0.0 -0.07258089 0.020737397 -0.010368698 0.082949586 0.12442438 0.0 -0.11405568
0000f0 eb fd f6 09 fc ea 05 04 06 f5 f6 fe fc 05 f1 0b
       -0.21774267 -0.031106096 -0.10368698 0.09331828 -0.041474793 -0.22811136 0.05184349 0.041474793 0.06221219 -0.11405568 -0.10368698 -0.020737397 -0.041474793 0.05184349 -0.15553047 0.11405568

mhsa_value_dense/Tensordot/MatMul i1 [64, 64] scale=0.012264886 zero_point=0
000000 09 27 17 f2 f7 de ed 4b f4 f9 d5 04 ec ff 07 03
       0.11038397 0.47833055 0.28209236 -0.1717084 -0.11038397 -0.41700613 -0.23303284 0.91986644 -0.14717864 -0.0858542 -0.5273901 0.049059544 -0.24529772 -0.012264886 0.0858542 0.03679466
000010 17 05 d3 08 eb 01 e6 1c be fc ea c0 29 47 29 b5
       0.28209236 0.06132443 -0.5519199 0.09811909 -0.2575626 0.012264886 -0.31888703 0.3434168 -0.80948246 -0.049059544 -0.26982749 -0.7849527 0.5028603 0.8708069 0.5028603 -0.91986644
000020 3b 02 3d 03 3c 27 22 ee 42 bc f3 2c e3 dc e4 17
       0.7236283 0.024529772 0.74815804 0.03679466 0.73589313 0.47833055 0.41700613 -0.22076795 0.80948246 -0.83401227 -0.15944351 0.53965497 -0.3556817 -0.4415359 -0.3434168 0.28209236
000030 e5 1a f8 12 09 cb 10 04 0d f0 fe d3 c8 ef d5 2e
       -0.33115193 0.31888703 -0.09811909 0.22076795 0.11038397 -0.65003896 0.19623818 0.049059544 0.15944351 -0.19623818 -0.024529772 -0.5519199 -0.6868336 -0.20850307 -0.5273901 0.5641847
000040 05 10 23 28 d6 ee 0b 32 11 f5 ea fa dc 27 14 05
       0.06132443 0.19623818 0.429271 0.49059543 -0.5151252 -0.22076795 0.13491374 0.6132443 0.20850307 -0.13491374 -0.26982749 -0.07358932 -0.4415359 0.47833055 0.24529772 0.06132443
000050 09 28 08 f6 eb 0a 12 fb f2 f5 0f d5 14 2f 1f ec
       0.11038397 0.49059543 0.09811909 -0.12264886 -0.2575626 0.12264886 0.22076795 -0.06132443 -0.1717084 -0.13491374 0.18397328 -0.5273901 0.24529772 0.57644963 0.38021147 -0.24529772
000060 11 00 16 d4 09 ff 05 d1 05 e4 f4 1d fd ff f9 0e
       0.20850307 0.0 0.26982749 -0.53965497 0.11038397 -0.012264886 0.06132443 -0.57644963 0.06132443 -0.3434168 -0.14717864 0.3556817 -0.03679466 -0.012264886 -0.0858542 0.1717084
000070 ed 11 19 f9 f8 e2 ee e6 0b f1 fc de ca 12 df fd
       -0.23303284 0.20850307 0.30662215 -0.0858542 -0.09811909 -0.36794657 -0.22076795 -0.31888703 0.13491374 -0.18397328 -0.049059544 -0.41700613 -0.66230386 0.22076795 -0.40474123 -0.03679466
000080 0a 00 fa f3 33 06 1a d5 02 08 02 02 11 d0 cd 09
       0.12264886 0.0 -0.07358932 -0.15944351 0.6255092 0.07358932 0.31888703 -0.5273901 0.024529772 0.09811909 0.024529772 0.024529772 0.20850307 -0.58871454 -0.6255092 0.11038397
000090 ff e3 02 00 0d 18 fb f3 ff 1b 16 22 e7 de ca 1b
       -0.012264886 -0.3556817 0.024529772 0.0 0.15944351 0.29435727 -0.06132443 -0.15944351 -0.012264886 0.33115193 0.26982749 0.41700613 -0.30662215 -0.41700613 -0.66230386 0.33115193
0000a0 06 e5 ed 21 e5 f8 16 29 f5 0f f3 dc f8 f4 1b f1
       0.07358932 -0.33115193 -0.23303284 0.40474123 -0.33115193 -0.09811909 0.26982749 0.5028603 -0.13491374 0.18397328 -0.15944351 -0.4415359 -0.09811909 -0.14717864 0.33115193 -0.18397328
0000b0 18 de ef 09 0f 0f 16 0e ed 00 fd 1d 13 da 0d 08
       0.29435727 -0.41700613 -0.20850307 0.11038397 0.18397328 0.18397328 0.26982749 0.1717084 -0.23303284 0.0 -0.03679466 0.3556817 0.23303284 -0.46606568 0.15944351 0.09811909
0000c0 13 3d 1c 00 15 f5 f3 20 e8 09 e4 04 07 eb 03 f4
       0.23303284 0.74815804 0.3434168 0.0 0.2575626 -0.13491374 -0.15944351 0.39247635 -0.29435727 0.11038397 -0.3434168 0.049059544 0.0858542 -0.2575626 0.03679466 -0.14717864
0000d0 1d dd dc f9 e9 08 d7 0c c1 11 dd d6 28 07 0e d7
       0.3556817 -0.429271 -0.4415359 -0.0858542 -0.28209236 0.09811909 -0.5028603 0.14717864 -0.7726878 0.20850307 -0.429271 -0.5151252 0.49059543 0.0858542 0.1717084 -0.5028603
0000e0 14 fa 2e 05 42 12 43 03 54 d1 e9 02 e5 d3 e8 f2
       0.24529772 -0.07358932 0.5641847 0.06132443 0.80948246 0.22076795 0.82174736 0.03679466 1.0302504 -0.57644963 -0.28209236 0.024529772 -0.33115193 -0.5519199 -0.29435727 -0.1717084
0000f0 f7 f5 17 f5 06 d5 1d 34 07 f4 09 f1 0c dc df 1c
       -0.11038397 -0.13491374 0.28209236 -0.13491374 0.07358932 -0.5273901 0.3556817 0.63777405 0.0858542 -0.14717864 0.11038397 -0.18397328 0.14717864 -0.4415359 -0.40474123 0.3434168

mhsa_combine_head_dense/Tensordot/MatMul i1 [64, 64] scale=0.015089032 zero_point=0
000000 bf c1 1a ff 15 f2 09 e9 02 14 29 05 09 f6 e2 07
       -0.9807871 -0.950609 0.39231485 -0.015089032 0.31686968 -0.21124645 0.13580129 -0.34704775 0.030178064 0.30178064 0.6186503 0.07544516 0.13580129 -0.15089032 -0.45267096 0.10562322
000010 07 1b 09 12 f8 18 11 18 01 15 10 28 f1 18 f5 d9
       0.10562322 0.40740386 0.13580129 0.27160257 -0.12071226 0.36213678 0.25651354 0.36213678 0.015089032 0.31686968 0.24142452 0.6035613 -0.22633548 0.36213678 -0.16597936 -0.58847225
000020 01 1b f2 f8 f5 d6 fe 0e 0a e1 e9 00 03 dd fe 1a
       0.015089032 0.40740386 -0.21124645 -0.12071226 -0.16597936 -0.63373935 -0.030178064 0.21124645 0.15089032 -0.46776 -0.34704775 0.0 0.045267098 -0.5281161 -0.030178064 0.39231485
000030 ec a9 18 fb f5 1a 05 ea 37 06 2d 09 eb d9 e6 32
       -0.30178064 -1.3127458 0.36213678 -0.07544516 -0.16597936 0.39231485 0.07544516 -0.3319587 0.82989675 0.090534195 0.67900646 0.13580129 -0.31686968 -0.58847225 -0.39231485 0.75445163
000040 1c f7 df eb 0e 26 11 0c ce f7 10 20 e8 de 07 d8
       0.4224929 -0.13580129 -0.49793807 -0.31686968 0.21124645 0.5733832 0.25651354 0.18106839 -0.75445163 -0.13580129 0.24142452 0.48284903 -0.36213678 -0.5130271 0.10562322 -0.6035613
000050 e7 db 28 16 f2 a2 ca de 1e 1e c9 44 0c 25 d7 d3
       -0.37722582 -0.5582942 0.6035613 0.3319587 -0.21124645 -1.418369 -0.8148077 -0.5130271 0.45267096 0.45267096 -0.82989675 1.0260541 0.18106839 0.5582942 -0.6186503 -0.67900646
000060 11 26 0b 15 e1 42 f7 1f 21 f1 e3 1e f7 ef d0 0d
       0.25651354 0.5733832 0.16597936 0.31686968 -0.46776 0.99587613 -0.13580129 0.46776 0.49793807 -0.22633548 -0.43758193 0.45267096 -0.13580129 -0.25651354 -0.72427356 0.19615743
000070 4a a5 3c f6 39 99 27 e6 c5 a0 21 e1 36 2f 35 04
       1.1165884 -1.373102 0.9053419 -0.15089032 0.8600748 -1.5541704 0.58847225 -0.39231485 -0.8902529 -1.4485471 0.49793807 -0.46776 0.8148077 0.7091845 0.79971874 0.06035613
000080 12 f0 1f 06 17 e0 06 ee 03 f7 0b ff ec e9 08 05
       0.27160257 -0.24142452 0.46776 0.090534195 0.34704775 -0.48284903 0.090534195 -0.27160257 0.045267098 -0.13580129 0.16597936 -0.015089032 -0.30178064 -0.34704775 0.12071226 0.07544516
000090 fa 04 02 12 03 fa f4 08 16 24 e7 0e 29 2a df c5
       -0.090534195 0.06035613 0.030178064 0.27160257 0.045267098 -0.090534195 -0.18106839 0.12071226 0.3319587 0.54320514 -0.37722582 0.21124645 0.6186503 0.63373935 -0.49793807 -0.8902529
0000a0 d2 dc 17 1c 08 c6 de db 14 ff 0f e7 f5 f9 19 08
       -0.6940955 -0.54320514 0.34704775 0.4224929 0.12071226 -0.87516385 -0.5130271 -0.5582942 0.30178064 -0.015089032 0.22633548 -0.37722582 -0.16597936 -0.10562322 0.37722582 0.12071226
0000b0 08 f4 25 37 00 e3 e0 d2 17 f9 fb 1b ed 05 d5 fd
       0.12071226 -0.18106839 0.5582942 0.82989675 0.0 -0.43758193 -0.48284903 -0.6940955 0.34704775 -0.10562322 -0.07544516 0.40740386 -0.2866916 0.07544516 -0.6488284 -0.045267098
0000c0 e8 fc 0f f7 e3 11 eb ee e3 f5 0b 05 14 00 ea 15
       -0.36213678 -0.06035613 0.22633548 -0.13580129 -0.43758193 0.25651354 -0.31686968 -0.27160257 -0.43758193 -0.16597936 0.16597936 0.07544516 0.30178064 0.0 -0.3319587 0.31686968
0000d0 ef e2 02 e8 07 fb fe fc c7 de 3d e2 c9 d1 2e 4b
       -0.25651354 -0.45267096 0.030178064 -0.36213678 0.10562322 -0.07544516 -0.030178064 -0.06035613 -0.8600748 -0.5130271 0.92043096 -0.45267096 -0.82989675 -0.7091845 0.6940955 1.1316774
0000e0 3b 25 dc bd f0 34 29 26 00 0b 21 09 27 28 01 fe
       0.8902529 0.5582942 -0.54320514 -1.0109651 -0.24142452 0.7846297 0.6186503 0.5733832 0.0 0.16597936 0.49793807 0.13580129 0.58847225 0.6035613 0.015089032 -0.030178064
0000f0 d9 18 bd 94 f1 3c 2c 4f 06 13 04 ed fd f2 1e 0c
       -0.58847225 0.36213678 -1.0109651 -1.6296154 -0.22633548 0.9053419 0.6639174 1.1920335 0.090534195 0.2866916 0.06035613 -0.2866916 -0.045267098 -0.21124645 0.45267096 0.18106839

vision_transformer/Encoder_1/mlp_dense1_encoder/Tensordot/MatMul i1 [32, 64] scale=0.015235794 zero_point=0
000000 09 fd 2b dd b2 16 00 fa ee fc 0d 00 0e f8 18 cb
       0.13712214 -0.045707382 0.65513915 -0.5332528 -1.1883919 0.33518746 0.0 -0.091414765 -0.27424428 -0.060943175 0.19806533 0.0 0.2133011 -0.12188635 0.36565906 -0.8074971
000010 0f fc 28 ee 07 26 e9 de fe ff f1 0b f9 2d 1d 11
       0.2285369 -0.060943175 0.60943174 -0.27424428 0.10665055 0.5789602 -0.35042325 -0.518017 -0.030471588 -0.015235794 -0.2285369 0.16759373 -0.10665055 0.6856107 0.44183803 0.2590085
000020 1b 26 f3 0e ec 2b e8 ff 08 02 11 f1 08 f0 fd 01
       0.41136643 0.5789602 -0.19806533 0.2133011 -0.30471587 0.65513915 -0.36565906 -0.015235794 0.12188635 0.030471588 0.2590085 -0.2285369 0.12188635 -0.2437727 -0.045707382 0.015235794
000030 09 03 0a 17 da 07 f5 e1 11 0a 06 fe 34 0a f9 fa
       0.13712214 0.045707382 0.15235794 0.35042325 -0.5789602 0.10665055 -0.16759373 -0.47230962 0.2590085 0.15235794 0.091414765 -0.030471588 0.7922613 0.15235794 -0.10665055 -0.091414765
000040 ad dd e8 fe f3 fd e1 0c 37 d2 29 e7 10 d7 03 ef
       -1.2645708 -0.5332528 -0.36565906 -0.030471588 -0.19806533 -0.045707382 -0.47230962 0.18282953 0.83796865 -0.7008465 0.6246675 -0.38089484 0.2437727 -0.6246675 0.045707382 -0.2590085
000050 17 dc e6 13 cd b7 4a fb 3f fc 1c 07 e0 db 01 e5
       0.35042325 -0.54848856 -0.39613065 0.2894801 -0.77702546 -1.1122129 1.1274488 -0.07617897 0.959855 -0.060943175 0.4266022 0.10665055 -0.4875454 -0.5637244 0.015235794 -0.41136643
000060 c8 b6 ed f0 3d 05 18 eb 12 f2 c4 1c ea 01 2b 15
       -0.8532044 -1.1274488 -0.2894801 -0.2437727 0.9293834 0.07617897 0.36565906 -0.31995168 0.27424428 -0.2133011 -0.9141476 0.4266022 -0.33518746 0.015235794 0.65513915 0.31995168
000070 12 1b 1e f5 ec 1f 2a e7 14 eb b0 ed f3 13 f5 32
       0.27424428 0.41136643 0.4570738 -0.16759373 -0.30471587 0.47230962 0.63990337 -0.38089484 0.30471587 -0.31995168 -1.2188635 -0.2894801 -0.19806533 0.2894801 -0.16759373 0.7617897
000080 be f6 f8 e3 be 19 ff cd 0e 16 13 fb fc f7 0a c0
       -1.0055624 -0.15235794 -0.12188635 -0.44183803 -1.0055624 0.38089484 -0.015235794 -0.77702546 0.2133011 0.33518746 0.2894801 -0.07617897 -0.060943175 -0.13712214 0.15235794 -0.9750908
000090 07 f8 16 f3 08 ce 04 ea 3c f4 f1 1a fb 2d fe 11
       0.10665055 -0.12188635 0.33518746 -0.19806533 0.12188635 -0.7617897 0.060943175 -0.33518746 0.9141476 -0.18282953 -0.2285369 0.39613065 -0.07617897 0.6856107 -0.030471588 0.2590085
0000a0 fb dd e2 ff 10 0c f6 00 21 fd 0b 13 03 f1 ef 05
       -0.07617897 -0.5332528 -0.4570738 -0.015235794 0.2437727 0.18282953 -0.15235794 0.0 0.5027812 -0.045707382 0.16759373 0.2894801 0.045707382 -0.2285369 -0.2590085 0.07617897
0000b0 01 06 ff 11 ea 14 27 b8 ed 07 d3 f8 1e 09 02 33
       0.015235794 0.091414765 -0.015235794 0.2590085 -0.33518746 0.30471587 0.59419596 -1.0969771 -0.2894801 0.10665055 -0.6856107 -0.12188635 0.4570738 0.13712214 0.030471588 0.77702546
0000c0 fa fd 10 e4 11 0c f2 0f 31 e4 03 03 16 e6 26 eb
       -0.091414765 -0.045707382 0.2437727 -0.4266022 0.2590085 0.18282953 -0.2133011 0.2285369 0.7465539 -0.4266022 0.045707382 0.045707382 0.33518746 -0.39613065 0.5789602 -0.31995168
0000d0 12 e1 dd f2 24 fe 11 08 fb 09 0f 0c f7 f2 17 09
       0.27424428 -0.47230962 -0.5332528 -0.2133011 0.54848856 -0.030471588 0.2590085 0.12188635 -0.07617897 0.13712214 0.2285369 0.18282953 -0.13712214 -0.2133011 0.35042325 0.13712214
0000e0 fc 25 f2 f9 12 17 28 ec 11 d7 ee f4 ea 17 1b 10
       -0.060943175 0.5637244 -0.2133011 -0.10665055 0.27424428 0.35042325 0.60943174 -0.30471587 0.2590085 -0.6246675 -0.27424428 -0.18282953 -0.33518746 0.35042325 0.41136643 0.2437727
0000f0 20 10 03 c7 d9 09 f3 15 f6 be f0 e9 fc 15 f8 17
       0.4875454 0.2437727 0.045707382 -0.8684403 -0.59419596 0.13712214 -0.19806533 0.31995168 -0.15235794 -1.0055624 -0.2437727 -0.35042325 -0.060943175 0.31995168 -0.12188635 0.35042325

vision_transformer/Encoder_1/mlp_dense2_encoder/Tensordot/MatMul i1 [64, 32] scale=0.013358194 zero_point=0
000000 37 fc 17 d6 15 13 34 ff 02 1a 1f 10 00 b1 00 ce
       0.7347007 -0.053432778 0.30723846 -0.56104416 0.28052208 0.2538057 0.6946261 -0.013358194 0.026716389 0.34731305 0.414104 0.21373111 0.0 -1.0552974 0.0 -0.66790974
000010 05 af 10 10 cf 11 f2 c9 c1 09 16 f6 fb fd 19 19
       0.06679097 -1.0820137 0.21373111 0.21373111 -0.6545515 0.2270893 -0.18701473 -0.7347007 -0.84156626 0.120223746 0.29388028 -0.13358194 -0.06679097 -0.040074583 0.33395487 0.33395487
000020 e5 ec ee 54 e7 39 d5 3e b7 ff 45 17 c8 f1 e3 fe
       -0.36067125 -0.26716387 -0.24044749 1.1220883 -0.33395487 0.7614171 -0.57440233 0.828208 -0.9751482 -0.013358194 0.92171544 0.30723846 -0.7480589 -0.20037292 -0.38738763 -0.026716389
000030 e2 f6 e7 c6 2e 51 14 fb 1f 13 0f 3b 07 98 ea e9
       -0.40074584 -0.13358194 -0.33395487 -0.77477527 0.6144769 1.0820137 0.26716387 -0.06679097 0.414104 0.2538057 0.20037292 0.78813344 0.093507364 -1.3892522 -0.29388028 -0.30723846
000040 13 36 e3 c2 f7 bb 1a ca de 27 c1 93 18 1b c5 e2
       0.2538057 0.7213425 -0.38738763 -0.828208 -0.120223746 -0.92171544 0.34731305 -0.7213425 -0.4541786 0.52096957 -0.84156626 -1.4560432 0.32059667 0.36067125 -0.78813344 -0.40074584
000050 ff 04 1f f2 e9 be 16 24 0b f9 97 fd d9 17 29 09
       -0.013358194 0.053432778 0.414104 -0.18701473 -0.30723846 -0.88164085 0.29388028 0.48089498 0.14694014 -0.093507364 -1.4026104 -0.040074583 -0.52096957 0.30723846 0.547686 0.120223746
000060 e2 dd 0d 2c 27 d2 c5 f0 fd fc 03 ea e3 0d 19 1f
       -0.40074584 -0.4675368 0.17365652 0.58776057 0.52096957 -0.6144769 -0.78813344 -0.21373111 -0.040074583 -0.053432778 0.040074583 -0.29388028 -0.38738763 0.17365652 0.33395487 0.414104
000070 e4 0f e4 03 06 fc f2 ef 08 e0 19 ef 2b dc 08 e9
       -0.37402946 0.20037292 -0.37402946 0.040074583 0.08014917 -0.053432778 -0.18701473 -0.2270893 0.106865555 -0.42746222 0.33395487 -0.2270893 0.57440233 -0.48089498 0.106865555 -0.30723846
000080 fa b6 e6 32 03 f9 e8 0e e1 ee 06 e1 00 0f cd 2c
       -0.08014917 -0.9885064 -0.34731305 0.66790974 0.040074583 -0.093507364 -0.32059667 0.18701473 -0.414104 -0.24044749 0.08014917 -0.414104 0.0 0.20037292 -0.6812679 0.58776057
000090 fe 14 df 02 0f 03 04 0a 06 fd dd 0c 0e fd d5 e3
       -0.026716389 0.26716387 -0.44082043 0.026716389 0.20037292 0.040074583 0.053432778 0.13358194 0.08014917 -0.040074583 -0.4675368 0.16029833 0.18701473 -0.040074583 -0.57440233 -0.38738763
0000a0 ea 0b cb 28 e6 f0 14 f2 f3 ce ca f7 fc 7d f2 5e
       -0.29388028 0.14694014 -0.7079843 0.53432775 -0.34731305 -0.21373111 0.26716387 -0.18701473 -0.17365652 -0.66790974 -0.7213425 -0.120223746 -0.053432778 1.6697743 -0.18701473 1.2556703
0000b0 fc 7f f8 d8 14 ec 1d 6b 3b fc e8 02 11 1a d9 de
       -0.053432778 1.6964906 -0.106865555 -0.53432775 0.26716387 -0.26716387 0.38738763 1.4293268 0.78813344 -0.053432778 -0.32059667 0.026716389 0.2270893 0.34731305 -0.52096957 -0.4541786
0000c0 ea fc e9 1f 1e 3c cd 1f da 14 4c 29 db 09 d6 1c
       -0.29388028 -0.053432778 -0.30723846 0.414104 0.40074584 0.8014917 -0.6812679 0.414104 -0.5076114 0.26716387 1.0152228 0.547686 -0.4942532 0.120223746 -0.56104416 0.37402946
0000d0 d7 0c ee e7 13 18 10 09 18 0d f8 3d 37 b7 14 0d
       -0.547686 0.16029833 -0.24044749 -0.33395487 0.2538057 0.32059667 0.21373111 0.120223746 0.32059667 0.17365652 -0.106865555 0.81484985 0.7347007 -0.9751482 0.26716387 0.17365652
0000e0 05 df f0 55 f3 24 0d 18 eb ec 0f 0a fb f1 e6 fe
       0.06679097 -0.44082043 -0.21373111 1.1354465 -0.17365652 0.48089498 0.17365652 0.32059667 -0.28052208 -0.26716387 0.20037292 0.13358194 -0.06679097 -0.20037292 -0.34731305 -0.026716389
0000f0 ff f9 fd fe 02 36 1c ec 20 03 1c 2c 00 f7 02 fa
       -0.013358194 -0.093507364 -0.040074583 -0.026716389 0.026716389 0.7213425 0.37402946 -0.26716387 0.42746222 0.040074583 0.37402946 0.58776057 0.0 -0.120223746 0.026716389 -0.08014917

vision_transformer/mlp_head/mlp_head_dense1/MatMul i1 [32, 64] scale=0.016321765 zero_point=0
000000 fe 04 1c dc e0 fe 0d bb 00 37 03 05 f5 08 f8 dc
       -0.03264353 0.06528706 0.45700943 -0.58758354 -0.5222965 -0.03264353 0.21218295 -1.1262017 0.0 0.8976971 0.048965298 0.081608824 -0.17953941 0.13057412 -0.13057412 -0.58758354
000010 f5 0c 01 cd 22 fe e7 0d ff f1 f2 fc 09 24 f1 3e
       -0.17953941 0.19586119 0.016321765 -0.83241004 0.55494004 -0.03264353 -0.40804413 0.21218295 -0.016321765 -0.24482648 -0.22850472 -0.06528706 0.14689589 0.58758354 -0.24482648 1.0119494
000020 fd 31 04 02 f7 ef c2 10 f5 09 01 e1 0f e9 c0 f5
       -0.048965298 0.7997665 0.06528706 0.03264353 -0.14689589 -0.27747002 -1.0119494 0.26114824 -0.17953941 0.14689589 0.016321765 -0.5059747 0.24482648 -0.3754006 -1.044593 -0.17953941
000030 f7 f4 f2 fc 07 f8 fb fc 01 fe 06 08 00 f4 fd 03
       -0.14689589 -0.19586119 -0.22850472 -0.06528706 0.11425236 -0.13057412 -0.081608824 -0.06528706 0.016321765 -0.03264353 0.097930595 0.13057412 0.0 -0.19586119 -0.048965298 0.048965298
000040 e9 01 e0 1a 11 24 f9 10 f4 f0 27 02 0c f9 04 0a
       -0.3754006 0.016321765 -0.5222965 0.4243659 0.27747002 0.58758354 -0.11425236 0.26114824 -0.19586119 -0.26114824 0.6365488 0.03264353 0.19586119 -0.11425236 0.06528706 0.16321765
000050 fc fd 11 19 f8 f7 1b 0a fc 03 df 13 ea f3 03 f5
       -0.06528706 -0.048965298 0.27747002 0.40804413 -0.13057412 -0.14689589 0.44068766 0.16321765 -0.06528706 0.048965298 -0.53861827 0.31011355 -0.35907882 -0.21218295 0.048965298 -0.17953941
000060 02 fe 96 02 fd 03 12 f6 0d f9 1d 05 04 d1 0c 08
       0.03264353 -0.03264353 -1.7301071 0.03264353 -0.048965298 0.048965298 0.29379177 -0.16321765 0.21218295 -0.11425236 0.47333118 0.081608824 0.06528706 -0.767123 0.19586119 0.13057412
000070 08 06 06 11 04 fd 2a fe 04 08 ec fc fd 06 cd 26
       0.13057412 0.097930595 0.097930595 0.27747002 0.06528706 -0.048965298 0.68551415 -0.03264353 0.06528706 0.13057412 -0.3264353 -0.06528706 -0.048965298 0.097930595 -0.83241004 0.6202271
000080 00 fa 09 fb 15 0d fd 14 01 04 ff 21 0c fb db 22
       0.0 -0.097930595 0.14689589 -0.081608824 0.34275708 0.21218295 -0.048965298 0.3264353 0.016321765 0.06528706 -0.016321765 0.53861827 0.19586119 -0.081608824 -0.6039053 0.55494004
000090 05 fa fc f3 0b 31 f8 43 dc be fc eb f1 e1 c1 02
       0.081608824 -0.097930595 -0.06528706 -0.21218295 0.17953941 0.7997665 -0.13057412 1.0935583 -0.58758354 -1.0772365 -0.06528706 -0.34275708 -0.24482648 -0.5059747 -1.0282712 0.03264353
0000a0 2f 10 f7 1b e0 d8 06 f8 e2 fa 03 02 f3 f6 fc 0a
       0.767123 0.26114824 -0.14689589 0.44068766 -0.5222965 -0.6528706 0.097930595 -0.13057412 -0.48965296 -0.097930595 0.048965298 0.03264353 -0.21218295 -0.16321765 -0.06528706 0.16321765
0000b0 0e 0c 0c 00 27 03 f4 2b 39 fe 13 fe e1 09 f5 d9
       0.22850472 0.19586119 0.19586119 0.0 0.6365488 0.048965298 -0.19586119 0.70183593 0.93034065 -0.03264353 0.31011355 -0.03264353 -0.5059747 0.14689589 -0.17953941 -0.6365488
0000c0 ff 00 10 e3 da fd 02 b7 ff 40 00 05 03 03 fb ee
       -0.016321765 0.0 0.26114824 -0.47333118 -0.6202271 -0.048965298 0.03264353 -1.1914889 -0.016321765 1.044593 0.0 0.081608824 0.048965298 0.048965298 -0.081608824 -0.29379177
0000d0 fd 04 fa bd 1e fe f4 0a 00 fb fb 05 04 1b f6 33
       -0.048965298 0.06528706 -0.097930595 -1.0935583 0.48965296 -0.03264353 -0.19586119 0.16321765 0.0 -0.081608824 -0.081608824 0.081608824 0.06528706 0.44068766 -0.16321765 0.83241004
0000e0 fa 1c 02 ff ff f6 b5 02 f6 00 0d e4 ff eb cf 0c
       -0.097930595 0.45700943 0.03264353 -0.016321765 -0.016321765 -0.16321765 -1.2241324 0.03264353 -0.16321765 0.0 0.21218295 -0.45700943 -0.016321765 -0.34275708 -0.7997665 0.19586119
0000f0 fe f9 fc 05 04 ff 03 fc 01 ff fe fe 02 02 07 fe
       -0.03264353 -0.11425236 -0.06528706 0.081608824 0.06528706 -0.016321765 0.048965298 -0.06528706 0.016321765 -0.016321765 -0.03264353 -0.03264353 0.03264353 0.03264353 0.11425236 -0.03264353

vision_transformer/mlp_head_softmax/MatMul i1 [5, 32] scale=0.051083654 zero_point=0
000000 fd ed cc 10 c7 0e cc cc f1 f1 06 ee e5 18 13 10
       -0.15325096 -0.9705894 -2.6563501 0.81733847 -2.9117682 0.71517116 -2.6563501 -2.6563501 -0.7662548 -0.7662548 0.30650192 -0.9195058 -1.3792586 1.2260077 0.9705894 0.81733847
000010 15 15 c8 39 da 68 7f 18 f0 d9 ea 17 12 db 19 f4
       1.0727568 1.0727568 -2.8606846 2.9117682 -1.9411788 5.3127003 6.487624 1.2260077 -0.81733847 -1.9922625 -1.1238403 1.174924 0.9195058 -1.8900952 1.2770914 -0.61300385
000020 fd ff ea fa e4 15 e9 05 fd 00 fd f4 f5 fd eb ff
       -0.15325096 -0.051083654 -1.1238403 -0.30650192 -1.4303423 1.0727568 -1.174924 0.25541827 -0.15325096 0.0 -0.15325096 -0.61300385 -0.56192017 -0.15325096 -1.0727568 -0.051083654
000030 ff fa fb fc eb fb fe 0c fa fa 0c fb 08 ea 15 13
       -0.051083654 -0.30650192 -0.25541827 -0.20433462 -1.0727568 -0.25541827 -0.10216731 0.61300385 -0.30650192 -0.30650192 0.61300385 -0.25541827 0.40866923 -1.1238403 1.0727568 0.9705894
000040 00 ff 00 fb fa 00 01 04 fe 00 00 02 f9 ff fe 00
       0.0 -0.051083654 0.0 -0.25541827 -0.30650192 0.0 0.051083654 0.20433462 -0.10216731 0.0 0.0 0.10216731 -0.35758558 -0.051083654 -0.10216731 0.0
000050 01 fd fa fc 01 fc ff fe fa fa 01 fd fd fe 02 00
       0.051083654 -0.15325096 -0.30650192 -0.20433462 0.051083654 -0.20433462 -0.051083654 -0.10216731 -0.30650192 -0.30650192 0.051083654 -0.15325096 -0.15325096 -0.10216731 0.10216731 0.0
000060 fc f2 00 f8 fb ff 01 f3 f1 f4 02 f3 fd fb 02 fd
       -0.20433462 -0.71517116 0.0 -0.40866923 -0.25541827 -0.051083654 0.051083654 -0.66408753 -0.7662548 -0.61300385 0.10216731 -0.66408753 -0.15325096 -0.25541827 0.10216731 -0.15325096
000070 fe 07 e9 11 02 38 39 09 ee fe fe fa 14 fe 00 fe
       -0.10216731 0.35758558 -1.174924 0.86842215 0.10216731 2.8606846 2.9117682 0.4597529 -0.9195058 -0.10216731 -0.10216731 -0.30650192 1.0216731 -0.10216731 0.0 -0.10216731
000080 0b f6 00 0c fb 06 01 07 f3 f8 05 05 ea 0e ee 11
       0.56192017 -0.51083654 0.0 0.61300385 -0.25541827 0.30650192 0.051083654 0.35758558 -0.66408753 -0.40866923 0.25541827 0.25541827 -1.1238403 0.71517116 -0.9195058 0.86842215
000090 11 06 fa fd 02 11 17 09 f1 ec 0c 08 0e fe 06 07
       0.86842215 0.30650192 -0.30650192 -0.15325096 0.10216731 0.86842215 1.174924 0.4597529 -0.7662548 -1.0216731 0.61300385 0.40866923 0.71517116 -0.10216731 0.30650192 0.35758558
