asic/fixed_point_accuracy_study/reference_data/model_full_quant.tflite (tflite, 66192 bytes, 18 tensors)

vision_transformer/patch_projection_dense/Tensordot/MatMul i1 [64, 64] scale=0.009043003 zero_point=0
-0.2893761 -0.018086007 -0.090430036 -0.15373106 -0.23511809 -0.036172014 -0.22607508 0.045215018
0.12660205 -0.06330103 -0.34363413 -0.39789215 0.018086007 -0.2622471 -0.08138703 0.07234403
0.045215018 0.16277406 0.2532041 0.2893761 0.35267714 0.34363413 0.3255481 -0.09947304
-0.009043003 0.0 -0.045215018 0.2803331 0.02712901 0.12660205 0.44310716 0.36172014
0.44310716 0.4792792 0.08138703 0.2893761 0.2622471 0.090430036 0.009043003 -0.08138703
-0.090430036 -0.18990307 -0.18990307 -0.018086007 0.21703207 0.045215018 0.18086007 0.20798908
-0.16277406 -0.22607508 -0.15373106 -0.39789215 -0.38884914 0.018086007 -0.018086007 -0.18990307
-0.18990307 0.090430036 -0.20798908 -0.2893761 -0.33459112 0.036172014 -0.10851604 -0.14468805
0.2622471 0.15373106 -0.036172014 0.20798908 0.090430036 -0.05425802 0.090430036 -0.22607508
0.090430036 0.2803331 0.46119317 0.5154512 0.5877952 0.5877952 0.35267714 0.47023618
0.009043003 -0.08138703 -0.090430036 0.018086007 -0.15373106 -0.21703207 -0.20798908 0.05425802
-0.018086007 0.21703207 0.42502117 0.47023618 0.2622471 0.018086007 0.018086007 -0.42502117
-0.35267714 -0.44310716 -0.29841912 -0.5064082 -0.22607508 -0.36172014 -0.37980613 -0.10851604
-0.37980613 -0.5335372 -0.5606662 -0.31650513 -0.18990307 -0.16277406 -0.29841912 -0.37980613
-0.49736518 -0.38884914 -0.06330103 0.018086007 0.06330103 0.02712901 0.33459112 0.06330103
0.49736518 0.64205325 0.68726826 0.66918224 0.35267714 0.5516232 0.117559046 0.39789215
-0.21703207 -0.4792792 -0.5787522 -0.8229133 -0.61492425 -0.2712901 -0.5064082 -0.21703207
-0.036172014 0.0 0.15373106 -0.21703207 -0.2532041 0.0 -0.20798908 0.16277406
0.02712901 0.5154512 0.66918224 0.38884914 0.5516232 0.39789215 0.117559046 0.20798908
-0.19894607 0.18990307 0.47023618 0.29841912 0.69631124 0.7234403 0.5787522 0.42502117
0.090430036 0.12660205 0.05425802 -0.090430036 0.3255481 0.17181706 0.4883222 0.18990307
0.19894607 0.2441611 0.23511809 0.07234403 0.18990307 0.08138703 0.18990307 0.02712901
-0.09947304 -0.38884914 -0.47023618 -0.42502117 -0.40693516 -0.33459112 -0.2532041 -0.23511809
-0.090430036 -0.12660205 -0.045215018 -0.42502117 -0.13564505 -0.49736518 -0.2712901 -0.16277406
0.16277406 -0.07234403 0.18086007 -0.009043003 -0.14468805 0.08138703 0.2532041 0.12660205
0.07234403 0.15373106 0.29841912 0.2893761 0.43406415 0.42502117 0.06330103 0.2803331
-0.117559046 -0.05425802 0.15373106 0.036172014 0.33459112 0.15373106 -0.06330103 -0.018086007
-0.21703207 -0.018086007 -0.31650513 -0.16277406 0.018086007 -0.21703207 -0.15373106 -0.29841912
0.045215018 -0.02712901 0.18990307 0.14468805 0.41597816 0.2441611 0.2893761 0.20798908
0.18990307 -0.018086007 -0.13564505 -0.045215018 0.090430036 -0.19894607 0.090430036 0.02712901
-0.19894607 -0.19894607 -0.2893761 -0.34363413 -0.2803331 -0.38884914 -0.5154512 -0.6782253
-0.5425802 -0.13564505 -0.47023618 -0.09947304 -0.33459112 -0.10851604 -0.37980613 -0.59683824
00000000: e0fe f6ef e6fc e705 0ef9 dad4 02e3 f708
00000010: 0512 1c20 2726 24f5 ff00 fb1f 030e 3128
00000020: 3135 0920 1d0a 01f7 f6eb ebfe 1805 1417
00000030: eee7 efd4 d502 feeb eb0a e9e0 db04 f4f0
00000040: 1d11 fc17 0afa 0ae7 0a1f 3339 4141 2734
00000050: 01f7 f602 efe8 e906 fe18 2f34 1d02 02d1
00000060: d9cf dfc8 e7d8 d6f4 d6c5 c2dd ebee dfd6
00000070: c9d5 f902 0703 2507 3747 4c4a 273d 0d2c
00000080: e8cb c0a5 bce2 c8e8 fc00 11e8 e400 e912
00000090: 0339 4a2b 3d2c 0d17 ea15 3421 4d50 402f
000000a0: 0a0e 06f6 2413 3615 161b 1a08 1509 1503
000000b0: f5d5 ccd1 d3db e4e6 f6f2 fbd1 f1c9 e2ee
000000c0: 12f8 14ff f009 1c0e 0811 2120 302f 071f
000000d0: f3fa 1104 2511 f9fe e8fe ddee 02e8 efdf
000000e0: 05fd 1510 2e1b 2017 15fe f1fb 0aea 0a03
000000f0: eaea e0da e1d5 c7b5 c4f1 ccf5 dbf4 d6be

vision_transformer/patch_projection_dense/bias i1 [64] scale=0.0098667 zero_point=13
-0.0197334 -0.5722686 -0.108533695 1.1149371 -0.118400395 0.62160206 0.2762676 0.8386695
0.5525352 0.78933597 -0.2565342 0.6018687 -0.7597359 -0.8781363 0.088800296 -0.1578672
-1.0064033 -0.5130684 0.049333498 -0.19733399 0.43413478 0.97680324 0.0 -0.86826956
-0.1578672 -0.5722686 1.0261368 -0.21706739 0.118400395 0.2861343 -0.34533447 0.7202691
0.3650679 -0.26640087 -0.26640087 -0.34533447 -0.5130684 0.4440015 0.74000245 -0.78933597
1.0360035 -0.4045347 -0.888003 0.1381338 -1.1741372 -1.2037374 0.18746729 -0.81893605
-0.0789336 0.6413355 1.0064033 -0.50320166 0.43413478 -0.2565342 -0.1282671 1.1248038
0.22693409 -1.3912046 0.30586767 -0.088800296 0.21706739 0.86826956 -0.0789336 0.059200197
00000000: 0bd3 027e 014c 2962 455d f34a c0b4 16fd
00000010: a7d9 12f9 3970 0db5 fdd3 75f7 192a ea56
00000020: 32f2 f2ea d93a 58bd 76e4 b31b 9693 20ba
00000030: 054e 73da 39f3 007f 2480 2c04 2365 0513

class_emb i1 [1, 1, 64] scale=0.03152014 zero_point=5
1.576007 0.4728021 -0.3152014 0.1576007 1.1032048 -0.44128194 -0.25216112 -0.25216112
0.06304028 -0.5988827 -0.06304028 -0.094560415 -0.12608056 0.0 -0.18912083 0.34672153
-0.22064097 -0.12608056 -0.53584236 0.22064097 0.28368124 0.44128194 -0.1576007 0.40976182
-0.37824166 -0.40976182 0.06304028 -0.25216112 -0.1576007 -0.22064097 -0.22064097 -0.28368124
0.50432223 -0.50432223 -0.18912083 0.22064097 0.1576007 -0.37824166 0.0 0.25216112
-0.18912083 0.40976182 -0.1576007 -0.03152014 -0.094560415 0.094560415 -0.03152014 -0.3152014
-1.2292855 -0.5673625 0.28368124 0.1576007 1.5444869 -0.9456042 -0.06304028 -0.094560415
-0.5988827 -0.28368124 1.0716847 0.22064097 -0.094560415 0.0 0.0 0.03152014
00000000: 3714 fb0a 28f7 fdfd 07f2 0302 0105 ff10
00000010: fe01 f40c 0e13 0012 f9f8 07fd 00fe fefc
00000020: 15f5 ff0c 0af9 050d ff12 0004 0208 04fb
00000030: def3 0e0a 36e7 0302 f2fc 270c 0205 0506

pos_emb i1 [1, 61, 64] scale=0.00990606 zero_point=-12
1.2283515 0.3467121 -0.40614846 -0.13868484 0.98069996 -0.5052091 -0.47549087 0.02971818
-0.11887272 -0.16840301 -0.31699392 -0.08915454 -0.41605452 -0.02971818 -0.29718181 0.20802726
-0.2476515 0.02971818 -0.45567876 0.3467121 0.08915454 0.5844575 -0.29718181 0.0
-0.11887272 -0.6835182 -0.28727573 -0.20802726 -0.01981212 -0.07924848 0.0495303 -0.16840301
0.57455146 -0.33680603 -0.12877879 -0.15849696 0.30708787 0.10896666 -0.0990606 -0.13868484
-0.03962424 0.1981212 -0.20802726 -0.31699392 -0.31699392 0.13868484 -0.35661817 -0.1981212
-1.1491029 -0.37643027 0.40614846 0.03962424 1.3769424 -0.88163936 -0.40614846 0.17830908
-0.18821514 0.1981212 0.95098174 -0.06934242 -0.16840301 -0.0990606 0.2476515 0.1981212
-0.2476515 -0.63398784 -0.25755757 -0.10896666 -0.29718181 0.41605452 0.0990606 0.6240818
0.65379995 -0.28727573 -0.0990606 -0.31699392 -0.26746362 -0.25755757 0.47549087 -0.55473936
-0.02971818 0.0495303 -0.06934242 -0.32689998 -0.27736968 -0.25755757 -0.27736968 -0.5646454
0.32689998 0.07924848 0.11887272 0.8122969 0.11887272 -0.08915454 0.28727573 0.6042697
-0.20802726 -0.07924848 -0.5646454 -0.67361206 -0.37643027 0.5844575 -0.08915454 -0.663706
0.33680603 0.01981212 -0.02971818 -0.0495303 -0.28727573 -0.22783938 0.13868484 0.0990606
0.55473936 0.8420151 0.20802726 0.1981212 0.06934242 0.14859091 0.01981212 0.06934242
-0.05943636 -0.13868484 -0.03962424 -0.03962424 0.20802726 0.5052091 0.18821514 0.38633636
-0.06934242 -0.4457727 -0.12877879 0.00990606 -0.3962424 0.3467121 0.13868484 0.53492725
0.28727573 -0.35661817 0.0 -0.17830908 -0.36652422 -0.31699392 0.59436363 -0.4457727
0.14859091 -0.01981212 -0.05943636 -0.32689998 -0.10896666 -0.47549087 -0.27736968 -0.3467121
0.3467121 0.27736968 0.06934242 0.67361206 0.36652422 0.10896666 0.42596057 0.6438939
-0.25755757 0.0 -0.40614846 -0.86182725 -0.37643027 0.4655848 0.10896666 -0.75286055
0.30708787 -0.07924848 0.13868484 -0.11887272 -0.0990606 -0.17830908 0.07924848 0.03962424
0.20802726 0.663706 0.3962424 0.0990606 -0.00990606 0.18821514 0.01981212 0.25755757
0.00990606 0.10896666 -0.17830908 -0.18821514 0.42596057 0.495303 0.35661817 0.21793333
0.10896666 -0.495303 -0.06934242 0.03962424 -0.4457727 0.31699392 0.12877879 0.78257877
0.4457727 -0.0495303 0.05943636 -0.30708787 -0.23774543 -0.20802726 0.5844575 -0.47549087
0.29718181 0.02971818 0.13868484 -0.29718181 0.10896666 -0.3467121 -0.38633636 -0.38633636
0.33680603 -0.05943636 0.0990606 0.7924848 0.40614846 0.05943636 0.26746362 0.6240818
-0.22783938 -0.05943636 -0.55473936 -0.6438939 -0.35661817 0.53492725 0.1981212 -0.57455146
0.27736968 -0.18821514 -0.07924848 -0.06934242 -0.07924848 -0.12877879 0.00990606 0.05943636
0.65379995 0.8420151 0.36652422 0.20802726 0.1981212 0.18821514 -0.00990606 0.27736968
0.18821514 0.15849696 -0.01981212 -0.0990606 0.28727573 0.6042697 0.33680603 0.38633636
00000000: 7017 cbe6 57c1 c4f7 e8e3 d4eb caf1 d609
00000010: dbf7 c617 fd2f d6f4 e8af d7df f2ec f9e3
00000020: 2ed2 e7e4 13ff eae6 f008 dfd4 d402 d0e0
00000030: 80ce 1df8 7f9b cb06 e108 54ed e3ea 0d08
00000040: dbb4 dae9 d61e fe33 36d7 ead4 d9da 24bc
00000050: f1f9 edd3 d8da d8bb 15fc 0046 00eb 1131
00000060: dfec bbb0 ce2f ebb1 16f6 f1ef d7dd 02fe
00000070: 2c49 0908 fb03 f6fb eee6 f0f0 0927 071b
00000080: edc7 e7f5 cc17 022a 11d0 f4e2 cfd4 30c7
00000090: 03f2 eed3 e9c4 d8d1 1710 fb38 19ff 1f35
000000a0: daf4 cb9d ce23 ffa8 13ec 02e8 eae2 fcf8
000000b0: 0937 1cfe f307 f60e f5ff e2e1 1f26 180a
000000c0: ffc2 edf8 c714 0143 21ef fad5 dcdf 2fc4
000000d0: 12f7 02d6 ffd1 cdcd 16ee fe44 1dfa 0f33
000000e0: ddee bcb3 d02a 08ba 10e1 eced ece7 f5fa
000000f0: 3649 1909 0807 f310 0704 f2ea 1131 161b

vision_transformer/Encoder_1/layerNorm1_encoder/gamma i1 [64] scale=0.0061687636 zero_point=-117
0.09253146 0.678564 0.7279141 0.6107076 0.08019393 0.4256447 1.0610273 1.4928408
0.6970703 0.58603257 0.24058178 0.33311322 1.0301836 1.2954403 0.4071384 1.0116773
0.5922013 1.0918711 0.64155143 1.0055084 0.32077572 0.37629458 0.77726424 0.82044554
0.77109545 0.46265727 0.91297704 0.678564 0.32077572 1.406478 0.9931709 1.227584
0.38246334 0.30226943 0.78960174 0.9993397 0.82044554 1.1350526 1.122715 1.2460903
1.2707653 0.64772016 0.90680826 0.8512894 0.78960174 1.381803 0.030843819 0.8266143
0.4256447 0.37012583 0.66622645 0.4935011 0.0 0.20973796 1.0918711 0.90680826
0.41330716 1.2399215 -0.0678564 1.5051783 0.89447075 0.8327831 0.80193925 0.75258917
00000000: 9af9 01ee 98d0 377d fcea b2c1 325d cd2f
00000010: eb3c f32e bfc8 0910 08d6 1ff9 bf6f 2c52
00000020: c9bc 0b2d 1043 4155 59f4 1e15 0b6b 9011
00000030: d0c7 f7db 8bad 3c1e ce54 807f 1c12 0d05

vision_transformer/Encoder_1/layerNorm1_encoder/beta i1 [64] scale=0.0060557756 zero_point=-10
-0.26039836 -0.6661353 0.5631871 -0.05450198 -0.19984059 0.3209561 0.8296412 0.26039836
-0.012111551 0.47840628 0.09083664 0.072669305 0.55713135 -0.018167326 0.19984059 -0.7145815
0.27856568 0.05450198 0.593466 -0.6661353 -0.15139438 -0.35123497 0.35729074 -0.41784853
0.38756964 0.48446205 0.4723505 0.30278876 0.048446205 0.36940232 0.13928284 0.5510756
-0.47840628 0.2725099 0.23617525 -0.11505973 -0.47840628 0.26645413 0.51474094 -0.21800792
0.24223103 -0.4965736 0.3209561 0.296733 0.33912343 -0.4239043 0.0060557756 0.41784853
0.4723505 0.35729074 -0.5450198 -0.13928284 0.0060557756 0.35729074 0.5450198 -0.12111551
0.35123497 0.04239043 0.05450198 -0.33306766 0.2240637 0.036334652 -0.28462145 -0.2482868
00000000: cb88 53ed d52b 7f21 f445 0502 52f3 1780
00000010: 24ff 5888 ddbc 31b1 3646 4428 fe33 0d51
00000020: a723 1de3 a722 4bd2 1ea4 2b27 2eb0 f73b
00000030: 4431 9cdf f731 50e2 30fd ffbf 1bfc c7cd

mhsa_key_dense/Tensordot/MatMul i1 [64, 64] scale=0.013017501 zero_point=0
0.0 -0.026035002 -0.026035002 0.052070003 -0.117157504 -0.24733251 0.117157504 -0.13017501
-0.0390525 0.065087505 -0.013017501 -0.14319251 -0.117157504 0.14319251 -0.078105 -0.0390525
0.065087505 -0.117157504 -0.18224502 -0.065087505 0.0 0.18224502 0.117157504 -0.20828001
-0.026035002 -0.026035002 -0.32543752 0.0390525 0.16922751 0.065087505 -0.104140006 0.13017501
0.28638503 -0.052070003 0.013017501 0.013017501 -0.013017501 0.052070003 0.013017501 0.052070003
-0.104140006 -0.065087505 -0.078105 -0.078105 0.0390525 -0.22129752 -0.20828001 -0.117157504
0.026035002 -0.13017501 0.065087505 0.16922751 0.14319251 -0.104140006 -0.09112251 0.026035002
0.026035002 -0.013017501 -0.15621 -0.09112251 -0.078105 -0.14319251 0.16922751 -0.09112251
0.052070003 0.13017501 0.013017501 -0.57277006 0.1952625 -0.2994025 -0.26035002 -0.013017501
-0.26035002 0.09112251 -0.0390525 -0.104140006 -0.026035002 0.16922751 -0.20828001 0.85915506
-0.09112251 0.27336752 -0.45561254 0.23431501 0.20828001 -0.20828001 0.09112251 0.1952625
0.45561254 0.0 -0.8201026 0.065087505 -0.48164752 -0.31242 0.09112251 0.23431501
0.33845502 0.41656002 0.1952625 -0.117157504 0.14319251 0.33845502 0.0390525 -0.20828001
-0.390525 -0.40354252 0.0 0.0390525 -0.13017501 -0.18224502 -0.09112251 -0.013017501
0.5076825 -0.052070003 -0.026035002 -0.16922751 0.065087505 -0.28638503 0.14319251 -0.14319251
-0.0390525 0.2994025 -0.32543752 0.13017501 -0.026035002 -0.117157504 0.078105 0.065087505
0.104140006 0.13017501 0.026035002 0.078105 0.15621 -0.18224502 0.052070003 -0.16922751
-0.0390525 -0.09112251 0.013017501 0.1952625 -0.104140006 0.078105 -0.14319251 -0.117157504
-0.0390525 -0.09112251 -0.18224502 0.22129752 0.0390525 0.2994025 0.104140006 -0.15621
-0.20828001 -0.078105 -0.14319251 0.117157504 0.0390525 0.0390525 -0.18224502 0.052070003
0.24733251 0.14319251 0.026035002 0.09112251 -0.052070003 -0.117157504 -0.052070003 -0.16922751
-0.15621 0.0 -0.13017501 0.0390525 0.065087505 -0.09112251 -0.013017501 -0.0390525
0.09112251 -0.09112251 -0.013017501 0.09112251 -0.14319251 -0.16922751 0.0 0.0390525
0.13017501 -0.052070003 0.065087505 -0.0390525 0.14319251 0.14319251 -0.0390525 0.16922751
0.026035002 0.065087505 -0.065087505 -0.598805 0.20828001 -0.31242 -0.28638503 -0.065087505
-0.27336752 -0.104140006 0.09112251 0.0 -0.052070003 0.28638503 0.0 0.74199754
-0.16922751 0.31242 -0.5076825 0.18224502 0.16922751 -0.3775075 0.18224502 0.22129752
0.20828001 -0.0390525 -0.65087503 0.20828001 -0.46863002 -0.390525 0.15621 0.2994025
0.32543752 0.48164752 0.013017501 -0.13017501 0.09112251 0.24733251 0.026035002 0.052070003
-0.48164752 -0.41656002 0.28638503 0.27336752 -0.22129752 -0.1952625 -0.104140006 -0.065087505
0.72898006 0.078105 -0.065087505 -0.16922751 -0.052070003 -0.24733251 0.052070003 -0.20828001
-0.15621 0.35147253 -0.40354252 0.20828001 -0.117157504 0.33845502 0.23431501 -0.09112251
00000000: 00fe fe04 f7ed 09f6 fd05 fff5 f70b fafd
00000010: 05f7 f2fb 000e 09f0 fefe e703 0d05 f80a
00000020: 16fc 0101 ff04 0104 f8fb fafa 03ef f0f7
00000030: 02f6 050d 0bf8 f902 02ff f4f9 faf5 0df9
00000040: 040a 01d4 0fe9 ecff ec07 fdf8 fe0d f042
00000050: f915 dd12 10f0 070f 2300 c105 dbe8 0712
00000060: 1a20 0ff7 0b1a 03f0 e2e1 0003 f6f2 f9ff
00000070: 27fc fef3 05ea 0bf5 fd17 e70a fef7 0605
00000080: 080a 0206 0cf2 04f3 fdf9 010f f806 f5f7
00000090: fdf9 f211 0317 08f4 f0fa f509 0303 f204
000000a0: 130b 0207 fcf7 fcf3 f400 f603 05f9 fffd
000000b0: 07f9 ff07 f5f3 0003 0afc 05fd 0b0b fd0d
000000c0: 0205 fbd2 10e8 eafb ebf8 0700 fc16 0039
000000d0: f318 d90e 0de3 0e11 10fd ce10 dce2 0c17
000000e0: 1925 01f6 0713 0204 dbe0 1615 eff1 f8fb
000000f0: 3806 fbf3 fced 04f0 f41b e110 f71a 12f9

mhsa_query_dense/Tensordot/MatMul i1 [64, 64] scale=0.010368698 zero_point=0
-0.010368698 -0.010368698 0.05184349 -0.020737397 0.06221219 0.020737397 0.082949586 -0.09331828
-0.11405568 0.0 0.10368698 -0.05184349 0.041474793 0.06221219 0.031106096 -0.010368698
0.14516178 0.0 0.041474793 -0.020737397 -0.031106096 -0.07258089 -0.06221219 -0.041474793
0.05184349 0.09331828 0.031106096 0.18663657 -0.05184349 0.010368698 0.010368698 0.0
-0.14516178 0.05184349 0.031106096 0.0 0.05184349 -0.010368698 0.031106096 0.020737397
-0.010368698 0.020737397 0.082949586 0.0 0.010368698 -0.031106096 -0.09331828 -0.031106096
0.06221219 0.09331828 0.041474793 0.010368698 0.031106096 -0.19700527 0.07258089 -0.10368698
0.10368698 0.05184349 -0.06221219 -0.09331828 0.09331828 0.0 0.14516178 -0.031106096
0.041474793 -0.031106096 0.05184349 -0.05184349 -0.20737396 0.21774267 0.19700527 0.15553047
0.041474793 0.29032356 0.05184349 0.07258089 -0.010368698 0.06221219 0.09331828 -0.09331828
0.16589917 0.05184349 -0.16589917 -0.041474793 0.010368698 0.041474793 0.13479307 -0.07258089
-0.082949586 0.10368698 0.082949586 -0.082949586 0.23848006 -0.05184349 0.06221219 0.031106096
0.041474793 0.06221219 0.10368698 -0.18663657 -0.031106096 0.11405568 0.21774267 0.031106096
0.010368698 0.0 0.010368698 0.05184349 0.010368698 -0.15553047 0.31106094 0.12442438
-0.23848006 0.020737397 0.082949586 -0.10368698 0.05184349 0.10368698 -0.06221219 0.0
0.020737397 0.18663657 0.11405568 0.05184349 0.031106096 -0.010368698 0.15553047 -0.19700527
0.09331828 -0.06221219 0.020737397 0.06221219 -0.13479307 0.11405568 0.16589917 -0.041474793
0.031106096 0.16589917 0.082949586 0.12442438 0.06221219 0.020737397 0.082949586 0.10368698
0.16589917 -0.010368698 0.16589917 -0.09331828 0.010368698 -0.031106096 0.082949586 -0.031106096
0.10368698 0.07258089 0.17626788 -0.041474793 0.05184349 0.020737397 -0.010368698 0.07258089
0.07258089 0.10368698 0.06221219 0.031106096 0.05184349 -0.010368698 0.06221219 0.09331828
-0.06221219 -0.031106096 0.07258089 0.07258089 0.031106096 0.05184349 0.10368698 0.18663657
0.0 0.19700527 -0.020737397 -0.031106096 0.041474793 0.17626788 0.031106096 0.041474793
0.041474793 0.05184349 0.09331828 0.041474793 0.09331828 -0.031106096 -0.020737397 0.0
0.06221219 0.031106096 -0.041474793 0.031106096 0.16589917 -0.031106096 0.0 -0.11405568
-0.020737397 -0.12442438 -0.020737397 0.07258089 0.041474793 -0.041474793 -0.07258089 0.05184349
-0.07258089 -0.010368698 -0.082949586 -0.082949586 -0.020737397 0.010368698 -0.05184349 0.041474793
0.06221219 0.041474793 0.23848006 -0.16589917 -0.10368698 0.041474793 -0.06221219 0.010368698
0.031106096 0.041474793 -0.06221219 0.14516178 -0.010368698 -0.10368698 0.13479307 -0.041474793
0.0 -0.07258089 0.020737397 -0.010368698 0.082949586 0.12442438 0.0 -0.11405568
-0.21774267 -0.031106096 -0.10368698 0.09331828 -0.041474793 -0.22811136 0.05184349 0.041474793
0.06221219 -0.11405568 -0.10368698 -0.020737397 -0.041474793 0.05184349 -0.15553047 0.11405568
00000000: ffff 05fe 0602 08f7 f500 0afb 0406 03ff
00000010: 0e00 04fe fdf9 fafc 0509 0312 fb01 0100
00000020: f205 0300 05ff 0302 ff02 0800 01fd f7fd
00000030: 0609 0401 03ed 07f6 0a05 faf7 0900 0efd
00000040: 04fd 05fb ec15 130f 041c 0507 ff06 09f7
00000050: 1005 f0fc 0104 0df9 f80a 08f8 17fb 0603
00000060: 0406 0aee fd0b 1503 0100 0105 01f1 1e0c
00000070: e902 08f6 050a fa00 0212 0b05 03ff 0fed
00000080: 09fa 0206 f30b 10fc 0310 080c 0602 080a
00000090: 10ff 10f7 01fd 08fd 0a07 11fc 0502 ff07
000000a0: 070a 0603 05ff 0609 fafd 0707 0305 0a12
000000b0: 0013 fefd 0411 0304 0405 0904 09fd fe00
000000c0: 0603 fc03 10fd 00f5 fef4 fe07 04fc f905
000000d0: f9ff f8f8 fe01 fb04 0604 17f0 f604 fa01
000000e0: 0304 fa0e fff6 0dfc 00f9 02ff 080c 00f5
000000f0: ebfd f609 fcea 0504 06f5 f6fe fc05 f10b

mhsa_value_dense/Tensordot/MatMul i1 [64, 64] scale=0.012264886 zero_point=0
0.11038397 0.47833055 0.28209236 -0.1717084 -0.11038397 -0.41700613 -0.23303284 0.91986644
-0.14717864 -0.0858542 -0.5273901 0.049059544 -0.24529772 -0.012264886 0.0858542 0.03679466
0.28209236 0.06132443 -0.5519199 0.09811909 -0.2575626 0.012264886 -0.31888703 0.3434168
-0.80948246 -0.049059544 -0.26982749 -0.7849527 0.5028603 0.8708069 0.5028603 -0.91986644
0.7236283 0.024529772 0.74815804 0.03679466 0.73589313 0.47833055 0.41700613 -0.22076795
0.80948246 -0.83401227 -0.15944351 0.53965497 -0.3556817 -0.4415359 -0.3434168 0.28209236
-0.33115193 0.31888703 -0.09811909 0.22076795 0.11038397 -0.65003896 0.19623818 0.049059544
0.15944351 -0.19623818 -0.024529772 -0.5519199 -0.6868336 -0.20850307 -0.5273901 0.5641847
0.06132443 0.19623818 0.429271 0.49059543 -0.5151252 -0.22076795 0.13491374 0.6132443
0.20850307 -0.13491374 -0.26982749 -0.07358932 -0.4415359 0.47833055 0.24529772 0.06132443
0.11038397 0.49059543 0.09811909 -0.12264886 -0.2575626 0.12264886 0.22076795 -0.06132443
-0.1717084 -0.13491374 0.18397328 -0.5273901 0.24529772 0.57644963 0.38021147 -0.24529772
0.20850307 0.0 0.26982749 -0.53965497 0.11038397 -0.012264886 0.06132443 -0.57644963
0.06132443 -0.3434168 -0.14717864 0.3556817 -0.03679466 -0.012264886 -0.0858542 0.1717084
-0.23303284 0.20850307 0.30662215 -0.0858542 -0.09811909 -0.36794657 -0.22076795 -0.31888703
0.13491374 -0.18397328 -0.049059544 -0.41700613 -0.66230386 0.22076795 -0.40474123 -0.03679466
0.12264886 0.0 -0.07358932 -0.15944351 0.6255092 0.07358932 0.31888703 -0.5273901
0.024529772 0.09811909 0.024529772 0.024529772 0.20850307 -0.58871454 -0.6255092 0.11038397
-0.012264886 -0.3556817 0.024529772 0.0 0.15944351 0.29435727 -0.06132443 -0.15944351
-0.012264886 0.33115193 0.26982749 0.41700613 -0.30662215 -0.41700613 -0.66230386 0.33115193
0.07358932 -0.33115193 -0.23303284 0.40474123 -0.33115193 -0.09811909 0.26982749 0.5028603
-0.13491374 0.18397328 -0.15944351 -0.4415359 -0.09811909 -0.14717864 0.33115193 -0.18397328
0.29435727 -0.41700613 -0.20850307 0.11038397 0.18397328 0.18397328 0.26982749 0.1717084
-0.23303284 0.0 -0.03679466 0.3556817 0.23303284 -0.46606568 0.15944351 0.09811909
0.23303284 0.74815804 0.3434168 0.0 0.2575626 -0.13491374 -0.15944351 0.39247635
-0.29435727 0.11038397 -0.3434168 0.049059544 0.0858542 -0.2575626 0.03679466 -0.14717864
0.3556817 -0.429271 -0.4415359 -0.0858542 -0.28209236 0.09811909 -0.5028603 0.14717864
-0.7726878 0.20850307 -0.429271 -0.5151252 0.49059543 0.0858542 0.1717084 -0.5028603
0.24529772 -0.07358932 0.5641847 0.06132443 0.80948246 0.22076795 0.82174736 0.03679466
1.0302504 -0.57644963 -0.28209236 0.024529772 -0.33115193 -0.5519199 -0.29435727 -0.1717084
-0.11038397 -0.13491374 0.28209236 -0.13491374 0.07358932 -0.5273901 0.3556817 0.63777405
0.0858542 -0.14717864 0.11038397 -0.18397328 0.14717864 -0.4415359 -0.40474123 0.3434168
00000000: 0927 17f2 f7de ed4b f4f9 d504 ecff 0703
00000010: 1705 d308 eb01 e61c befc eac0 2947 29b5
00000020: 3b02 3d03 3c27 22ee 42bc f32c e3dc e417
00000030: e51a f812 09cb 1004 0df0 fed3 c8ef d52e
00000040: 0510 2328 d6ee 0b32 11f5 eafa dc27 1405
00000050: 0928 08f6 eb0a 12fb f2f5 0fd5 142f 1fec
00000060: 1100 16d4 09ff 05d1 05e4 f41d fdff f90e
00000070: ed11 19f9 f8e2 eee6 0bf1 fcde ca12 dffd
00000080: 0a00 faf3 3306 1ad5 0208 0202 11d0 cd09
00000090: ffe3 0200 0d18 fbf3 ff1b 1622 e7de ca1b
000000a0: 06e5 ed21 e5f8 1629 f50f f3dc f8f4 1bf1
000000b0: 18de ef09 0f0f 160e ed00 fd1d 13da 0d08
000000c0: 133d 1c00 15f5 f320 e809 e404 07eb 03f4
000000d0: 1ddd dcf9 e908 d70c c111 ddd6 2807 0ed7
000000e0: 14fa 2e05 4212 4303 54d1 e902 e5d3 e8f2
000000f0: f7f5 17f5 06d5 1d34 07f4 09f1 0cdc df1c

mhsa_combine_head_dense/Tensordot/MatMul i1 [64, 64] scale=0.015089032 zero_point=0
-0.9807871 -0.950609 0.39231485 -0.015089032 0.31686968 -0.21124645 0.13580129 -0.34704775
0.030178064 0.30178064 0.6186503 0.07544516 0.13580129 -0.15089032 -0.45267096 0.10562322
0.10562322 0.40740386 0.13580129 0.27160257 -0.12071226 0.36213678 0.25651354 0.36213678
0.015089032 0.31686968 0.24142452 0.6035613 -0.22633548 0.36213678 -0.16597936 -0.58847225
0.015089032 0.40740386 -0.21124645 -0.12071226 -0.16597936 -0.63373935 -0.030178064 0.21124645
0.15089032 -0.46776 -0.34704775 0.0 0.045267098 -0.5281161 -0.030178064 0.39231485
-0.30178064 -1.3127458 0.36213678 -0.07544516 -0.16597936 0.39231485 0.07544516 -0.3319587
0.82989675 0.090534195 0.67900646 0.13580129 -0.31686968 -0.58847225 -0.39231485 0.75445163
0.4224929 -0.13580129 -0.49793807 -0.31686968 0.21124645 0.5733832 0.25651354 0.18106839
-0.75445163 -0.13580129 0.24142452 0.48284903 -0.36213678 -0.5130271 0.10562322 -0.6035613
-0.37722582 -0.5582942 0.6035613 0.3319587 -0.21124645 -1.418369 -0.8148077 -0.5130271
0.45267096 0.45267096 -0.82989675 1.0260541 0.18106839 0.5582942 -0.6186503 -0.67900646
0.25651354 0.5733832 0.16597936 0.31686968 -0.46776 0.99587613 -0.13580129 0.46776
0.49793807 -0.22633548 -0.43758193 0.45267096 -0.13580129 -0.25651354 -0.72427356 0.19615743
1.1165884 -1.373102 0.9053419 -0.15089032 0.8600748 -1.5541704 0.58847225 -0.39231485
-0.8902529 -1.4485471 0.49793807 -0.46776 0.8148077 0.7091845 0.79971874 0.06035613
0.27160257 -0.24142452 0.46776 0.090534195 0.34704775 -0.48284903 0.090534195 -0.27160257
0.045267098 -0.13580129 0.16597936 -0.015089032 -0.30178064 -0.34704775 0.12071226 0.07544516
-0.090534195 0.06035613 0.030178064 0.27160257 0.045267098 -0.090534195 -0.18106839 0.12071226
0.3319587 0.54320514 -0.37722582 0.21124645 0.6186503 0.63373935 -0.49793807 -0.8902529
-0.6940955 -0.54320514 0.34704775 0.4224929 0.12071226 -0.87516385 -0.5130271 -0.5582942
0.30178064 -0.015089032 0.22633548 -0.37722582 -0.16597936 -0.10562322 0.37722582 0.12071226
0.12071226 -0.18106839 0.5582942 0.82989675 0.0 -0.43758193 -0.48284903 -0.6940955
0.34704775 -0.10562322 -0.07544516 0.40740386 -0.2866916 0.07544516 -0.6488284 -0.045267098
-0.36213678 -0.06035613 0.22633548 -0.13580129 -0.43758193 0.25651354 -0.31686968 -0.27160257
-0.43758193 -0.16597936 0.16597936 0.07544516 0.30178064 0.0 -0.3319587 0.31686968
-0.25651354 -0.45267096 0.030178064 -0.36213678 0.10562322 -0.07544516 -0.030178064 -0.06035613
-0.8600748 -0.5130271 0.92043096 -0.45267096 -0.82989675 -0.7091845 0.6940955 1.1316774
0.8902529 0.5582942 -0.54320514 -1.0109651 -0.24142452 0.7846297 0.6186503 0.5733832
0.0 0.16597936 0.49793807 0.13580129 0.58847225 0.6035613 0.015089032 -0.030178064
-0.58847225 0.36213678 -1.0109651 -1.6296154 -0.22633548 0.9053419 0.6639174 1.1920335
0.090534195 0.2866916 0.06035613 -0.2866916 -0.045267098 -0.21124645 0.45267096 0.18106839
00000000: bfc1 1aff 15f2 09e9 0214 2905 09f6 e207
00000010: 071b 0912 f818 1118 0115 1028 f118 f5d9
00000020: 011b f2f8 f5d6 fe0e 0ae1 e900 03dd fe1a
00000030: eca9 18fb f51a 05ea 3706 2d09 ebd9 e632
00000040: 1cf7 dfeb 0e26 110c cef7 1020 e8de 07d8
00000050: e7db 2816 f2a2 cade 1e1e c944 0c25 d7d3
00000060: 1126 0b15 e142 f71f 21f1 e31e f7ef d00d
00000070: 4aa5 3cf6 3999 27e6 c5a0 21e1 362f 3504
00000080: 12f0 1f06 17e0 06ee 03f7 0bff ece9 0805
00000090: fa04 0212 03fa f408 1624 e70e 292a dfc5
000000a0: d2dc 171c 08c6 dedb 14ff 0fe7 f5f9 1908
000000b0: 08f4 2537 00e3 e0d2 17f9 fb1b ed05 d5fd
000000c0: e8fc 0ff7 e311 ebee e3f5 0b05 1400 ea15
000000d0: efe2 02e8 07fb fefc c7de 3de2 c9d1 2e4b
000000e0: 3b25 dcbd f034 2926 000b 2109 2728 01fe
000000f0: d918 bd94 f13c 2c4f 0613 04ed fdf2 1e0c

vision_transformer/Encoder_1/layerNorm2_encoder/gamma i1 [64] scale=0.006861651 zero_point=-128
0.4734539 0.21957283 0.70675004 1.0566943 0.9400462 1.0498326 0.37052915 0.97435445
0.48031557 0.6793034 1.2556821 0.569517 0.46659225 0.24701943 0.58324033 0.78908986
0.32249758 0.20584953 0.7410583 1.2831287 0.59010196 0.50776213 0.39797574 0.49403885
0.29505098 0.52148545 1.6811044 0.85770637 0.3911141 0.9880777 0.2813277 1.7497209
0.432284 0.66558015 0.95376945 0.7959515 1.0155243 0.569517 0.864568 0.6930267
0.8028132 0.84398305 0.9880777 1.2213738 0.7547816 1.0292476 0.9400462 0.6312719
0.6930267 0.32935923 0.3087743 1.3997768 0.59696364 0.13037136 0.5146238 0.65871847
0.6312719 0.9194612 0.569517 0.727335 0.9812161 0.48031557 0.6038253 0.57637864
00000000: c5a0 e71a 0919 b60e c6e3 37d3 c4a4 d5f3
00000010: af9e ec3b d6ca bac8 abcc 75fd b910 a97f
00000020: bfe1 0bf4 14d3 fee5 f5fb 1032 ee16 09dc
00000030: e5b0 ad4c d793 cbe0 dc06 d3ea 0fc6 d8d4

vision_transformer/Encoder_1/layerNorm2_encoder/beta i1 [64] scale=0.01050563 zero_point=-6
-0.39921394 0.16809008 -0.5042702 0.7984279 -0.02101126 0.5567984 0.57780963 1.2291586
-0.27314636 -0.12606755 0.37820268 -0.7038772 -0.14707881 -0.24162948 0.6723603 0.32567453
0.16809008 -0.4202252 0.45174208 0.5042702 -0.5147759 -0.2521351 0.12606755 -0.89297855
0.13657318 0.7879222 -0.57780963 0.5567984 0.26264074 0.27314636 0.5567984 -0.5042702
-0.61983216 -0.073539406 -0.6618547 -0.9455067 0.22061822 0.60932654 0.75640535 0.8089335
0.40971956 1.3342149 0.1785957 0.3571914 0.0 0.3887083 0.2521351 -1.2816868
-0.16809008 -0.45174208 -0.13657318 0.40971956 -0.9875292 0.30466327 0.2101126 -0.39921394
-0.4622477 -0.02101126 -0.29415762 1.3972487 0.44123644 -0.61983216 -0.40971956 0.36769703
00000000: d40a ca46 f82f 316f e0ee 1eb7 ece3 3a19
00000010: 0ad2 252a c9e2 06a5 0745 c32f 1314 2fca
00000020: bff3 bba0 0f34 4247 2179 0b1c fa1f 1280
00000030: eacf ed21 9c17 0ed4 cef8 de7f 24bf d31d

vision_transformer/Encoder_1/mlp_dense1_encoder/Tensordot/MatMul i1 [32, 64] scale=0.015235794 zero_point=0
0.13712214 -0.045707382 0.65513915 -0.5332528 -1.1883919 0.33518746 0.0 -0.091414765
-0.27424428 -0.060943175 0.19806533 0.0 0.2133011 -0.12188635 0.36565906 -0.8074971
0.2285369 -0.060943175 0.60943174 -0.27424428 0.10665055 0.5789602 -0.35042325 -0.518017
-0.030471588 -0.015235794 -0.2285369 0.16759373 -0.10665055 0.6856107 0.44183803 0.2590085
0.41136643 0.5789602 -0.19806533 0.2133011 -0.30471587 0.65513915 -0.36565906 -0.015235794
0.12188635 0.030471588 0.2590085 -0.2285369 0.12188635 -0.2437727 -0.045707382 0.015235794
0.13712214 0.045707382 0.15235794 0.35042325 -0.5789602 0.10665055 -0.16759373 -0.47230962
0.2590085 0.15235794 0.091414765 -0.030471588 0.7922613 0.15235794 -0.10665055 -0.091414765
-1.2645708 -0.5332528 -0.36565906 -0.030471588 -0.19806533 -0.045707382 -0.47230962 0.18282953
0.83796865 -0.7008465 0.6246675 -0.38089484 0.2437727 -0.6246675 0.045707382 -0.2590085
0.35042325 -0.54848856 -0.39613065 0.2894801 -0.77702546 -1.1122129 1.1274488 -0.07617897
0.959855 -0.060943175 0.4266022 0.10665055 -0.4875454 -0.5637244 0.015235794 -0.41136643
-0.8532044 -1.1274488 -0.2894801 -0.2437727 0.9293834 0.07617897 0.36565906 -0.31995168
0.27424428 -0.2133011 -0.9141476 0.4266022 -0.33518746 0.015235794 0.65513915 0.31995168
0.27424428 0.41136643 0.4570738 -0.16759373 -0.30471587 0.47230962 0.63990337 -0.38089484
0.30471587 -0.31995168 -1.2188635 -0.2894801 -0.19806533 0.2894801 -0.16759373 0.7617897
-1.0055624 -0.15235794 -0.12188635 -0.44183803 -1.0055624 0.38089484 -0.015235794 -0.77702546
0.2133011 0.33518746 0.2894801 -0.07617897 -0.060943175 -0.13712214 0.15235794 -0.9750908
0.10665055 -0.12188635 0.33518746 -0.19806533 0.12188635 -0.7617897 0.060943175 -0.33518746
0.9141476 -0.18282953 -0.2285369 0.39613065 -0.07617897 0.6856107 -0.030471588 0.2590085
-0.07617897 -0.5332528 -0.4570738 -0.015235794 0.2437727 0.18282953 -0.15235794 0.0
0.5027812 -0.045707382 0.16759373 0.2894801 0.045707382 -0.2285369 -0.2590085 0.07617897
0.015235794 0.091414765 -0.015235794 0.2590085 -0.33518746 0.30471587 0.59419596 -1.0969771
-0.2894801 0.10665055 -0.6856107 -0.12188635 0.4570738 0.13712214 0.030471588 0.77702546
-0.091414765 -0.045707382 0.2437727 -0.4266022 0.2590085 0.18282953 -0.2133011 0.2285369
0.7465539 -0.4266022 0.045707382 0.045707382 0.33518746 -0.39613065 0.5789602 -0.31995168
0.27424428 -0.47230962 -0.5332528 -0.2133011 0.54848856 -0.030471588 0.2590085 0.12188635
-0.07617897 0.13712214 0.2285369 0.18282953 -0.13712214 -0.2133011 0.35042325 0.13712214
-0.060943175 0.5637244 -0.2133011 -0.10665055 0.27424428 0.35042325 0.60943174 -0.30471587
0.2590085 -0.6246675 -0.27424428 -0.18282953 -0.33518746 0.35042325 0.41136643 0.2437727
0.4875454 0.2437727 0.045707382 -0.8684403 -0.59419596 0.13712214 -0.19806533 0.31995168
-0.15235794 -1.0055624 -0.2437727 -0.35042325 -0.060943175 0.31995168 -0.12188635 0.35042325
00000000: 09fd 2bdd b216 00fa eefc 0d00 0ef8 18cb
00000010: 0ffc 28ee 0726 e9de feff f10b f92d 1d11
00000020: 1b26 f30e ec2b e8ff 0802 11f1 08f0 fd01
00000030: 0903 0a17 da07 f5e1 110a 06fe 340a f9fa
00000040: addd e8fe f3fd e10c 37d2 29e7 10d7 03ef
00000050: 17dc e613 cdb7 4afb 3ffc 1c07 e0db 01e5
00000060: c8b6 edf0 3d05 18eb 12f2 c41c ea01 2b15
00000070: 121b 1ef5 ec1f 2ae7 14eb b0ed f313 f532
00000080: bef6 f8e3 be19 ffcd 0e16 13fb fcf7 0ac0
00000090: 07f8 16f3 08ce 04ea 3cf4 f11a fb2d fe11
000000a0: fbdd e2ff 100c f600 21fd 0b13 03f1 ef05
000000b0: 0106 ff11 ea14 27b8 ed07 d3f8 1e09 0233
000000c0: fafd 10e4 110c f20f 31e4 0303 16e6 26eb
000000d0: 12e1 ddf2 24fe 1108 fb09 0f0c f7f2 1709
000000e0: fc25 f2f9 1217 28ec 11d7 eef4 ea17 1b10
000000f0: 2010 03c7 d909 f315 f6be f0e9 fc15 f817

vision_transformer/Encoder_1/mlp_dense2_encoder/Tensordot/MatMul i1 [64, 32] scale=0.013358194 zero_point=0
0.7347007 -0.053432778 0.30723846 -0.56104416 0.28052208 0.2538057 0.6946261 -0.013358194
0.026716389 0.34731305 0.414104 0.21373111 0.0 -1.0552974 0.0 -0.66790974
0.06679097 -1.0820137 0.21373111 0.21373111 -0.6545515 0.2270893 -0.18701473 -0.7347007
-0.84156626 0.120223746 0.29388028 -0.13358194 -0.06679097 -0.040074583 0.33395487 0.33395487
-0.36067125 -0.26716387 -0.24044749 1.1220883 -0.33395487 0.7614171 -0.57440233 0.828208
-0.9751482 -0.013358194 0.92171544 0.30723846 -0.7480589 -0.20037292 -0.38738763 -0.026716389
-0.40074584 -0.13358194 -0.33395487 -0.77477527 0.6144769 1.0820137 0.26716387 -0.06679097
0.414104 0.2538057 0.20037292 0.78813344 0.093507364 -1.3892522 -0.29388028 -0.30723846
0.2538057 0.7213425 -0.38738763 -0.828208 -0.120223746 -0.92171544 0.34731305 -0.7213425
-0.4541786 0.52096957 -0.84156626 -1.4560432 0.32059667 0.36067125 -0.78813344 -0.40074584
-0.013358194 0.053432778 0.414104 -0.18701473 -0.30723846 -0.88164085 0.29388028 0.48089498
0.14694014 -0.093507364 -1.4026104 -0.040074583 -0.52096957 0.30723846 0.547686 0.120223746
-0.40074584 -0.4675368 0.17365652 0.58776057 0.52096957 -0.6144769 -0.78813344 -0.21373111
-0.040074583 -0.053432778 0.040074583 -0.29388028 -0.38738763 0.17365652 0.33395487 0.414104
-0.37402946 0.20037292 -0.37402946 0.040074583 0.08014917 -0.053432778 -0.18701473 -0.2270893
0.106865555 -0.42746222 0.33395487 -0.2270893 0.57440233 -0.48089498 0.106865555 -0.30723846
-0.08014917 -0.9885064 -0.34731305 0.66790974 0.040074583 -0.093507364 -0.32059667 0.18701473
-0.414104 -0.24044749 0.08014917 -0.414104 0.0 0.20037292 -0.6812679 0.58776057
-0.026716389 0.26716387 -0.44082043 0.026716389 0.20037292 0.040074583 0.053432778 0.13358194
0.08014917 -0.040074583 -0.4675368 0.16029833 0.18701473 -0.040074583 -0.57440233 -0.38738763
-0.29388028 0.14694014 -0.7079843 0.53432775 -0.34731305 -0.21373111 0.26716387 -0.18701473
-0.17365652 -0.66790974 -0.7213425 -0.120223746 -0.053432778 1.6697743 -0.18701473 1.2556703
-0.053432778 1.6964906 -0.106865555 -0.53432775 0.26716387 -0.26716387 0.38738763 1.4293268
0.78813344 -0.053432778 -0.32059667 0.026716389 0.2270893 0.34731305 -0.52096957 -0.4541786
-0.29388028 -0.053432778 -0.30723846 0.414104 0.40074584 0.8014917 -0.6812679 0.414104
-0.5076114 0.26716387 1.0152228 0.547686 -0.4942532 0.120223746 -0.56104416 0.37402946
-0.547686 0.16029833 -0.24044749 -0.33395487 0.2538057 0.32059667 0.21373111 0.120223746
0.32059667 0.17365652 -0.106865555 0.81484985 0.7347007 -0.9751482 0.26716387 0.17365652
0.06679097 -0.44082043 -0.21373111 1.1354465 -0.17365652 0.48089498 0.17365652 0.32059667
-0.28052208 -0.26716387 0.20037292 0.13358194 -0.06679097 -0.20037292 -0.34731305 -0.026716389
-0.013358194 -0.093507364 -0.040074583 -0.026716389 0.026716389 0.7213425 0.37402946 -0.26716387
0.42746222 0.040074583 0.37402946 0.58776057 0.0 -0.120223746 0.026716389 -0.08014917
00000000: 37fc 17d6 1513 34ff 021a 1f10 00b1 00ce
00000010: 05af 1010 cf11 f2c9 c109 16f6 fbfd 1919
00000020: e5ec ee54 e739 d53e b7ff 4517 c8f1 e3fe
00000030: e2f6 e7c6 2e51 14fb 1f13 0f3b 0798 eae9
00000040: 1336 e3c2 f7bb 1aca de27 c193 181b c5e2
00000050: ff04 1ff2 e9be 1624 0bf9 97fd d917 2909
00000060: e2dd 0d2c 27d2 c5f0 fdfc 03ea e30d 191f
00000070: e40f e403 06fc f2ef 08e0 19ef 2bdc 08e9
00000080: fab6 e632 03f9 e80e e1ee 06e1 000f cd2c
00000090: fe14 df02 0f03 040a 06fd dd0c 0efd d5e3
000000a0: ea0b cb28 e6f0 14f2 f3ce caf7 fc7d f25e
000000b0: fc7f f8d8 14ec 1d6b 3bfc e802 111a d9de
000000c0: eafc e91f 1e3c cd1f da14 4c29 db09 d61c
000000d0: d70c eee7 1318 1009 180d f83d 37b7 140d
000000e0: 05df f055 f324 0d18 ebec 0f0a fbf1 e6fe
000000f0: fff9 fdfe 0236 1cec 2003 1c2c 00f7 02fa

vision_transformer/mlp_head_layerNorm/gamma i1 [64] scale=0.0060392297 zero_point=-128
1.5400035 0.11474536 0.14494151 0.072470754 0.072470754 1.2742774 0.11474536 0.24760842
0.21741226 0.446903 0.8575706 0.24156919 0.10870613 0.09058844 0.2234515 0.120784596
0.20533381 0.10266691 0.054353066 0.060392298 0.4046284 0.22949073 0.13890228 0.11474536
0.26572612 0.1630592 0.41670686 0.18721612 0.054353066 0.096627675 0.15098074 0.23552996
0.27780455 0.25364766 0.4046284 0.30196148 0.3261184 0.1630592 0.19929458 0.08454922
0.24156919 0.10870613 0.4046284 0.3261184 0.36235377 0.060392298 0.3442361 0.13286306
0.12682383 0.10870613 0.10870613 0.6522368 0.4227461 0.22949073 0.446903 0.31403995
0.11474536 1.1051791 0.6160014 0.11474536 0.24760842 0.15701997 0.7126291 0.17513765
00000000: 7f93 988c 8c53 93a9 a4ca 0ea8 928f a594
00000010: a291 898a c3a6 9793 ac9b c59f 8990 99a7
00000020: aeaa c3b2 b69b a18e a892 c3b6 bc8a b996
00000030: 9592 92ec c6a6 cab4 9337 e693 a99a f69d

vision_transformer/mlp_head_layerNorm/beta i1 [64] scale=0.0044429144 zero_point=36
0.33321857 -0.12884451 -0.72863793 -0.0311004 0.0311004 -0.42207688 -0.18215948 -0.03998623
0.2443603 0.12884451 -0.10218703 -0.035543315 0.33321857 -0.12884451 0.07997246 0.017771658
0.16438784 -0.13328743 0.0622008 -0.057757888 0.16883075 0.022214573 -0.017771658 -0.022214573
0.057757888 0.013328743 0.15994492 0.066643715 -0.10218703 -0.017771658 0.035543315 0.1244016
0.0 0.15994492 -0.0044429144 0.21325989 -0.044429146 0.057757888 -0.07997246 -0.25324613
0.07108663 -0.26213196 -0.106629945 -0.07108663 -0.11107286 0.026657486 -0.07108663 0.17771658
0.27990362 0.311004 0.35987607 -0.31988984 0.1866024 0.26213196 0.21325989 0.0044429144
-0.017771658 -0.45762017 0.30211818 -0.19993114 -0.10218703 0.40430522 0.13773035 0.053314973
00000000: 6f07 801d 2bc5 fb1b 5b41 0d1c 6f07 3628
00000010: 4906 3217 4a29 201f 3127 4833 0d20 2c40
00000020: 2448 2354 1a31 12eb 34e9 0c14 0b2a 144c
00000030: 636a 75dc 4e5f 5425 20bd 68f7 0d7f 4330

vision_transformer/mlp_head/mlp_head_dense1/MatMul i1 [32, 64] scale=0.016321765 zero_point=0
-0.03264353 0.06528706 0.45700943 -0.58758354 -0.5222965 -0.03264353 0.21218295 -1.1262017
0.0 0.8976971 0.048965298 0.081608824 -0.17953941 0.13057412 -0.13057412 -0.58758354
-0.17953941 0.19586119 0.016321765 -0.83241004 0.55494004 -0.03264353 -0.40804413 0.21218295
-0.016321765 -0.24482648 -0.22850472 -0.06528706 0.14689589 0.58758354 -0.24482648 1.0119494
-0.048965298 0.7997665 0.06528706 0.03264353 -0.14689589 -0.27747002 -1.0119494 0.26114824
-0.17953941 0.14689589 0.016321765 -0.5059747 0.24482648 -0.3754006 -1.044593 -0.17953941
-0.14689589 -0.19586119 -0.22850472 -0.06528706 0.11425236 -0.13057412 -0.081608824 -0.06528706
0.016321765 -0.03264353 0.097930595 0.13057412 0.0 -0.19586119 -0.048965298 0.048965298
-0.3754006 0.016321765 -0.5222965 0.4243659 0.27747002 0.58758354 -0.11425236 0.26114824
-0.19586119 -0.26114824 0.6365488 0.03264353 0.19586119 -0.11425236 0.06528706 0.16321765
-0.06528706 -0.048965298 0.27747002 0.40804413 -0.13057412 -0.14689589 0.44068766 0.16321765
-0.06528706 0.048965298 -0.53861827 0.31011355 -0.35907882 -0.21218295 0.048965298 -0.17953941
0.03264353 -0.03264353 -1.7301071 0.03264353 -0.048965298 0.048965298 0.29379177 -0.16321765
0.21218295 -0.11425236 0.47333118 0.081608824 0.06528706 -0.767123 0.19586119 0.13057412
0.13057412 0.097930595 0.097930595 0.27747002 0.06528706 -0.048965298 0.68551415 -0.03264353
0.06528706 0.13057412 -0.3264353 -0.06528706 -0.048965298 0.097930595 -0.83241004 0.6202271
0.0 -0.097930595 0.14689589 -0.081608824 0.34275708 0.21218295 -0.048965298 0.3264353
0.016321765 0.06528706 -0.016321765 0.53861827 0.19586119 -0.081608824 -0.6039053 0.55494004
0.081608824 -0.097930595 -0.06528706 -0.21218295 0.17953941 0.7997665 -0.13057412 1.0935583
-0.58758354 -1.0772365 -0.06528706 -0.34275708 -0.24482648 -0.5059747 -1.0282712 0.03264353
0.767123 0.26114824 -0.14689589 0.44068766 -0.5222965 -0.6528706 0.097930595 -0.13057412
-0.48965296 -0.097930595 0.048965298 0.03264353 -0.21218295 -0.16321765 -0.06528706 0.16321765
0.22850472 0.19586119 0.19586119 0.0 0.6365488 0.048965298 -0.19586119 0.70183593
0.93034065 -0.03264353 0.31011355 -0.03264353 -0.5059747 0.14689589 -0.17953941 -0.6365488
-0.016321765 0.0 0.26114824 -0.47333118 -0.6202271 -0.048965298 0.03264353 -1.1914889
-0.016321765 1.044593 0.0 0.081608824 0.048965298 0.048965298 -0.081608824 -0.29379177
-0.048965298 0.06528706 -0.097930595 -1.0935583 0.48965296 -0.03264353 -0.19586119 0.16321765
0.0 -0.081608824 -0.081608824 0.081608824 0.06528706 0.44068766 -0.16321765 0.83241004
-0.097930595 0.45700943 0.03264353 -0.016321765 -0.016321765 -0.16321765 -1.2241324 0.03264353
-0.16321765 0.0 0.21218295 -0.45700943 -0.016321765 -0.34275708 -0.7997665 0.19586119
-0.03264353 -0.11425236 -0.06528706 0.081608824 0.06528706 -0.016321765 0.048965298 -0.06528706
0.016321765 -0.016321765 -0.03264353 -0.03264353 0.03264353 0.03264353 0.11425236 -0.03264353
00000000: fe04 1cdc e0fe 0dbb 0037 0305 f508 f8dc
00000010: f50c 01cd 22fe e70d fff1 f2fc 0924 f13e
00000020: fd31 0402 f7ef c210 f509 01e1 0fe9 c0f5
00000030: f7f4 f2fc 07f8 fbfc 01fe 0608 00f4 fd03
00000040: e901 e01a 1124 f910 f4f0 2702 0cf9 040a
00000050: fcfd 1119 f8f7 1b0a fc03 df13 eaf3 03f5
00000060: 02fe 9602 fd03 12f6 0df9 1d05 04d1 0c08
00000070: 0806 0611 04fd 2afe 0408 ecfc fd06 cd26
00000080: 00fa 09fb 150d fd14 0104 ff21 0cfb db22
00000090: 05fa fcf3 0b31 f843 dcbe fceb f1e1 c102
000000a0: 2f10 f71b e0d8 06f8 e2fa 0302 f3f6 fc0a
000000b0: 0e0c 0c00 2703 f42b 39fe 13fe e109 f5d9
000000c0: ff00 10e3 dafd 02b7 ff40 0005 0303 fbee
000000d0: fd04 fabd 1efe f40a 00fb fb05 041b f633
000000e0: fa1c 02ff fff6 b502 f600 0de4 ffeb cf0c
000000f0: fef9 fc05 04ff 03fc 01ff fefe 0202 07fe

vision_transformer/mlp_head_softmax/MatMul i1 [5, 32] scale=0.051083654 zero_point=0
-0.15325096 -0.9705894 -2.6563501 0.81733847 -2.9117682 0.71517116 -2.6563501 -2.6563501
-0.7662548 -0.7662548 0.30650192 -0.9195058 -1.3792586 1.2260077 0.9705894 0.81733847
1.0727568 1.0727568 -2.8606846 2.9117682 -1.9411788 5.3127003 6.487624 1.2260077
-0.81733847 -1.9922625 -1.1238403 1.174924 0.9195058 -1.8900952 1.2770914 -0.61300385
-0.15325096 -0.051083654 -1.1238403 -0.30650192 -1.4303423 1.0727568 -1.174924 0.25541827
-0.15325096 0.0 -0.15325096 -0.61300385 -0.56192017 -0.15325096 -1.0727568 -0.051083654
-0.051083654 -0.30650192 -0.25541827 -0.20433462 -1.0727568 -0.25541827 -0.10216731 0.61300385
-0.30650192 -0.30650192 0.61300385 -0.25541827 0.40866923 -1.1238403 1.0727568 0.9705894
0.0 -0.051083654 0.0 -0.25541827 -0.30650192 0.0 0.051083654 0.20433462
-0.10216731 0.0 0.0 0.10216731 -0.35758558 -0.051083654 -0.10216731 0.0
0.051083654 -0.15325096 -0.30650192 -0.20433462 0.051083654 -0.20433462 -0.051083654 -0.10216731
-0.30650192 -0.30650192 0.051083654 -0.15325096 -0.15325096 -0.10216731 0.10216731 0.0
-0.20433462 -0.71517116 0.0 -0.40866923 -0.25541827 -0.051083654 0.051083654 -0.66408753
-0.7662548 -0.61300385 0.10216731 -0.66408753 -0.15325096 -0.25541827 0.10216731 -0.15325096
-0.10216731 0.35758558 -1.174924 0.86842215 0.10216731 2.8606846 2.9117682 0.4597529
-0.9195058 -0.10216731 -0.10216731 -0.30650192 1.0216731 -0.10216731 0.0 -0.10216731
0.56192017 -0.51083654 0.0 0.61300385 -0.25541827 0.30650192 0.051083654 0.35758558
-0.66408753 -0.40866923 0.25541827 0.25541827 -1.1238403 0.71517116 -0.9195058 0.86842215
0.86842215 0.30650192 -0.30650192 -0.15325096 0.10216731 0.86842215 1.174924 0.4597529
-0.7662548 -1.0216731 0.61300385 0.40866923 0.71517116 -0.10216731 0.30650192 0.35758558
00000000: fded cc10 c70e cccc f1f1 06ee e518 1310
00000010: 1515 c839 da68 7f18 f0d9 ea17 12db 19f4
00000020: fdff eafa e415 e905 fd00 fdf4 f5fd ebff
00000030: fffa fbfc ebfb fe0c fafa 0cfb 08ea 1513
00000040: 00ff 00fb fa00 0104 fe00 0002 f9ff fe00
00000050: 01fd fafc 01fc fffe fafa 01fd fdfe 0200
00000060: fcf2 00f8 fbff 01f3 f1f4 02f3 fdfb 02fd
00000070: fe07 e911 0238 3909 eefe fefa 14fe 00fe
00000080: 0bf6 000c fb06 0107 f3f8 0505 ea0e ee11
00000090: 1106 fafd 0211 1709 f1ec 0c08 0efe 0607
