asic/func_sim/reference_data/model_quant.tflite (tflite, 65064 bytes, 26 tensors)

vision_transformer/mlp_head_softmax/MatMul f4 [5, 32]
-0.3004426 -0.059855137 -0.46211532 -0.2303214 -0.25943708 0.27814126 -0.11488977 -0.3532715
0.10826916 -0.026938185 0.38747865 -0.2409853 0.28171813 0.08253399 0.21496312 0.037540495
-0.16404001 0.40869898 -0.28459615 -0.06337291 -0.2417156 -0.40084046 -0.4510166 0.34919542
0.26090372 0.327761 0.29061204 0.077310026 0.43602073 -0.12798703 -0.35039684 -0.4623945
-0.07891196 0.13606267 0.21571217 -0.26985118 -0.19019426 -0.25878188 0.0062191584 -0.1750809
0.34465027 -0.009989228 -0.031335693 0.14720263 0.35732344 0.15362711 -0.023507975 0.32031247
-0.033209395 0.27574104 -0.17351721 0.23848885 -0.041072603 -0.017797833 -0.075607836 -0.19627005
0.15777725 -0.0137693705 0.06820482 -0.33012658 -0.20229313 0.2104368 -0.23110895 0.0785066
0.1684622 0.07975072 0.27529922 -0.13216184 0.085446835 0.1298823 0.10371009 0.21431746
-0.22224288 -0.08420911 0.31932563 0.36185175 -0.080141306 -0.13176045 0.1047837 0.28951228
-0.11930892 -0.13998754 0.108516365 0.15004641 0.041642644 0.3353881 0.06977602 0.19031078
0.3712718 -0.38414675 0.011013244 0.3340596 -0.1980263 0.28369695 0.12769993 0.38179156
0.15017249 0.047016215 0.06856737 0.07308912 -0.14773066 0.001728584 -0.14546494 -0.06246124
0.04915341 -0.26639223 -0.23325652 0.15381503 0.31661457 0.012470522 -0.037765436 0.11906776
-0.28042492 -0.18396157 -0.04792435 0.12524365 0.2784037 -0.28400236 0.008819636 -0.28624487
0.07580339 -0.37366056 0.11647602 -0.0026731312 -0.19618583 -0.17591092 -0.21762124 -0.22039479
0.015504799 0.319207 0.27697563 -0.3595185 0.20056775 0.08078361 0.2517028 0.11967404
0.03381628 -0.037629824 -0.1942844 -0.01504162 0.36893874 -0.35957885 -0.22385155 0.25476968
0.17710483 0.042249136 0.325302 -0.28922465 -0.07294022 0.049916267 -0.0910305 -0.034364484
0.3398144 0.116635755 0.16475324 -0.28241175 -0.10425102 0.37710115 -0.38129282 0.15907343
00000000: 9dd3 99be a92a 75bd 619a ecbe 60d9 6bbe
00000010: f0d4 84be 8868 8e3e 544b ebbd 01e0 b4be
00000020: 39bc dd3d 78ad dcbc 9a63 c63e dac4 76be
00000030: 5c3d 903e 9507 a93d 4b1f 5c3e 10c4 193d
00000040: 1bfa 27be fe40 d13e 96b6 91be a8c9 81bd
00000050: 4b84 77be f63a cdbe a6eb e6be bec9 b23e
00000060: 2c95 853e 4ad0 a73e 1acb 943e b854 9e3d
00000070: 1c3e df3e 080f 03be 3767 b3be f9be ecbe
00000080: 989c a1bd 0354 0b3e a7e3 5c3e ef29 8abe
00000090: 49c2 42be 0f7f 84be 15ca cb3b 6848 33be
000000a0: 0076 b03e dca9 23bc db59 00bd 49bc 163e
000000b0: 19f3 b63e 6d50 1d3e cc93 c0bc ffff a33e
000000c0: 9306 08bd ee2d 8d3e 7fae 31be 6c36 743e
000000d0: bf3b 28bd c3cc 91bc 48d8 9abd 04fb 48be
000000e0: 5c90 213e ed98 61bc f8ae 8b3d 5a06 a9be
000000f0: ee25 4fbe bf7c 573e d3a7 6cbe 11c8 a03d
00000100: 5b81 2c3e 5854 a33d 05f4 8c3e 6f55 07be
00000110: c0fe ae3d deff 043e f565 d43d 0976 5b3e
00000120: a393 63be d375 acbd a67e a33e a244 b93e
00000130: 2021 a4bd 36ec 06be d698 d63d f43a 943e
00000140: 3c58 f4bd e558 0fbe d43d de3d c4a5 193e
00000150: 7a91 2a3d fdb7 ab3e bbe6 8e3d d4e0 423e
00000160: 5617 be3e e2ae c4be e570 343c dc09 ab3e
00000170: 68c7 4abe ba40 913e c5c3 023e 2f7a c33e
00000180: d1c6 193e 1394 403d 0d6d 8c3d c0af 953d
00000190: b546 17be a791 e23a c3f4 14be 5bd7 7fbd
000001a0: 1655 493d 9064 88be ccda 6ebe b081 1d3e
000001b0: 4e1b a23e 2951 4c3c eeaf 1abd ccd9 f33d
000001c0: db93 8fbe 6c60 3cbe 534c 44bd df3f 003e
000001d0: ee8a 8e3e c268 91be 3c80 103c b08e 92be
000001e0: cf3e 9b3d 7050 bfbe fb8a ee3d b32f 2fbb
000001f0: f0e4 48be fe21 34be 1ad8 5ebe 2caf 61be
00000200: d707 7e3c 1a6f a33e c0cf 8d3e cf12 b8be
00000210: a261 4d3e e171 a53d 30df 803e aa17 f53d
00000220: f182 0a3d bb21 1abd 7df2 46be 2071 76bc
00000230: 8ae5 bc3e b81a b8be 5739 65be 2c71 823e
00000240: f85a 353e 6e0d 2d3d fc8d a63e 4115 94be
00000250: af61 95bd 0075 4c3d 336e babd c6c1 0cbd
00000260: 27fc ad3e bade ee3d 13b5 283e 4698 90be
00000270: 8f81 d5bd 6713 c13e d038 c3be 25e4 223e

mhsa_combine_head_dense/BiasAdd/ReadVariableOp f4 [64]
-0.008413606 0.012768901 -0.002243776 -0.0027611887 -0.01767061 0.0030676508 -0.0025654954 0.0016104736
-0.0036535838 0.005091579 0.004284723 0.0030092474 0.0010798194 0.005157674 0.0015216564 0.013641158
0.011423354 -0.012072326 0.0005222569 0.0038791148 0.008101065 -0.008247609 -0.010564561 0.005995591
0.0004916204 0.0022731759 0.005927733 -0.0028892844 -0.007670418 0.0071591125 -0.0060301516 0.005488744
-0.005003938 0.0037426816 0.003165684 0.0007181433 0.0010142771 -0.0071369237 0.00384875 0.0012579345
-0.0063522393 0.0007118534 -0.0057940832 -0.0007799046 -0.004932896 -0.004859259 0.004289476 0.007492085
0.0029054033 -0.007928932 -0.0057774065 0.0057196035 -0.0008271548 -0.004528856 -0.0038402309 0.0021247347
-0.0050636292 -0.008928984 -0.0068930113 -0.004472592 0.009185189 0.010187068 -0.0026262181 0.003333824
00000000: 39d9 09bc a734 513c 510c 13bb 0ff5 34bb
00000010: f5c1 90bc a40a 493b df21 28bb 8716 d33a
00000020: f770 6fbb 43d7 a63b dd66 8c3b cb36 453b
00000030: ba88 8d3a b501 a93b 5172 c73a 2a7f 5f3c
00000040: 0529 3b3c 01cb 45bc 11e8 083a bf38 7e3b
00000050: 54ba 043c fb20 07bc fb16 2dbc aa76 c43b
00000060: 16e0 003a 90f9 143b 6e3d c23b 265a 3dbb
00000070: 2158 fbbb fd96 ea3b 9498 c5bb ecda b33b
00000080: 13f8 a3bb c747 753b 5d77 4f3b c841 3c3a
00000090: 7ef1 843a dbdc e9bb 4f3b 7c3b 47e1 a43a
000000a0: 7226 d0bb ac9b 3a3a 4bdc bdbb 8372 4cba
000000b0: 21a4 a1bb 6b3a 9fbb bc8e 8c3b 2a80 f53b
000000c0: 9468 3e3b 5ae8 01bc 6650 bdbb 836b bb3b
000000d0: 6bd5 58ba cc66 94bb 62ac 7bbb 223f 0b3b
000000e0: cdec a5bb e04a 12bc c5de e1bb d28e 92bb
000000f0: 7a7d 163c a9e7 263c a11c 2cbb 497c 5a3b

mhsa_key_dense/BiasAdd/ReadVariableOp f4 [64]
0.0016246375 -0.0016194794 -0.0030622338 0.0031052136 0.0008480266 0.0023808912 -0.0037797592 0.0033889564
2.8481003e-05 -0.0006206319 0.0004338306 -0.00042048102 0.0003325306 0.0004535261 -0.0006966967 0.00025883675
-0.000163207 0.0004477064 0.0003583799 -0.00021963235 -0.0006753334 0.00095241354 0.00087704905 0.0005893563
-0.00025012443 0.0007341538 -0.00047604818 -0.00060555135 -0.0008806331 -0.0004799392 -2.6249048e-05 -0.00031268725
-0.0016704403 -0.0011534808 -0.00021664733 0.0015094378 -0.0023050292 -0.0014134574 0.0020006588 0.0019233131
-0.0021830518 0.000537005 0.0018707591 -0.00067819934 0.002981902 0.0025115907 0.0014751154 0.00021027897
-0.0011956582 -0.0004163529 -0.0015960516 -0.0010754853 -0.00066135527 0.0013722739 0.00029386516 0.001254829
-0.0021457595 -0.00055634446 -0.00025319276 -0.00091570494 0.00024374337 0.00097654376 0.00012300724 -0.0007340622
00000000: caf1 d43a b644 d4ba c2af 48bb d780 4b3b
00000010: 1a4e 5e3a ba08 1c3b d6b5 77bb 4119 5e3b
00000020: 7dea ee37 e7b1 22ba c273 e339 0274 dcb9
00000030: 8057 ae39 3ec7 ed39 86a2 36ba 7bb4 8739
00000040: 8c22 2bb9 23ba ea39 f0e4 bb39 1c4d 66b9
00000050: db08 31ba 64ab 793a c4e9 653a 087f 1a3a
00000060: 2223 83b9 3a74 403a 1b96 f9b9 ddbd 1eba
00000070: 49da 66ba 59a0 fbb9 6731 dcb7 2cf0 a3b9
00000080: adf2 daba 6530 97ba d32b 63b9 54d8 c53a
00000090: f90f 17bb c343 b9ba 7c1d 033b ae17 fc3a
000000a0: 8811 0fbb ccc5 0c3a 4234 f53a 30c9 31ba
000000b0: 046c 433b 8099 243b a958 c13a 557e 5c39
000000c0: a2b7 9cba f149 dab9 9b32 d1ba 4cf7 8cba
000000d0: cd5e 2dba dfdd b33a ea11 9a39 1379 a43a
000000e0: df9f 0cbb a5d7 11ba f5be 84b9 eb0b 70ba
000000f0: 5d95 7f39 befe 7f3a 81fb 0039 156e 40ba

mhsa_query_dense/BiasAdd/ReadVariableOp f4 [64]
-0.01473072 0.0059300754 0.009308846 0.0018951296 0.0038186624 -0.0016013329 0.0035996307 -0.00016484724
0.010639384 0.0028272027 0.00036592357 9.901962e-05 -0.0036172918 0.0014569703 0.00014314138 7.0805065e-05
-0.004707182 -0.00074908504 0.007873405 0.0070046657 -0.0016249947 0.0024065073 0.0003432287 0.00081107375
-0.0053367773 -0.0073868097 0.008229323 0.0007791213 -0.010831883 -0.006480568 -0.007127189 -0.00814404
-0.0032706712 0.0011275097 -0.0047362316 0.001855567 0.0060778204 0.0036414524 0.0039053322 -0.0053372793
-0.004932331 -0.005689557 0.0037262072 0.004558089 -0.0051413337 0.00493348 0.004442132 -0.0032997504
0.00094284595 0.0019129957 -7.658665e-05 -0.003388864 -0.0009272497 2.7020975e-05 0.00035157113 -0.0016356634
0.0059740026 0.005950931 0.004813849 -0.0057766326 0.0032259284 -0.0057535404 -0.005857556 0.0064687785
00000000: 1e59 71bc 1451 c23b 2184 183c ff65 f83a
00000010: 8642 7a3b d1e3 d1ba c8e7 6b3b d8da 2cb9
00000020: d050 2e3c 9748 393b 6ed9 bf39 c1a8 cf38
00000030: 1610 6dbb d0f7 be3a 3918 1639 2e7d 9438
00000040: b43e 9abb 3f5e 44ba 74ff 003c 6587 e53b
00000050: c6fd d4ba 7eb6 1d3b 60f3 b339 3d9e 543a
00000060: 22e0 aebb 0d0d f2bb 48d4 063c f23d 4c3a
00000070: 3678 31bc f25a d4bb 328b e9bb 946e 05bc
00000080: c258 56bb f3c8 933a 6432 9bbb 7f36 f33a
00000090: 7428 c73b 6fa5 6e3b 9af0 7f3b 58e4 aebb
000000a0: 649f a1bb 776f babb 6233 743b 065c 953b
000000b0: a278 a8bb 08a9 a13b 4e8f 913b a040 58bb
000000c0: 5229 773a 7cbd fa3a 259d a0b8 b417 5ebb
000000d0: ad12 73ba 1aab e237 1453 b839 c263 d6ba
000000e0: 91c1 c33b 0700 c33b 7ebd 9d3b e849 bdbb
000000f0: 196a 533b 3288 bcbb bef0 bfbb 0cf8 d33b

mhsa_value_dense/BiasAdd/ReadVariableOp f4 [64]
0.0033176106 0.01065487 -0.0011583329 -0.0024981392 0.0035669715 -0.0007786085 -0.0015715958 -0.006777035
0.0071507404 -0.008516415 0.00032537658 0.005110743 0.0060574776 -0.0002460968 0.0015758947 0.0006019398
-0.011989362 0.0003212851 -0.008903719 0.00013041386 -0.0031201437 -0.0029630298 -0.008360584 0.003909637
-0.010700936 -0.0118503515 -0.0111350035 0.004366903 0.0033237566 0.00090002036 0.004435339 0.008578153
-0.003024699 0.0033735207 0.004735096 0.0021981595 -0.0057361447 0.0047235214 0.00071272714 -0.005841431
-0.008790717 0.006407107 -0.0041516684 5.230204e-05 -0.0012192453 0.0038011842 -0.003605159 -0.007655456
0.012606399 0.0007446272 -0.0015574733 0.0029390492 0.0010983855 -0.0044422015 -0.0024115583 -0.012706621
-0.00015297672 0.006943376 -0.0012011223 0.0009447961 -0.0015495996 0.013100963 0.0013691833 -0.005933334
00000000: 456c 593b c491 2e3c 34d3 97ba d2b7 23bb
00000010: dac3 693b 881b 4cba 01fe cdba e411 debb
00000020: c250 ea3b 6f88 0bbc 4e97 aa39 0578 a73b
00000030: ce7d c63b 8e06 81b9 408e ce3a 7fcb 1d3a
00000040: 076f 44bc 2872 a839 e7e0 11bc b4bf 0839
00000050: 537b 4cbb 642f 42bb d5fa 08bc 6a1c 803b
00000060: fb52 2fbc fa27 42bc 976f 36bc 3d18 8f3b
00000070: 62d3 593b 58ef 6b3a 5256 913b 628b 0c3c
00000080: 073a 46bb 4916 5d3b dd28 9b3b ff0e 103b
00000090: 45f6 bbbb c5c7 9a3b 4fd6 3a3a 7a69 bfbb
000000a0: f106 10bc b6f2 d13b b80a 88bb e35e 5b38
000000b0: 15cf 9fba 4a1d 793b 8844 6cbb 9fda fabb
000000c0: 128b 4e3c 1633 433a 2224 ccba 109d 403b
000000d0: b4f7 8f3a e38f 91bb 3c0b 1ebb 6e2f 50bc
000000e0: 6068 20b9 4285 e33b fa6e 9dba 31ac 773a
000000f0: ef1b cbba 6ca5 563c 2b76 b33a 6a6c c2bb

vision_transformer/patch_projection_dense/BiasAdd/ReadVariableOp f4 [64]
-0.002348527 -0.009752716 -0.00012791145 0.003179984 0.0010904535 0.002399308 -0.005204216 -0.0017841219
0.0021048018 -0.0018094719 0.00016815648 -0.004714133 0.010282042 -0.0004408479 0.0027062974 0.0010947732
-0.0011848238 -0.0030181508 0.008443355 0.0026752707 -0.0053086723 0.0046336893 -0.008989068 9.9109784e-05
0.008397686 0.002957799 0.00060297945 -0.0036933369 -0.00619283 0.003391581 -0.006527448 0.001940418
0.011541678 -0.0023734667 0.0043595117 0.0046411627 -0.0010054802 -0.008466082 -0.00619318 0.008111964
0.007431179 0.0072546485 -0.010355195 0.006216512 0.0033133042 -0.00060071144 -0.01436533 -0.005611633
-0.0041817385 -0.00030111385 0.002661988 -0.005043612 0.006937914 -0.0015881491 0.0023836014 0.0056577306
0.0015784076 -0.00038085354 -0.0022547957 0.00026552318 -0.008618562 0.0034440872 0.00016552254 -0.0010948799
00000000: bfe9 19bb dbc9 1fbc f81f 06b9 4767 503b
00000010: 8ced 8e3a b53d 1d3b 2188 aabb 32d9 e9ba
00000020: b7f0 093b cd2b edba 2953 3039 0479 9abb
00000030: 0376 283c 9b21 e7b9 235c 313b 7e7e 8f3a
00000040: 174c 9bba 2bcc 45bb ff55 0a3c 9853 2f3b
00000050: 5ff4 adbb 34d6 973b e246 13bc 29d9 cf38
00000060: 7396 093c a2d7 413b 4411 1e3a e90b 72bb
00000070: 39ed cabb 4945 5e3b 34e4 d5bb a055 fe3a
00000080: 4e19 3d3c 2a8c 1bbb 3cda 8e3b e514 983b
00000090: 51ca 83ba 52b5 0abc 29f0 cabb 0be8 043c
000000a0: 3f81 f33b 67b8 ed3b d6a8 29bc e2b3 cb3b
000000b0: 0524 593b 1079 1dba 905c 6bbc cae1 b7bb
000000c0: f706 89bb d1de 9db9 bf74 2e3b e244 a5bb
000000d0: 7157 e33b 7129 d0ba 3236 1c3b 7c64 b93b
000000e0: 92e2 ce3a 4cad c7b9 32c5 13bb eb35 8b39
000000f0: de34 0dbc 32b6 613b 1e90 2d39 1382 8fba

vision_transformer/mlp_head_softmax/BiasAdd/ReadVariableOp f4 [5]
-0.10162469 -0.0066176895 0.03824826 -0.0047704643 -0.020294923
00000000: 9b20 d0bd 34d9 d8bb 35aa 1c3d 8e51 9cbb
00000010: 8a41 a6bc

vision_transformer/mlp_head/mlp_head_dense1/BiasAdd/ReadVariableOp f4 [32]
0.017207531 0.014566615 0.02744695 0.0040781996 0.013814296 -0.008390255 -0.0010646636 0.014191067
-0.028373318 -0.011125359 -0.014342921 0.014750205 -0.015388242 -0.026844326 -0.014796874 0.015032031
-0.015972504 -0.029968278 0.009494349 -0.0029392748 -0.0012247583 0.0036737465 0.043480124 -0.0031571146
-0.0077333613 -0.030835304 -0.037177447 -0.013339497 -0.04867454 -0.0063389963 0.004145621 0.0034985126
00000000: cff6 8c3c d0a8 6e3c 6dd8 e03c 6ba2 853b
00000010: 5b55 623c 4877 09bc 2f8c 8bba a681 683c
00000020: 296f e8bc 2347 36bc 92fe 6abc d8aa 713c
00000030: f71e 7cbc a2e8 dbbc 966e 72bc e848 763c
00000040: c5d8 82bc 0980 f5bc 308e 1b3c d9a0 40bb
00000050: 1288 a0ba 3dc3 703b 3718 323d 98e7 4ebb
00000060: 2368 fdbb 529a fcbc 6147 18bd e88d 5abc
00000070: f45e 47bd 5bb7 cfbb fdd7 873b 4d47 653b

vision_transformer/mlp_head_layerNorm/batchnorm/ReadVariableOp f4 [64]
-0.009998638 0.003207831 -0.006257517 0.01671437 0.014007191 0.0027817036 -0.001215283 0.03038784
-0.0015476001 -0.006330371 0.009458862 -0.034138706 0.03886635 -0.0035234 0.008612813 0.0029025327
-0.027121773 0.010664388 -0.010686968 0.022306956 -0.0018357559 0.008593796 0.005460559 0.0076337843
0.028067712 0.011334785 -0.019340096 0.005916112 -0.021817146 0.0038470102 0.007925235 -0.0022351665
-0.013613993 -0.022930358 -0.001981614 0.0103277005 -0.02471761 0.0051159617 -0.005228479 0.025019407
0.0011752356 0.008808772 0.0024397662 -0.0058234422 0.006470856 -0.0070056566 0.013510744 0.011386325
0.0057130605 0.004142634 -0.024512844 -0.0058927783 -0.004524307 -0.011025445 0.015356987 0.011750523
0.006896805 -0.012631984 0.026773823 -0.005814012 -0.0034664145 0.009104228 0.00515311 -0.02072232
00000000: 54d1 23bc 793a 523b db0b cdbb 93ec 883c
00000010: 6b7e 653c 3e4d 363b 214a 9fba ebef f83c
00000020: d8d8 caba 006f cfbb 58f9 1a3c 07d5 0bbd
00000030: 5232 1f3d d8e8 66bb c21c 0d3c 6b38 3e3b
00000040: 7b2e debc afb9 2e3c 6518 2fbc 14bd b63c
00000050: bf9d f0ba fecc 0c3c 7dee b23b d324 fa3b
00000060: 42ee e53c 89b5 393c 1f6f 9ebc f2db c13b
00000070: dfb9 b2bc 1f1e 7c3b d8d8 013c df7b 12bb
00000080: 3a0d 5fbc 72d8 bbbc f7dd 01bb 8435 293c
00000090: 967c cabc cca3 a73b a953 abbb 80f5 cc3c
000000a0: 5d0a 9a3a ab52 103c 7ce4 1f3b 93d2 bebb
000000b0: 7909 d43b b58f e5bb 2b5c 5d3c b58d 3a3c
000000c0: a034 bb3b efbe 873b 29cf c8bc 3518 c1bb
000000d0: a340 94bb 11a4 34bc df9b 7b3c 4485 403c
000000e0: 98fe e13b 62f6 4ebc c754 db3c 7883 bebb
000000f0: c92c 63bb e629 153c 6bdb a83b dbc1 a9bc

vision_transformer/mlp_head_layerNorm/batchnorm/mul/ReadVariableOp f4 [64]
0.9955428 0.99567443 0.99853736 0.98379505 0.9919986 0.98601717 0.9888085 1.0132011
0.9930794 0.99224037 0.9754846 0.9785057 0.98819345 0.99247307 0.9844698 0.99065566
1.0202411 0.988244 0.97864103 0.9877306 0.9862841 0.9864168 0.9938232 0.9742484
0.9948688 0.988595 0.9834354 0.9860425 1.0019797 0.9979652 0.9823218 0.99698687
0.9846229 0.99405986 0.9748025 0.9886391 0.9934178 0.9806957 0.9908896 0.9670625
0.98437977 0.99137974 0.9921793 1.0009596 0.989353 0.98610485 0.98197097 0.986839
0.983576 0.99153537 1.011145 0.98109514 0.98561835 0.9932326 0.98242044 0.97953576
0.9731404 0.9782552 1.0100266 0.9830058 0.9848273 0.9839673 0.984602 1.0072484
00000000: e5db 7e3f 85e4 7e3f 25a0 7f3f fed9 7b3f
00000010: 9ff3 7d3f 9f6b 7c3f 8e22 7d3f 93b0 813f
00000020: 743a 7e3f 7703 7e3f 5cb9 793f 597f 7a3f
00000030: 3ffa 7c3f b712 7e3f 3606 7c3f 9c9b 7d3f
00000040: 4397 823f 8ffd 7c3f 3888 7a3f eadb 7c3f
00000050: 1d7d 7c3f d085 7c3f 326b 7e3f 5868 793f
00000060: b9af 7e3f 9014 7d3f 6cc2 7b3f 486d 7c3f
00000070: df40 803f a67a 7f3f 7179 7b3f 883a 7f3f
00000080: 3f10 7c3f b57a 7e3f a88c 793f 7417 7d3f
00000090: a150 7e3f e00e 7b3f f1aa 7d3f 6891 773f
000000a0: 5000 7c3f 10cb 7d3f 76ff 7d3f 721f 803f
000000b0: 3d46 7d3f 5e71 7c3f 7362 7b3f 7ba1 7c3f
000000c0: a3cb 7b3f 43d5 7d3f 336d 813f 0d29 7b3f
000000d0: 7c51 7c3f 7e44 7e3f e87f 7b3f dbc2 7a3f
000000e0: bb1f 793f ef6e 7a3f 8d48 813f 45a6 7b3f
000000f0: a41d 7c3f 48e5 7b3f e00e 7c3f 84ed 803f

vision_transformer/Encoder_1/mlp_dense2_encoder/BiasAdd/ReadVariableOp f4 [64]
-0.007074576 0.00029978558 -0.018047975 0.010186424 0.029080411 0.0051765526 -0.002749193 0.02104441
0.0058183726 -0.012139581 0.004991082 -0.027425969 0.027746936 0.006310509 0.0055193976 0.015377437
-0.027310234 0.0032607068 -0.012726234 0.02038716 -0.0157201 -0.005591744 0.017627714 0.010641734
0.024327165 0.016780708 -0.02203811 0.0030875045 -0.028467882 0.00035831923 0.004281497 0.0010611936
-0.022328014 -0.022892514 0.0033612999 0.012169931 -0.020787885 -0.005280086 -0.0037675998 0.011294373
0.0051352326 0.008057964 -0.004642072 -0.009956739 0.011734177 -0.00010213202 0.009493555 0.00347191
0.005732126 0.00052436424 -0.027560102 0.0070969746 0.0055111414 -0.007693506 0.009560277 0.016120555
0.0014215526 -0.017400054 0.042416293 0.0003439938 -0.005321725 0.017349357 0.0047238152 -0.02783433
00000000: d8d1 e7bb 8a2c 9d39 59d9 93bc f5e4 263c
00000010: 0b3a ee3c 12a0 a93b ce2b 34bb 5465 ac3c
00000020: 0ca8 be3b 18e5 46bc 3b8c a33b 6dac e0bc
00000030: 8b4d e33c 63c8 ce3b 10dc b43b a5f1 7b3c
00000040: b6b9 dfbc 95b1 553b b281 50bc f902 a73c
00000050: 70c7 80bc f33a b7bb ff67 903c ab5a 2e3c
00000060: c349 c73c b277 893c 4489 b4bc bb57 4a3b
00000070: 7a35 e9bc cbdc bb39 cd4b 8c3b c017 8b3a
00000080: 3de9 b6bc 1589 bbbc 4149 5c3b 6464 473c
00000090: 5b4b aabc 9204 adbb d6e9 76bb 090c 393c
000000a0: 7445 a83b 8d05 043c 861c 98bb 9721 23bc
000000b0: b540 403c b62f d6b8 db8a 1b3c fc88 633b
000000c0: 8fd4 bb3b 7d75 093a b9c5 e1bc bd8d e83b
000000d0: ce96 b43b ce19 fcbb b5a2 1c3c 410f 843c
000000e0: 6453 ba3a 8f8a 8ebc b5bc 2d3d 115a b439
000000f0: dd61 aebb 3d20 8e3c 3cca 9a3b d204 e4bc

vision_transformer/Encoder_1/mlp_dense1_encoder/BiasAdd/ReadVariableOp f4 [32]
-0.008402167 0.019722782 -0.0012594506 0.0003130603 0.0046443343 0.0013505316 0.008002944 -0.012892958
0.0006470344 -0.00899778 -0.0075519076 0.0031668204 0.0007405467 0.003185336 -0.009353958 0.009282242
-0.005204302 -0.0064188307 -0.00057802687 0.0013579878 -0.008814611 -0.012978607 -0.0065588504 -0.015858945
-0.0033879366 -0.00047268943 -0.0058818157 -0.0032461446 0.0040329876 -0.01419968 0.018353892 0.0087184515
00000000: 3ea9 09bc ac91 a13c 2614 a5ba 3e22 a439
00000010: 802f 983b 5204 b13a c81e 033c fc3c 53bc
00000020: be9d 293a 6d6b 13bc fe75 f7bb 6e8a 4f3b
00000030: 3f21 423a 12c1 503b 5841 19bc 8b14 183c
00000040: d988 aabb 0e55 d2bb ba86 17ba 82fe b13a
00000050: 286b 10bc 39a4 54bc a0eb d6bb 9eea 81bc
00000060: 2508 5ebb 4dd3 f7b9 3fbc c0bb 45bd 54bb
00000070: 2727 843b c6a5 68bc e75a 963c d6d7 0e3c

vision_transformer/Encoder_1/layerNorm2_encoder/batchnorm/ReadVariableOp f4 [64]
-0.013717623 0.017773312 -0.000603935 -0.0025281277 -0.02196275 -0.0013144307 -0.0045097237 -0.0017185203
-0.004733238 0.007723046 0.0006526491 0.0004903111 0.0033808236 0.008319408 0.00049827853 0.020142915
0.0094114365 -0.01229184 -0.00497063 0.001712622 0.014302054 -0.012245212 -0.015262069 0.0023503115
-0.006572586 -0.005841873 0.0077062272 -0.00041948736 -0.0047520883 0.010381339 -0.0030029481 0.007391508
-0.0038019947 0.011418438 0.009933922 -0.00022295334 0.008515904 -0.0023959945 0.0014063956 0.0014396202
-0.0072491993 -0.0019871313 -0.0077721076 -0.0012492907 -0.004297356 -0.0039138384 -4.2838496e-05 0.0093178
0.0034146234 -0.01769953 -0.0038863458 0.00987168 -0.002515225 -0.0017038806 -0.0067006885 -0.0011741588
-0.0027686472 -0.009061092 -0.015035111 -0.007760261 0.014649286 0.012543235 -0.005910705 0.004392174
00000000: e2bf 60bc 5699 913c 6451 1eba f2ae 25bb
00000010: 3aeb b3bc fa48 acba 4ec6 93bb f93f e1ba
00000020: 4719 9bbb 9b11 fd3b 8a16 2b3a 3988 003a
00000030: cf90 5d3b 204e 083c e89e 023a c102 a53c
00000040: 6d32 1a3c b763 49bc abe0 a2bb 0f7a e03a
00000050: 2a53 6a3c 24a0 48bc c20d 7abc af07 1a3b
00000060: d95e d7bb 2f6d bfbb 8584 fc3b a4ee dbb9
00000070: 68b7 9bbb 7e16 2a3c 1ccd 44bb 7734 f23b
00000080: e32a 79bb 6614 3b3c e4c1 223c 95c8 69b9
00000090: 4a86 0b3c 1e06 1dbb ce56 b83a a3b1 bc3a
000000a0: b18a edbb 883a 02bb 2aad febb 3dbf a3ba
000000b0: d6d0 8cbb a83f 80bb 7cad 33b8 b0a9 183c
000000c0: e0c7 5f3b 9bfe 90bc 10b2 7ebb d4bc 213c
000000d0: 79d6 24bb bf54 dfba 7391 dbbb 3be6 99ba
000000e0: 3172 35bb f974 14bc d455 76bc ca49 febb
000000f0: 8f03 703c 2482 4d3c 96ae c1bb 3aec 8f3b

vision_transformer/Encoder_1/layerNorm2_encoder/batchnorm/mul/ReadVariableOp f4 [64]
1.0067928 0.9972527 0.9920659 0.9880243 1.0169336 0.9918214 1.0001433 0.99314296
0.9924062 0.99582005 0.99917734 0.99561024 1.0000175 1.0027328 0.9992188 1.0082543
0.99928755 1.0126383 0.99779785 1.0006845 0.98662066 1.010706 1.0111233 0.99372965
1.0011848 1.0047278 1.0044682 0.9941385 0.9907474 1.006869 1.0006268 0.9900651
0.9959122 0.99604315 0.99178255 0.9925926 1.0009375 0.99157774 1.0015017 0.9981958
0.9946829 0.9968537 1.0019066 0.9983941 0.99117064 1.0033692 0.99952966 0.9920346
1.0000695 1.0056837 1.0041996 0.9975223 1.0010864 0.9935445 1.001984 0.9991841
0.9906607 0.9896818 1.0065894 1.0041392 1.0065604 1.0066305 0.9981586 0.9981091
00000000: 96de 803f f44b 7f3f 08f8 7d3f 29ef 7c3f
00000010: e12a 823f 02e8 7d3f b204 803f 9e3e 7e3f
00000020: 550e 7e3f 10ee 7e3f 16ca 7f3f 50e0 7e3f
00000030: 9300 803f 8c59 803f cecc 7f3f 7a0e 813f
00000040: 4fd1 7f3f 229e 813f ae6f 7f3f 6e16 803f
00000050: 2c93 7c3f d05e 813f 7d6c 813f 1165 7e3f
00000060: d326 803f ec9a 803f 6a92 803f dc7f 7e3f
00000070: 9fa1 7d3f 15e1 803f 8a14 803f e874 7d3f
00000080: 1af4 7e3f affc 7e3f 76e5 7d3f 8c1a 7e3f
00000090: b81e 803f 0ad8 7d3f 3531 803f c389 7f3f
000000a0: 8aa3 7e3f ce31 7f3f 7a3e 803f c196 7f3f
000000b0: 5cbd 7d3f 676e 803f 2de1 7f3f fbf5 7d3f
000000c0: 4702 803f 3eba 803f 9d89 803f 9f5d 7f3f
000000d0: 9923 803f ef58 7e3f 0341 803f 87ca 7f3f
000000e0: f19b 7d3f c95b 7d3f ecd7 803f a287 803f
000000f0: f9d6 803f 45d9 803f 5287 7f3f 1484 7f3f

vision_transformer/Encoder_1/layerNorm1_encoder/batchnorm/ReadVariableOp f4 [64]
-0.00418645 -0.011192904 -0.0011583361 0.0023573441 0.0012016423 0.0045455373 -0.0057660723 -0.00093772827
0.003288921 -0.0007875424 0.0017802891 -0.0056205406 0.009641658 0.0005482258 0.0017986484 0.002201245
-0.0020912387 -0.0034577919 0.008170954 0.001724336 -0.0049919486 0.0035860264 -0.008636408 -0.0005402242
0.008752813 0.0022257983 0.0011982353 -0.003938284 -0.0042743953 0.002641364 -0.005548057 0.00053314713
0.011257222 -0.0021262455 0.0038819632 0.0046189656 -0.001081554 -0.008084662 -0.0050652674 0.0074827387
0.0063726734 0.006179339 -0.010893201 0.005703819 0.0037846165 -0.0010853051 -0.01378782 -0.0043298984
-0.0044723507 -0.00023882909 0.0044225315 -0.004629708 0.0062308833 -0.0025277995 0.00017597835 0.0059182635
0.002249638 0.00022226197 -0.0021470652 -0.00082366593 -0.008332463 0.0021080873 0.0003830548 -0.0024797146
00000000: 7d2e 89bb 7162 37bc 4fd3 97ba ac7d 1a3b
00000010: 6d80 9d3a bbf2 943b 52f1 bcbb e1d1 75ba
00000020: f08a 573b 1373 4eba 9758 e93a 832c b8bb
00000030: 0bf8 1d3c d0b6 0f3a a0c0 eb3a c342 103b
00000040: 2a0d 09bb 1f9c 62bb 77df 053c 1d03 e23a
00000050: 8093 a3bb 8a03 6b3b b87f 0dbc d59d 0dba
00000060: f567 0f3c b3de 113b 1b0e 9d3a b80c 81bb
00000070: 3a10 8cbb bc1a 2d3b 7acc b5bb e6c2 0b3a
00000080: 3670 383c 7b58 0bbb 8968 7e3b b15a 973b
00000090: eec2 8dba 8875 04bc 8bfa a5bb c331 f53b
000000a0: dcd1 d03b 0d7c ca3b 6679 32bc 1ae7 ba3b
000000b0: 5407 783b cc40 8eba 4fe6 61bc d2e1 8dbb
000000c0: cc8c 92bb 326e 7ab9 e2ea 903b ceb4 97bb
000000d0: 702c cc3b 70a9 25bb d486 3839 feed c13b
000000e0: aa6e 133b fe0e 6939 c7b5 0cbb 49eb 57ba
000000f0: e284 08bc d627 0a3b bfd4 c839 b582 22bb

vision_transformer/Encoder_1/layerNorm1_encoder/batchnorm/mul/ReadVariableOp f4 [64]
1.0036697 1.0114466 1.002272 1.0042877 1.0005186 1.0039617 0.9946659 1.0051775
0.99980634 1.001441 1.0008107 0.9934125 0.9899916 1.0049001 0.9936304 0.99890435
0.99981344 0.99710536 1.0081065 1.0014815 1.0040529 0.99590653 1.0064396 0.99972683
0.9912398 0.99736965 0.9990433 1.0028689 0.99194294 0.99434114 1.006729 0.99793625
1.011356 0.9958038 1.003846 1.0040872 0.99855727 1.0092182 1.0076959 0.99358803
0.9934385 1.0073756 0.9883095 1.0057002 1.0019453 0.99864393 0.98627806 1.0057112
1.0040783 0.9983235 0.99916124 0.99840385 0.993484 1.002176 1.0021564 1.0046917
0.99900043 1.0005909 0.99743754 0.9977087 1.0082452 0.99670774 0.9998291 1.0037533
00000000: 4078 803f 1577 813f 734a 803f 808c 803f
00000010: fe10 803f d181 803f 6da2 7e3f a8a9 803f
00000020: 4ff3 7f3f 382f 803f 911a 803f 4850 7e3f
00000030: 1770 7d3f 91a0 803f 905e 7e3f 32b8 7f3f
00000040: c6f3 7f3f 4c42 7f3f a209 813f 8c30 803f
00000050: ce84 803f bbf3 7e3f 03d3 803f 19ee 7f3f
00000060: e4c1 7d3f 9e53 7f3f 4dc1 7f3f 025e 803f
00000070: f9ef 7d3f 248d 7e3f 7fdc 803f c078 7f3f
00000080: 1d74 813f ffec 7e3f 077e 803f ee85 803f
00000090: 73a1 7f3f 102e 813f 2efc 803f c95b 7e3f
000000a0: fc51 7e3f aff1 803f da01 7d3f c9ba 803f
000000b0: be3f 803f 21a7 7f3f b87c 7c3f 25bb 803f
000000c0: a385 803f 2192 7f3f 08c9 7f3f 6597 7f3f
000000d0: f854 7e3f 4e47 803f a946 803f bd99 803f
000000e0: 7ebe 7f3f 5d13 803f 1158 7f3f d669 7f3f
000000f0: 2e0e 813f 3d28 7f3f cdf4 7f3f fd7a 803f

vision_transformer/BroadcastTo/ReadVariableOp f4 [1, 1, 64]
-0.21034741 -0.1811157 0.028453492 -0.28769836 -0.15757982 0.20389408 -0.058147155 0.22226217
-0.23146307 0.038242385 0.24020813 0.22457786 -0.04480556 0.2999982 0.016647194 0.1313252
-0.32331556 -0.24221016 -0.0067515178 0.12973347 -0.24944359 0.089421645 -0.009614799 0.17686732
-0.10586228 -0.17748639 -0.18172212 -0.25488466 -0.19119659 0.27322382 0.26217562 -0.12535463
0.14290339 -0.27380162 -0.12891522 0.30245996 0.14908409 0.12851469 0.14733519 0.14117071
-0.005876691 -0.18685466 0.12408483 -0.20323965 -0.17880712 -0.23325813 0.25714132 0.127579
0.09197424 0.12065192 0.10749852 -0.15527004 -0.013854874 -0.13929948 0.16643858 -0.26853192
0.18964964 0.18305925 0.19097716 0.16036084 -0.029675022 0.2929473 -0.06782474 -0.29049197
00000000: 5065 57be 6576 39be 4c17 e93c 334d 93be
00000010: 9b5c 21be 9cc9 503e b62b 6ebd b298 633e
00000020: a804 6dbe 0ca4 1c3d 1ff9 753e bdf7 653e
00000030: 0986 37bd 5d99 993e b25f 883c 1d7a 063e
00000040: 9e89 a5be f105 78be d63b ddbb dad8 043e
00000050: 246e 7fbe b222 b73d 6487 1dbc b51c 353e
00000060: 53ce d8bd febe 35be 5d15 3abe 3e80 82be
00000070: 0ac9 43be fee3 8b3e e23b 863e f75c 00be
00000080: 4455 123e ba2f 8cbe 5a02 04be 08dc 9a3e
00000090: 80a9 183e 5b99 033e 09df 163e 0e8f 103e
000000a0: 4291 c0bb d456 3fbe 3020 fe3d 0e1e 50be
000000b0: 3719 37be 38db 6ebe 07a8 833e 12a4 023e
000000c0: fe5c bc3d 5b18 f73d 2f28 dc3d 1cff 1ebe
000000d0: 8eff 62bc 86a4 0ebe e06e 2a3e 047d 89be
000000e0: 8433 423e e273 3b3e 848f 433e a235 243e
000000f0: 0819 f3bc 30fd 953e b3e7 8abd 5dbb 94be

vision_transformer/add/ReadVariableOp f4 [1, 61, 64]
0.11147959 -0.11791144 -0.12538567 0.1921034 0.23083077 0.19139263 0.021182755 0.2349501
-0.077989176 -0.035457544 -0.109961525 0.0021380046 0.18715812 0.21927087 0.15807381 -0.04270691
0.033580694 -0.024772897 0.18875882 0.20872764 -0.15455759 -0.22596219 0.110523365 0.11870384
-0.10375996 -0.0071326536 -0.02930063 0.046787273 0.07183598 -0.11382032 -0.051128335 0.14839676
-0.0031504033 0.1516615 -0.018553061 0.14450432 0.15003498 -0.04014395 0.21612479 0.013234983
-0.0747484 0.092958376 -0.017675875 0.011631006 0.13092116 -0.12939082 -0.17499506 0.21383332
-0.13406101 -0.001980218 -0.2266903 -0.115286924 -0.12180736 -0.0044209613 -0.20085901 0.18622327
0.025045631 0.033075664 -0.16109174 -0.06969856 0.0492184 0.17014031 0.18473348 -0.06809482
0.053430133 0.1469664 0.07036732 -0.066773206 -0.17423266 -0.19512111 0.18544558 0.16417497
-0.083066225 0.20652276 -0.09329296 -0.15858382 -0.13078232 0.12443195 -0.14814886 0.15126532
-0.11018632 0.09021741 -0.14200366 -0.20401864 0.0784454 -0.1828434 0.13721773 0.0660214
0.12407618 0.15680394 -0.11808114 0.022086984 -0.04706402 -0.019610569 0.18227297 0.078673854
0.08237841 -0.021859992 0.20168106 -0.070509486 -0.023399778 0.074337535 -0.16415985 -0.007212526
-0.008047068 0.064066134 -0.04261633 -0.03599421 -0.19751158 0.16999187 0.035132702 0.18345171
0.20821212 -0.114398494 0.2245162 0.20423335 -0.21175028 0.2193956 0.111361206 0.022903744
-0.13426323 0.030707013 -0.1224192 -0.21266402 -0.19472495 -0.07114313 -0.16774814 -0.04587996
0.1448286 0.032824233 0.1257479 0.1599361 0.052813035 0.07917641 0.14708148 -0.1580778
-0.16603331 -0.18853073 0.09744723 -0.037183795 0.22529045 0.13517092 -0.16113679 -0.08042909
-0.2112726 0.09899721 0.12945451 -0.15949987 -0.120955646 -0.055201318 0.123642534 0.15714006
0.14006984 -0.16044183 -0.059327014 -0.1494305 -0.20135483 0.02816608 0.00252846 0.060746644
-0.14547443 0.15112977 -0.21006735 0.070794 0.16905966 -0.21323471 -0.04656236 -0.009141501
-0.054509763 -0.13993551 0.18198963 0.0037124814 0.13530739 -0.02794599 -0.0745153 0.01849208
-0.17341486 -0.18295588 0.18335766 0.064039834 0.14789645 -0.16172068 -0.11707384 -0.20809607
0.1996285 0.1930752 -0.09936292 0.08994476 0.12586051 0.022651073 0.14893249 0.006876389
-0.033098705 -0.13866243 -0.18064365 -0.13022237 0.17514703 0.001840639 -0.15696923 -0.07781613
0.068513796 -0.1412813 0.10876988 0.085997336 -0.055977836 0.08373403 -0.05730072 -0.035663873
-0.044162396 -0.10553101 -0.16394378 -0.10524199 -0.14118616 0.072400495 -0.10099024 -0.12352796
0.029316038 0.026988706 0.20328537 -0.13122381 0.10157514 -0.08570176 -0.15411153 -0.09443141
-0.12720247 0.113890804 0.024096727 -0.2093485 -0.1429822 0.04115456 0.09577683 -0.20683227
0.14542533 0.13225667 -0.22772951 0.12464039 -0.13691036 -0.0068882513 -0.20229897 0.08671235
-0.12311509 -0.08274556 0.0047082785 0.17771651 0.060486373 0.12282703 0.21963023 0.20918655
-0.090236925 -0.051572397 -0.11216126 -0.0465928 -0.14123853 0.0050007794 0.11658788 0.19793753
00000000: 694f e43d 8e7b f1bd 1a65 00be c1b6 443e
00000010: e75e 6c3e 6efc 433e 7587 ad3c c296 703e
00000020: cab8 9fbd ee3b 11bd 8233 e1bd c41d 0c3b
00000030: 61a6 3f3e 8b88 603e 1ade 213e 71ed 2ebd
00000040: e98b 093d 88f0 cabc fe49 413e b3bc 553e
00000050: 5844 1ebe a262 67be 135a e23d 001b f33d
00000060: 1a80 d4bd 09b9 e9bb e007 f0bc 03a4 3f3d
00000070: be1e 933d a11a e9bd f26b 51bd 52f5 173e
00000080: ff76 4ebb 274d 1b3e 97fc 97bc f1f8 133e
00000090: c5a2 193e fc6d 24bd d14f 5d3e 8bd7 583c
000000a0: b015 99bd f660 be3d ffcc 90bc fa8f 3e3c
000000b0: 3210 063e 077f 04be e831 33be 1ff7 5a3e
000000c0: 4a47 09be 8cc6 01bb 8121 68be 8d1b ecbd
000000d0: 2376 f9bd b6dd 90bb fcad 4dbe 50b1 3e3e
000000e0: 7f2c cd3c 597a 073d 3cf5 24be 1ebe 8ebd
000000f0: 3c99 493d 4339 2e3e c62a 3d3e 4c75 8bbd
00000100: 8ed9 5a3d 5c7e 163e be1c 903d 64c0 88bd
00000110: 0c6a 32be d4cd 47be 72e5 3d3e 7c1d 283e
00000120: a01e aabd b47a 533e 6110 bfbd cc63 22be
00000130: cdeb 05be 2ed6 fe3d 56b4 17be 4ce5 1a3e
00000140: 5ea9 e1bd e8c3 b83d 6869 11be 43ea 50be
00000150: fba7 a03d 4d3b 3bbe ce82 0c3e 3a36 873d
00000160: a71b fe3d 3691 203e 86d4 f1bd c3ef b43c
00000170: 34c6 40bd 58a6 a0bc c4a5 3a3e c21f a13d
00000180: 03b6 a83d ba13 b3bc 7b85 4e3e 4767 90bd
00000190: e4b0 bfbc 473e 983d 8519 28be 0e57 ecbb
000001a0: d9d7 03bc 1b35 833d 768e 2ebd aa6e 13bd
000001b0: 7a40 4abe 5912 2e3e 4fe7 0f3d c4da 3b3e
000001c0: 8f35 553e c249 eabd 93e7 653e 8c22 513e
000001d0: 11d5 58be 3da9 603e 5811 e43d a2a0 bb3c
000001e0: 4d7c 09be 468d fb3c ebb6 fabd 99c4 59be
000001f0: fa65 47be 7db3 91bd 2bc6 2bbe a0ec 3bbd
00000200: f34d 143e b472 063d 0fc4 003e 4ac6 233e
00000210: 7b52 583d 3e27 a23d 879c 163e 26df 21be
00000220: a304 2abe 330e 41be 6a92 c73d 094e 18bd
00000230: 8ab2 663e 3f6a 0a3e 0b01 25be 02b8 a4bd
00000240: d857 58be 0dbf ca3d b98f 043e ef53 23be
00000250: 98b7 f7bd c71a 62bd 4c38 fd3d 53e9 203e
00000260: 786e 0f3e dd4a 24be e200 73bd 4f04 19be
00000270: f62f 4ebe 8dbc e63c 85b4 253b 79d1 783d
00000280: 40f7 14be c3c1 1a3e e51b 57be 72fc 903d
00000290: fa1d 2d3e 335a 5abe 2cb8 3ebd 3cc6 15bc
000002a0: a145 5fbd 414b 0fbe 7d5b 3a3e 1a4d 733b
000002b0: 058e 0a3e fdee e4bc 7a9b 98bd b47c 973c
000002c0: aa93 31be c958 3bbe 1cc2 3b3e 5127 833d
000002d0: 2b72 173e 1b9a 25be 69c4 efbd 2317 55be
000002e0: 6a6b 4c3e 81b5 453e c97e cbbd f534 b83d
000002f0: 94e1 003e be8e b93c c281 183e 5553 e13b
00000300: 8292 07bd 86fd 0dbe a6fa 38be 0359 05be
00000310: be59 333e 9941 f13a 8bbc 20be 105e 9fbd
00000320: f650 8c3d 0cac 10be bec2 de3d 5f1f b03d
00000330: 0449 65bd bf7c ab3d 29b4 6abd 4814 12bd
00000340: a1e3 34bd a420 d8bd e1e0 27be 1d89 d7bd
00000350: 1b93 10be b646 943d f9d3 cebd 3afc fcbd
00000360: 3028 f03c 6b17 dd3c 0a2a 503e 895f 06be
00000370: a106 d03d 6884 afbd 6acf 1dbe 4165 c1bd
00000380: 5d41 02be 953f e93d 8066 c53c 745f 56be
00000390: ed69 12be af91 283d a526 c43d d7cb 53be
000003a0: 61ea 143e 4b6e 073e ed31 69be 7643 ff3d
000003b0: 3b32 0cbe d7b6 e1bb 7627 4fbe 3f96 b13d
000003c0: c423 fcbd 8176 a9bd e747 9a3b 51fb 353e
000003d0: 8fc0 773d bd8c fb3d bfe6 603e 0035 563e
000003e0: 23ce b8bd 943d 53bd cdb4 e5bd 18d8 3ebd
000003f0: d5a0 10be 94dd a33b a0c5 ee3d 23b0 4a3e

vision_transformer/patch_projection_dense/Tensordot/MatMul1 i1 [64, 64] scale=0.0017698533 zero_point=0
0.21061254 0.04424633 -0.2159221 -0.15220739 0.08849266 -0.12565958 -0.14335811 0.024777945
0.04247648 -0.2159221 0.08849266 -0.03716692 0.20176327 -0.15574709 0.20176327 -0.051325746
0.10265149 -0.115040466 -0.08672281 -0.07256398 0.051325746 -0.056635305 -0.15397723 -0.1362787
-0.21061254 0.14335811 -0.070794135 0.046016186 0.17521548 0.15220739 0.054865453 -0.19468386
0.14866768 0.07433384 -0.024777945 -0.09557208 0.0831831 0.09203237 0.111500755 -0.21769196
0.120350026 -0.15574709 0.06902428 0.070794135 0.106191196 -0.19999342 0.1893743 -0.019468386
0.12565958 -0.13450885 -0.15220739 0.115040466 -0.09026252 -0.1858346 -0.15397723 -0.07787354
0.16990592 -0.12388973 0.115040466 -0.17167577 -0.0035397066 0.18406475 -0.10973091 -0.19468386
-0.20707284 -0.1893743 0.0035397066 0.17521548 -0.060175013 0.08849266 -0.16282651 -0.08849266
-0.20176327 0.09911178 -0.17698532 -0.20530298 -0.09911178 0.067254424 -0.046016186 0.051325746
0.1291993 -0.11858017 -0.11327061 -0.061944865 0.067254424 -0.09911178 0.03185736 -0.16282651
0.1858346 -0.07433384 0.09380222 0.18760444 -0.01061912 0.15397723 -0.08672281 -0.22300151
-0.1592868 -0.120350026 0.1291993 -0.058405157 -0.09203237 0.19468386 -0.1893743 0.19468386
-0.20176327 0.14158827 0.09911178 -0.051325746 -0.106191196 0.111500755 -0.14866768 -0.17698532
-0.10796105 0.054865453 0.13981842 0.20353313 -0.13450885 -0.08495296 0.12565958 0.09734193
-0.13804856 0.067254424 0.132739 -0.13981842 -0.122119874 -0.04955589 -0.132739 0.19822356
-0.09734193 0.056635305 -0.10265149 0.15751694 0.09026252 0.0796434 0.15043753 -0.1362787
-0.0831831 0.15751694 -0.19468386 0.19999342 0.17167577 -0.09911178 -0.12388973 0.14158827
0.15397723 -0.0831831 0.007079413 -0.067254424 0.13804856 0.17875518 0.17875518 0.20530298
-0.19114415 0.019468386 0.111500755 0.04247648 -0.11327061 0.09380222 0.17344563 -0.07787354
-0.035397068 0.03185736 -0.012388973 0.060175013 0.019468386 -0.106191196 -0.03185736 -0.028317653
-0.16813606 0.21238239 -0.1858346 -0.13096914 -0.028317653 0.07787354 -0.13981842 -0.13450885
-0.21415225 -0.16282651 0.10973091 0.13804856 -0.19468386 -0.1362787 -0.081413254 -0.20530298
-0.2159221 -0.014158826 0.040706627 0.026547799 -0.01592868 0.1858346 -0.17875518 0.17167577
0.18052503 -0.21238239 -0.16813606 0.019468386 0.19291401 -0.14335811 -0.10796105 -0.058405157
0.17344563 0.14689782 0.056635305 -0.132739 -0.20176327 0.012388973 -0.20353313 -0.14866768
-0.07787354 0.012388973 0.13096914 0.106191196 0.120350026 0.1592868 0.019468386 0.02123824
0.15043753 0.18406475 -0.12742944 0.12388973 0.08849266 0.09203237 -0.051325746 0.13981842
-0.04424633 -0.111500755 -0.033627212 0.13096914 -0.040706627 0.10796105 0.081413254 -0.07433384
0.067254424 -0.1291993 0.2088427 0.10973091 -0.09380222 0.1893743 -0.1362787 -0.19468386
-0.132739 -0.18229489 -0.14866768 -0.058405157 -0.033627212 0.15043753 -0.14158827 0.09911178
0.06548457 0.08495296 0.12388973 -0.1291993 -0.1663662 0.17167577 0.20707284 -0.13096914
00000000: 7719 86aa 32b9 af0e 1886 32eb 72a8 72e3
00000010: 3abf cfd7 1de0 a9b3 8951 d81a 6356 1f92
00000020: 542a f2ca 2f34 3f85 44a8 2728 3c8f 6bf5
00000030: 47b4 aa41 cd97 a9d4 60ba 419f fe68 c292
00000040: 8b95 0263 de32 a4ce 8e38 9c8c c826 e61d
00000050: 49bd c0dd 26c8 12a4 69d6 356a fa57 cf82
00000060: a6bc 49df cc6e 956e 8e50 38e3 c43f ac9c
00000070: c31f 4f73 b4d0 4737 b226 4bb1 bbe4 b570
00000080: c920 c659 332d 55b3 d159 9271 61c8 ba50
00000090: 57d1 04da 4e65 6574 940b 3f18 c035 62d4
000000a0: ec12 f922 0bc4 eef0 a178 97b6 f02c b1b4
000000b0: 87a4 3e4e 92b3 d28c 86f8 170f f769 9b61
000000c0: 6688 a10b 6daf c3df 6253 20b5 8e07 8dac
000000d0: d407 4a3c 445a 0b0c 5568 b846 3234 e34f
000000e0: e7c1 ed4a e93d 2ed6 26b7 763e cb6b b392
000000f0: b599 acdf ed55 b038 2530 46b7 a261 75b6

mhsa_key_dense/Tensordot/MatMul i1 [64, 64] scale=0.0017817707 zero_point=0
0.20668541 -0.18352239 0.13185103 0.07483437 0.11937864 -0.058798432 0.040980726 0.16748644
0.13185103 0.08552499 -0.10156093 -0.22093958 -0.08908854 -0.010690624 -0.11937864 0.20490363
-0.15679583 -0.062361974 -0.078397915 0.08730677 -0.15323228 0.20490363 0.103342704 -0.032071874
0.2013401 0.078397915 0.16570468 0.08730677 -0.057016663 -0.15323228 0.13897812 -0.090870306
-0.051671352 -0.10690624 -0.017817708 -0.019599479 -0.19064946 0.08552499 0.22093958 -0.11403333
-0.19955832 -0.1763953 -0.017817708 0.20312186 0.055234894 0.012472395 -0.037417185 -0.2013401
-0.12650572 0.019599479 0.007127083 -0.13185103 0.046326037 -0.2191578 -0.1639229 0.005345312
0.08196145 -0.18708593 -0.18708593 0.16214113 -0.07127083 0.04988958 -0.065925516 0.060580205
-0.008908854 0.17104998 -0.02494479 -0.062361974 0.13719635 -0.033853643 -0.08908854 0.07483437
-0.19243124 -0.13185103 -0.13185103 -0.15857759 0.115815096 0.06948906 -0.1763953 0.007127083
0.16035937 0.11046979 -0.16748644 -0.12472395 0.14432342 -0.20668541 -0.19243124 -0.040980726
0.20312186 -0.117596865 -0.19243124 -0.16035937 0.22093958 -0.0035635415 0.030290103 0.06414375
-0.20846717 0.017817708 0.20312186 -0.16748644 0.023163019 -0.10156093 0.117596865 0.18352239
-0.13006926 -0.15857759 -0.080179684 -0.037417185 -0.16926822 0.028508332 0.17461354 -0.19955832
0.115815096 -0.15145051 -0.16926822 0.20668541 -0.07661614 -0.19599478 -0.08730677 0.035635415
0.016035937 -0.14788698 -0.15501405 -0.22093958 -0.14075989 -0.19777656 -0.10156093 0.21381249
0.09799739 0.15145051 0.1763953 -0.04810781 0.007127083 -0.13006926 -0.02672656 -0.21381249
0.10690624 0.1888677 -0.17104998 0.103342704 -0.17104998 0.09799739 0.016035937 -0.15679583
-0.19243124 -0.115815096 0.09799739 -0.08908854 -0.033853643 -0.06414375 0.17817707 -0.017817708
0.16035937 0.16570468 -0.08730677 -0.07127083 0.18174061 0.21737602 -0.103342704 -0.115815096
0.09443385 0.09799739 -0.115815096 0.14432342 -0.17461354 -0.14075989 0.028508332 -0.04454427
0.1763953 0.06948906 0.033853643 -0.062361974 -0.04810781 0.06948906 0.21024895 -0.18174061
0.16035937 -0.023163019 0.19599478 -0.07483437 0.05345312 -0.21024895 0.17104998 -0.067707285
0.08374322 -0.1888677 -0.05345312 -0.15145051 -0.13719635 0.13719635 -0.19777656 -0.028508332
-0.21559426 0.15145051 0.12116041 0.16748644 0.20312186 -0.02494479 0.060580205 -0.12116041
0.051671352 -0.08730677 -0.194213 -0.019599479 0.007127083 0.11225156 0.08908854 -0.090870306
0.13897812 0.16748644 -0.194213 0.20312186 0.16570468 -0.08908854 0.051671352 0.19599478
-0.13541457 -0.11937864 -0.17995885 -0.051671352 0.051671352 0.13541457 0.09977916 -0.1461052
-0.06414375 0.030290103 -0.008908854 -0.046326037 0.13363281 -0.033853643 -0.115815096 0.02494479
-0.14075989 0.04988958 -0.15857759 0.1763953 -0.12472395 -0.040980726 -0.12472395 0.032071874
0.14432342 -0.12116041 0.09977916 0.0730526 -0.11403333 -0.1763953 0.11937864 0.15679583
-0.14966874 -0.030290103 -0.11403333 0.016035937 0.04810781 -0.035635415 0.07127083 0.19064946
00000000: 7499 4a2a 43df 175e 4a30 c784 cefa bd73
00000010: a8dd d431 aa73 3aee 712c 5d31 e0aa 4ecd
00000020: e3c4 f6f5 9530 7cc0 909d f672 1f07 eb8f
00000030: b90b 04b6 1a85 a403 2e97 975b d81c db22
00000040: fb60 f2dd 4ded ce2a 94b6 b6a7 4127 9d04
00000050: 5a3e a2ba 518c 94e9 72be 94a6 7cfe 1124
00000060: 8b0a 72a2 0dc7 4267 b7a7 d3eb a110 6290
00000070: 41ab a174 d592 cf14 09ad a984 b191 c778
00000080: 3755 63e5 04b7 f188 3c6a a03a a037 09a8
00000090: 94bf 37ce eddc 64f6 5a5d cfd8 667a c6bf
000000a0: 3537 bf51 9eb1 10e7 6327 13dd e527 769a
000000b0: 5af3 6ed6 1e8a 60da 2f96 e2ab b34d 91f0
000000c0: 8755 445e 72f2 22bc 1dcf 93f5 043f 32cd
000000d0: 4e5e 9372 5dce 1d6e b4bd 9be3 1d4c 38ae
000000e0: dc11 fbe6 4bed bf0e b11c a763 bae9 ba12
000000f0: 51bc 3829 c09d 4358 acef c009 1bec 286b

mhsa_query_dense/Tensordot/MatMul i1 [64, 64] scale=0.0017755136 zero_point=0
0.08877568 0.037285786 0.07279606 -0.0390613 0.1438166 -0.09587774 0.0390613 0.012428596
0.18465342 0.15446968 0.15802072 0.16512276 0.17932688 0.08522466 0.07279606 0.19175547
0.08167363 0.17044932 0.12073493 -0.01953065 0.21483715 0.07989811 0.049714383 0.0781226
-0.15979622 0.03551027 0.22016369 0.07279606 -0.08877568 -0.062142976 -0.16689828 -0.1562452
0.03551027 0.13493903 -0.14559212 0.1828779 -0.09587774 -0.17755136 -0.023081677 0.067469515
-0.015979623 0.20595959 -0.024857191 0.01953065 0.14736763 0.023081677 0.18465342 0.19353099
-0.055040922 -0.106530815 -0.07457157 0.008877568 0.023081677 0.17044932 0.13671455 -0.08522466
0.19885753 0.19175547 0.023081677 0.19175547 -0.106530815 -0.17222482 0.023081677 0.0035510273
-0.14204109 0.13138801 0.005326541 -0.14026558 0.062142976 -0.17932688 0.051489897 0.033734757
0.15802072 -0.12606147 0.20773509 0.062142976 0.110081844 -0.12783699 0.062142976 0.060367465
-0.19708201 -0.06391849 -0.026632704 0.104755305 -0.1171839 0.17577586 -0.17222482 0.20595959
-0.051489897 0.008877568 0.19353099 0.08700017 -0.1562452 0.08167363 0.026632704 0.12428595
0.16334726 -0.20063303 0.18997996 0.08344914 -0.17577586 0.16689828 -0.17222482 0.030183733
-0.08167363 -0.19353099 0.21128613 -0.046163354 0.067469515 -0.17577586 -0.16157174 0.1686738
0.008877568 0.15802072 -0.20418407 0.0017755136 0.20063303 0.17755136 -0.051489897 -0.16157174
0.037285786 0.060367465 0.0390613 -0.14026558 -0.01953065 -0.07279606 0.04793887 0.0390613
-0.05859195 -0.0035510273 -0.1171839 0.046163354 0.06924503 0.12251044 -0.101204276 -0.102979794
0.19175547 -0.1438166 0.2219392 0.20418407 -0.101204276 -0.037285786 -0.20418407 0.18465342
-0.17755136 0.14204109 0.033734757 0.07457157 -0.14026558 -0.051489897 -0.040836815 0.17577586
0.16689828 0.040836815 -0.17222482 -0.21483715 0.024857191 -0.11540838 -0.07989811 -0.0071020545
-0.110081844 0.026632704 0.10830633 0.1811024 0.11363287 0.14736763 -0.024857191 0.08167363
-0.18820445 0.0390613 0.22016369 0.11363287 -0.1171839 -0.055040922 -0.17932688 -0.09765325
-0.14914314 0.056816436 -0.1562452 0.106530815 -0.1828779 -0.22371472 -0.062142976 0.056816436
-0.14736763 -0.13849007 -0.051489897 0.17044932 0.0071020545 0.07102054 0.20773509 0.09765325
0.026632704 -0.07989811 -0.12606147 0.09765325 0.19885753 -0.07102054 -0.014204109 -0.07989811
0.067469515 0.106530815 0.20240855 0.11540838 -0.033734757 -0.1562452 -0.12251044 -0.09232671
0.1171839 0.010653082 0.015979623 -0.0781226 0.028408218 -0.15446968 -0.05859195 0.028408218
0.17577586 0.026632704 -0.13316353 -0.1438166 0.20773509 -0.1171839 -0.07457157 -0.16334726
-0.13849007 0.005326541 -0.06924503 -0.07634708 0.18642893 -0.04261233 -0.20773509 -0.17400034
-0.056816436 0.12251044 0.07102054 -0.106530815 0.13671455 0.12251044 0.021306165 -0.19885753
0.11895941 -0.17222482 -0.04438784 -0.023081677 -0.20595959 0.20240855 0.005326541 0.17044932
0.15269417 -0.15269417 0.14026558 0.12073493 0.14559212 0.15979622 0.21661267 -0.010653082
00000000: 3215 29ea 51ca 1607 6857 595d 6530 296c
00000010: 2e60 44f5 792d 1c2c a614 7c29 cedd a2a8
00000020: 144c ae67 ca9c f326 f774 f20b 530d 686d
00000030: e1c4 d605 0d60 4dd0 706c 0d6c c49f 0d02
00000040: b04a 03b1 239b 1d13 59b9 7523 3eb8 2322
00000050: 91dc f13b be63 9f74 e305 6d31 a82e 0f46
00000060: 5c8f 6b2f 9d5e 9f11 d293 77e6 269d a55f
00000070: 0559 8d01 7164 e3a5 1522 16b1 f5d7 1b16
00000080: dffe be1a 2745 c7c6 6caf 7d73 c7eb 8d68
00000090: 9c50 132a b1e3 e963 5e17 9f87 0ebf d3fc
000000a0: c20f 3d66 4053 f22e 9616 7c40 bee1 9bc9
000000b0: ac20 a83c 9982 dd20 adb2 e360 0428 7537
000000c0: 0fd3 b937 70d8 f8d3 263c 7241 eda8 bbcc
000000d0: 4206 09d4 10a9 df10 630f b5af 75be d6a4
000000e0: b203 d9d5 69e8 8b9e e045 28c4 4d45 0c90
000000f0: 439f e7f3 8c72 0360 56aa 4f44 525a 7afa

mhsa_value_dense/Tensordot/MatMul i1 [64, 64] scale=0.0017852545 zero_point=0
0.18566646 -0.041060854 -0.18745172 0.098189 0.12496781 -0.10354476 -0.042846106 -0.19459273
-0.10533001 -0.078551196 0.01606729 -0.15353188 0.12318256 -0.021423053 -0.19102223 -0.16245815
0.16781391 -0.024993563 0.06069865 -0.03213458 -0.203519 -0.089262724 0.06426916 -0.1606729
-0.21780105 -0.11068577 0.06605441 0.13567933 0.15174663 -0.06962492 -0.06962492 -0.053557634
0.18566646 0.09283323 0.11604154 0.13210882 -0.078551196 -0.1410351 -0.0589134 -0.078551196
0.15174663 -0.11068577 -0.06962492 -0.14639087 0.20887478 -0.07676594 0.0 -0.14639087
-0.13924985 0.078551196 0.007141018 0.11604154 0.06605441 0.15353188 0.119612046 -0.13032357
-0.055342887 0.1410351 -0.0589134 0.17674018 0.041060854 -0.16781391 -0.041060854 -0.09104798
0.11068577 -0.039275598 0.14817612 -0.1410351 0.12853833 -0.16959918 0.20173375 0.0017852545
0.16959918 -0.089262724 -0.021423053 0.108900525 0.06962492 -0.03570509 0.203519 -0.017852545
0.078551196 0.15710239 -0.012496782 -0.1999485 -0.039275598 0.044631362 0.003570509 -0.1178268
0.08569221 -0.17316969 0.12318256 -0.18745172 -0.1999485 0.13389409 -0.14817612 -0.11068577
-0.098189 0.20708951 -0.11604154 0.14282036 -0.13032357 -0.05177238 -0.22137155 0.20887478
0.1178268 -0.028564071 -0.1446056 0.024993563 -0.16959918 -0.09640374 -0.08033645 -0.13032357
-0.1803107 0.16602866 0.03213458 -0.014282036 0.008926272 0.014282036 0.042846106 0.03749034
0.17495494 -0.17852545 0.030349325 0.0107115265 -0.11247103 0.1410351 0.078551196 0.10711527
0.11604154 -0.10533001 0.19816324 0.114256285 -0.11068577 -0.1213973 -0.021423053 -0.073195435
0.07141018 -0.17852545 -0.073195435 -0.026778817 -0.033919834 -0.17316969 0.18745172 0.028564071
0.16781391 0.10711527 -0.057128143 -0.12675306 0.11247103 0.11604154 0.20708951 -0.20173375
-0.03213458 -0.08747747 0.09640374 -0.18209596 0.0 -0.1178268 0.18923697 0.17138442
-0.15531714 0.10354476 -0.14639087 0.15888764 0.094618484 0.17495494 0.16781391 -0.12853833
-0.16602866 0.21066003 -0.15531714 -0.15710239 0.0589134 -0.196378 0.10354476 0.15710239
0.17495494 -0.196378 0.06426916 -0.055342887 0.098189 -0.1803107 0.039275598 -0.11247103
0.21423054 0.1374646 0.20887478 0.17316969 0.1374646 -0.041060854 -0.203519 -0.1803107
0.14996137 -0.06069865 0.19459273 0.20173375 -0.06605441 0.019637799 0.041060854 0.09640374
0.073195435 0.21423054 -0.17138442 -0.19459273 -0.01606729 -0.17138442 -0.083906956 0.094618484
-0.15710239 0.05177238 -0.20708951 -0.19280748 0.008926272 0.083906956 -0.1178268 0.01606729
-0.15353188 -0.019637799 -0.16245815 -0.18388121 0.12675306 -0.16602866 -0.16781391 -0.1446056
-0.12496781 0.06783967 0.13924985 0.14996137 0.1999485 -0.062483907 -0.06069865 -0.12853833
0.1374646 0.196378 0.13567933 -0.0017852545 -0.11068577 0.16245815 -0.03749034 -0.08747747
0.014282036 -0.13032357 -0.21423054 -0.14996137 -0.03213458 0.042846106 0.203519 0.057128143
-0.108900525 0.06962492 -0.20173375 -0.09997425 0.12318256 0.019637799 0.094618484 0.08033645
00000000: 68e9 9737 46c6 e893 c5d4 09aa 45f4 95a5
00000010: 5ef2 22ee 8ece 24a6 86c2 254c 55d9 d9e2
00000020: 6834 414a d4b1 dfd4 55c2 d9ae 75d5 00ae
00000030: b22c 0441 2556 43b7 e14f df63 17a2 e9cd
00000040: 3eea 53b1 48a1 7101 5fce f43d 27ec 72f6
00000050: 2c58 f990 ea19 02be 309f 4597 904b adc2
00000060: c974 bf50 b7e3 8475 42f0 af0e a1ca d3b7
00000070: 9b5d 12f8 0508 1815 629c 1106 c14f 2c3c
00000080: 41c5 6f40 c2bc f4d7 289c d7f1 ed9f 6910
00000090: 5e3c e0b9 3f41 748f eecf 369a 00be 6a60
000000a0: a93a ae59 3562 5eb8 a376 a9a8 2192 3a58
000000b0: 6292 24e1 379b 16c1 784d 7561 4de9 8e9b
000000c0: 54de 6d71 db0b 1736 2978 a093 f7a0 d135
000000d0: a81d 8c94 052f be09 aaf5 a599 47a3 a2af
000000e0: ba26 4e54 70dd deb8 4d6e 4cff c25b ebcf
000000f0: 08b7 88ac ee18 7220 c327 8fc8 450b 352d
