asic/func_sim/reference_data/model_quant.tflite (tflite, 65064 bytes, 26 tensors)

vision_transformer/mlp_head_softmax/MatMul f4 [5, 32]
000000 e4 04 db 3e 14 f6 5a 3e cc 45 ff 3e 5c 11 59 3c
       0.4277717 0.21382934 0.49857938 0.013248768
000010 92 b9 81 be 53 7e ce 3e 0e 3e b8 be 21 a6 76 be
       -0.2533689 0.40330753 -0.35984844 -0.2408681
000020 1f d5 e0 be 7e 3a ad 3e 3d 13 a9 3e d6 af 15 be
       -0.43912598 0.33833688 0.3302249 -0.14617857
000030 d8 b1 b2 3e 31 f7 8b 3e b7 e8 6d be 10 cb 49 3e
       0.3490131 0.2733703 -0.23233305 0.19706368
000040 41 4b 8f 3d 12 1c 9f 3e 31 fb d9 3e 70 8d 55 3e
       0.069967754 0.31076103 0.42574456 0.20854735
000050 37 b2 00 3f 6e 42 91 be e4 a4 ca 3e d1 70 d4 3e
       0.50271934 -0.28370994 0.39578927 0.41492322
000060 a1 5a 31 be 5d 03 79 3e b0 7c fe be 21 18 c2 3e
       -0.17319728 0.24317689 -0.49704504 0.37909034
000070 6a 04 ab 3e bf 30 d2 be 5f dd 4e 3c 77 fc 1f bd
       0.33401805 -0.41052815 0.012626021 -0.03905913
000080 f1 85 bf be 80 af 0e 3e 3b 8f dc bd 9a 14 dc bd
       -0.37406877 0.13934135 -0.107695065 -0.10746117
000090 75 ef 90 3e 79 50 c4 3e 94 a3 da 3d 4a 83 ad 3e
       0.2830769 0.38342646 0.10675731 0.33889228
0000a0 ce 0f b5 be b8 be a4 be 6f be 4b be 46 ec c2 3c
       -0.3536362 -0.32176757 -0.19896863 0.023794305
0000b0 57 33 83 3e b8 15 b0 be 7f 80 79 3e 08 0e bf 3e
       0.25625107 -0.3439157 0.24365424 0.37315392
0000c0 7f db 36 3e 5e 0a 07 3c 96 07 08 be 8f 48 a1 3e
       0.17857169 0.008242218 -0.13284144 0.3150067
0000d0 f3 da 10 bd 66 01 3e 3e 5a b3 38 3e 35 8f 48 3e
       -0.035365056 0.18555221 0.18037167 0.19585879
0000e0 c3 02 8e 3e f1 1c 25 3e 8a d2 8f 3e 33 be 34 3e
       0.27736482 0.16124322 0.28090316 0.1765068
0000f0 fe f0 61 3e f5 fa 34 bd a3 23 c9 3e b9 1b a6 be
       0.22064587 -0.044184644 0.39285 -0.32443026
000100 76 8d 49 be 22 e1 cb be 69 f2 bd be 18 66 af be
       -0.1968287 -0.398202 -0.37099007 -0.3425758
000110 23 38 d3 bc 17 24 18 3e ca e8 dd 3d a7 f3 bb be
       -0.025783604 0.14857517 0.108354166 -0.3670933
000120 b5 7a 20 3e 78 4f ea 3d f3 d8 68 be 00 9d 65 be
       0.15671809 0.11440939 -0.2273901 -0.22423172
000130 60 af 42 3c fb 48 62 be 58 f2 65 3e ec ee 8b 3e
       0.011882633 -0.22098152 0.22455728 0.2733072
000140 05 c5 1c 3e 73 69 cf be 8e 8f 68 3c a6 57 f5 bd
       0.15309532 -0.4051014 0.014194382 -0.11979608
000150 99 e5 5f 3e 1d 05 80 bd 2c 3f bb 3d 6e 2c c0 3e
       0.21864928 -0.06250975 0.091429085 0.37533897
000160 ce 69 f4 3d e0 74 a0 be 22 1e b9 3e 0a 38 82 be
       0.11934243 -0.3133917 0.36155802 -0.2543338
000170 ac 98 a9 3e d1 85 8a 3e 4e dc 77 3e 9a 67 15 3d
       0.33124292 0.2705522 0.24205133 0.036475755
000180 28 d9 f4 3d 12 c8 e0 bd 7f 04 aa be c9 09 a6 be
       0.11955482 -0.109756604 -0.33206555 -0.3242934
000190 6e c8 a3 3e dc 06 89 bd 7f b1 bb be 39 e9 44 3e
       0.31988853 -0.066907614 -0.36658856 0.19229592
0001a0 40 2c 54 be 39 d4 69 be b9 1c 7f bd a9 5d a6 3e
       -0.20720005 -0.22834863 -0.06228325 0.32493332
0001b0 07 d7 c0 3e c1 05 b3 be cf ab 9c be 98 c6 0b 3e
       0.37664053 -0.34965327 -0.3059983 0.13649976
0001c0 41 f1 95 bd a0 2a 1c 3d 4f c6 57 be 22 a7 1d be
       -0.07321406 0.038126588 -0.21071742 -0.15395787
0001d0 d1 04 9d be 64 a3 10 bd 73 31 0d 3d 6b 48 69 3e
       -0.30667737 -0.03531207 0.034470987 0.22781532
0001e0 09 5c b3 3d b6 7e 32 3e 11 02 b7 3d f9 7a 89 be
       0.08757789 0.17431149 0.08935941 -0.26851633
0001f0 8b 04 ac 3e ad 3f 2a bd 3f 84 4c 3c ba 83 fc bd
       0.33597216 -0.041564632 0.012482702 -0.12329812
000200 b6 af e9 3d ac 08 32 3b 4c b3 ae 3d 6f 5d 2c be
       0.11410467 0.0027165813 0.08530292 -0.16832517
000210 9d 1b 71 be 8c e7 9d 3e 89 ee 94 3d 55 60 90 3e
       -0.2354569 0.3084072 0.072720595 0.28198496
000220 a3 16 86 be 23 c9 74 be 6e 4a 49 3e 4f fb 4b bc
       -0.26189145 -0.23904853 0.19657299 -0.012450053
000230 6b 92 4c 3e 3f 48 b1 bd eb 01 b4 be 96 f1 6d be
       0.19977729 -0.08656358 -0.35157713 -0.23236689
000240 ee 5a 74 3e c1 d2 a2 be 50 c1 66 3d ec 3b b6 be
       0.23862812 -0.31801417 0.0563367 -0.35592592
000250 e3 d5 69 3e 6d 57 2a 3e 4a 75 96 3e 34 ac 6b be
       0.22835498 0.16634913 0.2938636 -0.23014909
000260 8b 91 1a be 38 5e 84 be d8 6c ad be 76 f4 d0 bd
       -0.15094583 -0.25853133 -0.33872104 -0.10202877
000270 36 72 80 be 06 af 84 be 3a ec 3c be 31 6c 0a 3e
       -0.25087136 -0.25914782 -0.18449488 0.13517834

mhsa_combine_head_dense/BiasAdd/ReadVariableOp f4 [64]
000000 76 bc 50 bb 59 07 76 3b 86 f5 b4 3b 85 35 da 3b
       -0.0031850613 0.0037541 0.0055224327 0.006659212
000010 bf d7 07 bc 8f aa a1 bb 9e 78 26 3c d4 a0 90 bb
       -0.008291184 -0.0049336622 0.010160593 -0.0044137035
000020 5c 85 89 bb e1 7f 27 3a 71 e9 db bb 10 74 48 3c
       -0.004196806 0.00063896 -0.006711178 0.012234703
000030 22 32 a2 bb 16 28 1c 3a ed 4a 84 bb 2a 89 59 bc
       -0.004949824 0.0005956901 -0.004037252 -0.013277331
000040 8b c4 a9 bb 69 b7 c3 3a 83 aa 1c bb b5 17 52 ba
       -0.0051809005 0.001493198 -0.0023905344 -0.0008014397
000050 4a 4f 90 bc b4 ff b4 bb d0 44 d5 ba db 58 00 3c
       -0.017615933 -0.0055236463 -0.0016271118 0.007833685
000060 d6 02 35 3c b0 00 8b bc db 66 95 3c c1 9a 8b 3b
       0.011048039 -0.016968101 0.018237522 0.0042603915
000070 8a a5 5e 3c 98 e3 36 3c 78 30 92 3b e3 4e b2 b7
       0.013589272 0.011162661 0.0044613443 -2.1255988e-05
000080 4e ad 87 ba 53 c7 b4 3b 10 00 03 3c 64 50 bb 3b
       -0.0010351331 0.0055169254 0.00799562 0.0057163704
000090 4f 93 6f 3a 4b 8f 96 bb 30 54 0b bb a7 29 c2 3b
       0.0009139077 -0.0045947186 -0.0021259896 0.0059253755
0000a0 ee e0 29 bc 06 1f 9f 39 d2 a7 6b bc 6a 6b 1b 3c
       -0.010368569 0.00030349958 -0.014383273 0.009486059
0000b0 26 2a af 3b 45 02 17 bb 5f 76 02 3c 9e 10 41 ba
       0.0053456007 -0.0023042124 0.007962792 -0.0007364842
0000c0 96 15 58 bb 38 ad c7 3b be 95 11 b9 94 f6 b1 3a
       -0.003297185 0.0060936473 -0.00013884061 0.0013577514
0000d0 a8 de 90 3c 82 10 c3 bb 77 c1 86 bc 7c d7 1a 3c
       0.017684296 -0.0059528956 -0.016449673 0.00945079
0000e0 28 eb 36 3b 22 a8 00 bc c3 1c f7 ba 7c 1e ff bb
       0.002791116 -0.007852586 -0.0018853176 -0.0077856164
0000f0 1c 1a 2a bc 15 8e b2 3b f8 f4 ee bb 6b 2f 94 3c
       -0.0103822015 0.0054490664 -0.007292386 0.018089017

mhsa_key_dense/BiasAdd/ReadVariableOp f4 [64]
000000 5a a3 ff b9 d4 0e 28 ba 12 6d 09 bb 10 d4 89 39
       -0.00048759097 -0.0006410901 -0.0020969552 0.00026288675
000010 c9 56 f5 3a c0 e5 dd ba 74 c5 a0 ba 53 9e 05 bb
       0.0018717881 -0.0016929433 -0.0012265877 -0.0020388558
000020 74 a6 1d ba 72 bf 0d ba 53 d8 1f ba 74 8d 17 ba
       -0.0006013878 -0.0005407251 -0.00060976035 -0.0005781271
000030 11 91 19 3a 42 d6 1c ba 14 83 03 ba ad e6 07 3a
       0.00058581034 -0.00059828546 -0.00050167856 0.00051842147
000040 a6 d0 8c 3b 35 7e 10 ba 93 8a a3 bb 04 56 83 3b
       0.004297334 -0.00055119704 -0.0049908846 0.0040080566
000050 13 8a 4d bb 93 1e 7a 3b 40 7a 11 bb 10 96 88 bb
       -0.0031362816 0.0038165196 -0.002219811 -0.0041682795
000060 76 62 9a 3a de 29 9c ba 58 76 ac ba 0a d2 95 ba
       0.0011778611 -0.0011914333 -0.0013157828 -0.0011430394
000070 ac 00 c8 ba f9 5f 63 3a 28 f3 40 3a a6 a6 27 3a
       -0.0015258989 0.0008673664 0.0007360452 0.0006395377
000080 ff e0 a8 ba 5a f5 f6 38 c9 9e e6 3a a5 90 8a ba
       -0.0012884437 0.000117758944 0.0017594929 -0.0010571672
000090 22 c7 db 3a 9c 73 12 3b aa 9d 8f ba 28 39 c4 ba
       0.001676772 0.002234674 -0.0010957022 -0.0014970647
0000a0 57 c1 85 b8 50 cf 41 ba 1a ca 90 39 49 95 4a 39
       -6.3779466e-05 -0.00073932577 0.00027616398 0.00019319834
0000b0 52 3a 8b ba 75 14 cf b9 15 0c b1 39 a9 b4 85 3a
       -0.0010622239 -0.00039497358 0.00033769073 0.0010200936
0000c0 89 3d c7 b9 28 9c ad b9 90 b8 fa b7 19 b3 b0 ba
       -0.00038002085 -0.00033113477 -2.9888266e-05 -0.001348111
0000d0 54 cd 52 b8 56 c9 19 3a d2 fd 30 3a 5e ad c2 b8
       -5.025913e-05 0.0005866488 0.00067516894 -9.282933e-05
0000e0 e1 93 b7 3b d4 bf 0a bc c9 15 b5 3b bf d9 c8 3b
       0.0056023453 -0.008468587 0.0055262786 0.006129473
0000f0 60 77 f8 bb 3f 28 f1 3b 5c 09 b5 bb ae d8 bd 3a
       -0.00758259 0.007359534 -0.0055247974 0.0014484131

mhsa_query_dense/BiasAdd/ReadVariableOp f4 [64]
000000 fd d9 f0 3b 01 8d e0 ba 53 ac 84 3b 85 49 d9 ba
       0.007350205 -0.0017131866 0.004048863 -0.0016577697
000010 d2 60 8e 3b 8d 5e a2 3b 7d c4 43 ba 64 5d 1a 3b
       0.004345038 0.004955119 -0.00074679387 0.00235542
000020 10 6c 8c bc af 33 7e b9 57 ad 60 bb 5a 3f 53 3c
       -0.017141372 -0.00024242581 -0.0034283006 0.012893522
000030 e1 20 34 3c 77 c2 c5 bc 07 fd 12 bc fd e1 64 3c
       0.010994167 -0.02414058 -0.008971459 0.013969895
000040 65 07 be 3c c6 02 58 bc f4 7a 26 bd 6f 76 d3 3c
       0.023196885 -0.013184255 -0.0406446 0.02581331
000050 dc 8a 65 bc dd 4a 65 3c 22 37 07 3c b5 b3 d8 bc
       -0.014010157 0.0139949 0.008252891 -0.026452878
000060 5d b0 4b bb eb e1 51 3c f7 8a 4d 3c 00 34 34 bc
       -0.0031080463 0.012810211 0.012545339 -0.010998726
000070 e3 ef b3 bb e9 ad c2 3b 69 5e 04 bb c7 0a 2c 3c
       -0.005491243 0.005941142 -0.0020197874 0.010500616
000080 0c e3 6e bc 84 22 14 3b a8 70 07 3c 85 e5 3e 3c
       -0.014580499 0.002260358 0.008266605 0.011651401
000090 07 bd 21 3c b0 87 e8 bb 8a f8 72 3c 03 59 58 ba
       0.009871728 -0.0070962533 0.014829764 -0.000825301
0000a0 3d ce 63 3b d8 d5 fa 3b 5e b0 19 bb 29 fe c9 39
       0.0034760379 0.0076548867 -0.002345107 0.00038527072
0000b0 c4 7d 90 3c 08 8b f7 3b f5 38 13 bc f5 d3 53 bc
       0.017638095 0.0075544156 -0.008985748 -0.012928952
0000c0 6d 12 3b ba a2 25 b2 3a 74 b1 2b b8 6e 4f 4b 3a
       -0.00071362295 0.0013591538 -4.0934843e-05 0.00077556714
0000d0 64 0d 71 b9 5b f1 10 3a 5d b6 26 bb 5c 11 3b b9
       -0.0002298854 0.0005529129 -0.0025438287 -0.00017840177
0000e0 a9 fd b9 bb e6 2e 00 3c 3b 73 f3 bb 99 62 fd bb
       -0.0056759906 0.007823681 -0.007429508 -0.007732701
0000f0 6b 30 13 3c f6 30 01 bc ed 71 fc 3b 8a e6 1e 3c
       0.008983712 -0.007885208 0.0077040107 0.0096985195

mhsa_value_dense/BiasAdd/ReadVariableOp f4 [64]
000000 df d8 10 3a 21 f7 04 3c 5e 47 2a ba f0 28 77 bb
       0.00055254804 0.008115561 -0.000649562 -0.003771361
000010 86 48 85 bb fd d6 fc ba 32 42 a8 3b d4 07 12 3b
       -0.0040674834 -0.0019290146 0.005134844 0.0022282498
000020 7d b4 ad ba 04 db 25 bc b1 4d cf bb 8c af 79 3b
       -0.0013252642 -0.010123018 -0.0063264 0.003809902
000030 05 30 24 bc f9 22 6e 3b de 85 f8 bb 04 83 ee 3b
       -0.010021214 0.0036336763 -0.0075843176 0.007278802
000040 fe 90 1a bc 79 26 37 bb 88 07 9a 3a 97 ed 3b 3b
       -0.009433983 -0.0027946515 0.0011751512 0.002867555
000050 94 bb 08 3c 36 3d 62 3c 89 56 cc bb d9 7a de bb
       0.008345503 0.013808539 -0.0062359017 -0.006789547
000060 6a 8a df b8 d3 b8 cd 3a 43 89 03 3c 11 63 84 ba
       -0.0001065925 0.0015695341 0.008028331 -0.0010100325
000070 38 7e b0 bb a4 27 1f 3c ba 98 84 bb 3e 46 a7 ba
       -0.00538614 0.009714041 -0.0040465267 -0.0012762023
000080 b3 cd 44 3b 02 df 5c bc 12 8a a1 3b c3 02 3f 3c
       0.0030029833 -0.013480904 0.0049297893 0.011658373
000090 3f 19 70 b9 e1 3d a3 bb d2 e1 9c bb 54 f0 e0 ba
       -0.00022897588 -0.004981742 -0.004787662 -0.0017161467
0000a0 ec 9d 72 3b a4 cd 25 bb 7c ce 77 bb bf 69 c3 bb
       0.0037020398 -0.0025299573 -0.0037812283 -0.0059635337
0000b0 90 d4 a6 3c c0 be 6f 3b da b6 24 ba 9c 4e a3 39
       0.02036503 0.0036582202 -0.00062833505 0.0003114835
0000c0 0b 70 63 3c bd 68 0e bc be 32 ab bb f0 be fc 3b
       0.013881694 -0.008691964 -0.005224555 0.007713191
0000d0 fb 77 29 3c f7 cf 33 bc 71 1a b4 3b 1c 5e 3a bc
       0.010343547 -0.010974876 0.005496316 -0.0113749765
0000e0 47 4c 89 3a aa 56 59 3b 23 b5 36 3b 77 c2 61 ba
       0.0010475003 0.0033163228 0.0027878962 -0.00086120464
0000f0 e7 9b 19 bc 72 9c 5f 3c 07 d6 a0 3c 8a 2d 5b bc
       -0.009375549 0.013648139 0.019633306 -0.013377557

vision_transformer/patch_projection_dense/BiasAdd/ReadVariableOp f4 [64]
000000 cf 69 0e 3b c6 d7 98 bb 85 68 a7 3a 5b d1 8d bb
       0.0021730547 -0.004664394 0.0012772238 -0.0043279356
000010 e5 e3 16 3b 75 9d 1a 3b 70 66 3c 3b fc 8b 11 3c
       0.002302402 0.0023592387 0.002874758 0.0088834725
000020 76 ae ef bb 15 2d 0e 3a fa 49 f4 3a 34 4b d5 ba
       -0.0073144985 0.0005423588 0.0018637769 -0.0016273023
000030 91 1e 13 3c 05 e0 1e 3c e8 37 e4 3a be 3c 0e bb
       0.008979456 0.009696965 0.0017411681 -0.0021703686
000040 f5 c9 3a bb ce 29 0c 3a a5 72 7c bb 0e f8 9c 3b
       -0.0028501723 0.00053468056 -0.0038520482 0.0047903126
000050 3b 31 25 3c c4 ac fd bb b4 d5 6b 3c a9 19 1e bb
       0.010082538 -0.0077415425 0.0143942125 -0.0024124181
000060 09 cb 96 3b 10 60 cb bb 1d ce e5 bb 1d 0b 66 ba
       0.0046018404 -0.00620652 -0.007013096 -0.000877546
000070 08 f9 63 3b bc 76 de 3b 47 38 3f 3b b2 2e ef bb
       0.0034785885 0.0067890566 0.002917783 -0.0072992677
000080 0d 43 9f 3b a7 8a fd bb f4 c3 fb bb c6 aa 02 3c
       0.004860288 -0.007737476 -0.0076832715 0.007975286
000090 20 9d 38 bb 6b 68 fa 3b d5 af b1 3b bf 40 ce bb
       -0.0028169826 0.007641842 0.005422572 -0.0062943394
0000a0 6e 32 49 3b a9 f4 8f 3b 58 76 07 bc c1 56 6d 3b
       0.0030700224 0.0043931794 -0.008267961 0.003621504
0000b0 fb 65 02 3b 2a b6 c7 3b e1 f4 86 bb 5c b3 ee ba
       0.001989721 0.0060947137 -0.0041185473 -0.0018211412
0000c0 3b 9b 33 bc 9f 1e 13 bc b4 ab 1a bb c6 a5 6b 3c
       -0.010962303 -0.008979469 -0.0023600878 0.014382785
0000d0 54 58 cc 3a 04 f5 50 3a 60 f3 be bb 76 12 24 3b
       0.0015590289 0.00079710805 -0.0058273524 0.0025035418
0000e0 c4 14 63 bb 1c 57 c1 3a a3 93 fa ba 62 62 03 bc
       -0.0034649828 0.0014750692 -0.0019117485 -0.008019062
0000f0 a2 8a 0b 3a d9 d6 c1 bb 3f e4 c8 bb 74 9f 02 bb
       0.0005323087 -0.0059155044 -0.0061307247 -0.0019931467

vision_transformer/mlp_head_softmax/BiasAdd/ReadVariableOp f4 [5]
000000 4a 10 e4 bd 4d 7c a0 bc e3 fa 33 3d 64 59 cc bb
       -0.111359194 -0.019590521 0.043940436 -0.006236242
000010 0a 84 d0 39
       0.00039771228

vision_transformer/mlp_head/mlp_head_dense1/BiasAdd/ReadVariableOp f4 [32]
000000 b6 10 a5 bc a5 a5 25 bc 2d 4e 08 bd 14 8d c8 bc
       -0.02014957 -0.0101102935 -0.03327768 -0.024481334
000010 05 1b 32 bc 05 0a 2b bc 78 34 03 3c 19 6a 12 bc
       -0.0108707 -0.010439401 0.008008115 -0.008936428
000020 ca e1 6a bb 4c d8 23 bc 55 90 e2 bc cf 94 b0 bc
       -0.0035840147 -0.0100003 -0.027656714 -0.021555332
000030 0f 1d 1d bc 56 9e 90 bc 00 3c 99 bc 56 b1 32 bc
       -0.009589448 -0.017653625 -0.018705368 -0.010906538
000040 50 e4 8d bb bb 82 b3 bc 89 6b 74 bc e9 4f 8c bc
       -0.0043301955 -0.021912923 -0.0149182165 -0.017127948
000050 b1 76 42 ba 77 59 0d bc cf 5b a6 bc 51 d6 24 bc
       -0.0007418199 -0.008627287 -0.02030745 -0.010060863
000060 d3 ee 15 bc 91 9f 7a bc 3e 88 02 3c 9d 10 c9 bc
       -0.009151178 -0.015296833 0.007967053 -0.024544055
000070 d8 2e 1c bc 04 42 01 3b 87 5d 0a bc fd b0 00 ba
       -0.009532653 0.0019723186 -0.00844515 -0.0004909186

vision_transformer/mlp_head_layerNorm/batchnorm/ReadVariableOp f4 [64]
000000 0d 38 74 3b 52 1e a9 3c aa f0 47 3c d3 8c 86 3b
       0.0037264854 0.02064434 0.012203375 0.004106143
000010 0b 50 16 bc 7f 9e 27 bc 04 73 0c 3b b8 e9 03 bb
       -0.009174357 -0.0102306595 0.002143086 -0.002012832
000020 0f f1 3c bb f0 df 08 3c c6 1e 69 3c 8a d2 25 3c
       -0.0028830206 0.008354172 0.014228528 0.010120997
000030 80 15 3f 3c c6 22 08 3c 82 e2 9f bb 41 45 9a bc
       0.011662841 0.008309072 -0.0048792968 -0.018831851
000040 a8 74 05 bc 4c 2d 23 3b a5 35 da bb d8 81 a8 3a
       -0.008145489 0.0024898825 -0.006659227 0.0012856079
000050 b6 82 0e bc 64 8d 13 bc 1f 83 be 3b c2 79 97 3c
       -0.008698156 -0.009005878 0.0058139707 0.018490676
000060 9f bd 79 3c 90 08 95 bc a1 11 98 3c 94 99 9c 3b
       0.015242963 -0.01819256 0.018563094 0.00477905
000070 f5 88 20 3b 7d f6 72 bc 18 9a 23 3c 46 9d bb 3c
       0.0024495695 -0.014829275 0.009985469 0.022902142
000080 63 cf e0 ba 02 a2 7d 3b 4a 4f 33 3c 5d 4d 64 3b
       -0.001715165 0.00387013 0.010944197 0.0034836151
000090 88 23 ba bb bb af 5a 3b f4 20 4d bb 86 8b 4c bc
       -0.005680505 0.0033368904 -0.003130016 -0.012484437
0000a0 75 d8 51 bc 4f 24 c1 3b 80 66 e5 bc ac 05 6a 3c
       -0.012807955 0.005894221 -0.028002977 0.014283579
0000b0 dd 6d 97 3c f3 c2 ab bb d4 72 63 3c 29 38 dc 3b
       0.018485004 -0.0052417456 0.013882358 0.006720562
0000c0 ba 33 98 bc 5b f9 8c 3a 02 c7 77 3b f9 a4 81 3c
       -0.018579353 0.0010755466 0.0037807827 0.015825735
0000d0 75 0e 1e 3b 2a f6 24 bb 5c 21 32 bc 31 5e 5a 3c
       0.0024117504 -0.002517114 -0.010872211 0.013328121
0000e0 9a 3f 64 3c d0 ae 21 bc 33 08 58 bc ef 42 3a bc
       0.013931179 -0.009868339 -0.013185549 -0.011368497
0000f0 ee 8c db bb 5a e2 23 ba 46 84 13 bc 7a 30 b7 3c
       -0.0067001497 -0.00062516856 -0.009003704 0.022361983

vision_transformer/mlp_head_layerNorm/batchnorm/mul/ReadVariableOp f4 [64]
000000 80 a6 7c 3f 6e 55 7d 3f 65 98 79 3f cd 43 7d 3f
       0.9869156 0.9895848 0.9749816 0.9893158
000010 f3 31 7f 3f aa 10 7d 3f 56 be 7a 3f fb ae 7c 3f
       0.9968559 0.9885355 0.9794668 0.987045
000020 51 06 7c 3f 7f cd 7c 3f c1 0b 79 3f 77 94 7d 3f
       0.9844714 0.9875106 0.9728356 0.99054664
000030 2e 28 7d 3f 03 60 7d 3f 13 2e 7d 3f f7 fd 7f 3f
       0.98889434 0.9897463 0.9889843 0.99996895
000040 bd 17 7d 3f e9 99 7a 3f 48 4f 7e 3f a0 62 7b 3f
       0.98864347 0.978911 0.99339724 0.98197365
000050 b1 2f 7d 3f b7 d9 7c 3f d2 15 7e 3f 36 ac 80 3f
       0.98900896 0.98769706 0.99252045 1.0052555
000060 a5 32 7b 3f 5a 6f 80 3f 2c 8f 80 3f a2 14 79 3f
       0.9812415 1.0033982 1.0043693 0.9729711
000070 dc 27 7b 3f 44 72 78 3f 05 78 80 3f 11 4a 79 3f
       0.98107696 0.97049356 1.0036627 0.9737864
000080 05 0c 7c 3f 84 9d 79 3f fb 2d 7f 3f 8a 92 7d 3f
       0.9845584 0.97505975 0.99679536 0.99051726
000090 29 2f 7c 3f 37 6e 7d 3f f1 df 7b 3f 6e b2 7c 3f
       0.9850946 0.989963 0.9838858 0.9870976
0000a0 fa 49 7f 3f 70 83 7c 3f 93 dc 7f 3f cc 78 7d 3f
       0.99722254 0.9863806 0.99945945 0.99012446
0000b0 24 c8 80 3f 5c 86 7d 3f f7 a4 7c 3f 6e 8d 7a 3f
       1.0061078 0.9903314 0.98689216 0.97872055
0000c0 45 0c 7f 3f 91 56 7b 3f 07 8c 7b 3f 8c 5f 7a 3f
       0.99628097 0.98178965 0.9826054 0.9780204
0000d0 9a a4 7c 3f 24 ee 79 3f b5 91 7b 3f e8 a2 7f 3f
       0.9868866 0.97629 0.98269206 0.9985795
0000e0 50 ad 7b 3f 9b 4c 7e 3f 3e fb 79 3f f6 02 80 3f
       0.9831133 0.9933564 0.9764899 1.0000904
0000f0 51 26 7c 3f 08 d7 7c 3f 09 db 7d 3f 1b 2b 7e 3f
       0.98495966 0.9876561 0.99162346 0.99284524

vision_transformer/Encoder_1/mlp_dense2_encoder/BiasAdd/ReadVariableOp f4 [64]
000000 6e b4 c4 bb bd 1f ba 3b 12 78 15 3c b5 98 4c ba
       -0.006002954 0.005680053 0.009122865 -0.00078047375
000010 1c e9 01 bc be ae 68 bb 54 07 ff 3b d8 5b 84 bb
       -0.007929113 -0.0035504545 0.007782856 -0.004039269
000020 26 6f 92 ba b5 79 10 3c 99 11 ec 3b c4 72 e5 3b
       -0.0011172041 0.00881808 0.0072042462 0.0070022065
000030 bd c2 70 3b 1c 34 e0 3b a6 5f dc bb cf c1 7c bc
       0.0036737167 0.0068421494 -0.0067252694 -0.015427067
000040 a4 e1 c8 bb 59 dd 89 bb b3 a5 08 bc 62 99 fe ba
       -0.006130414 -0.004207295 -0.008340287 -0.0019424374
000050 bd 02 b4 bc 38 fd e4 bb c8 75 16 3c 7a f5 a5 3c
       -0.021973962 -0.006988194 0.009183355 0.020258654
000060 67 60 06 3c f5 00 9e bc 91 9f 2e 3d 88 4f 69 3c
       0.008201695 -0.019287566 0.042632643 0.014240153
000070 0a ef 0d 3c d7 5c b2 3a 47 bc 5e 3c 74 e6 68 3c
       0.008662948 0.0013607991 0.0135946935 0.014215101
000080 e9 3c 89 bb 3f 9f a5 3b 4d 8a bf 3b 8b a0 35 3b
       -0.0041881693 0.005054384 0.005845344 0.00277141
000090 63 a5 42 bb 72 ca 67 bb 29 c3 3f bc c9 2a f1 bb
       -0.002970063 -0.003536847 -0.011704245 -0.0073598367
0000a0 53 e2 7c bc c4 ae be 3b 4c 2a 8e bc ad 7a 04 3c
       -0.015434819 0.0058191735 -0.017354153 0.008085889
0000b0 61 42 c2 3c f5 54 d3 bb e5 4b fc 3b 2f 99 08 3c
       0.023713293 -0.0064493367 0.007699477 0.008337303
0000c0 8b 4c 8f bc cb d6 d5 3a c1 ef ad 39 b5 7d 19 3c
       -0.017492553 0.0016314624 0.00033175762 0.00936835
0000d0 d7 f7 28 3b 71 4b 02 bc dc 50 ae bc 47 3b 31 3c
       0.002578249 -0.007952557 -0.021278791 0.0108173555
0000e0 c9 f4 19 3c 60 d2 7d bc da b7 c9 3a 24 67 68 bc
       0.00939674 -0.015492052 0.0015389875 -0.014184747
0000f0 65 fd ff bb d3 eb c0 ba 8a 28 5a bc b7 60 9e 3c
       -0.0078121894 -0.0014718719 -0.013315329 0.019333227

vision_transformer/Encoder_1/mlp_dense1_encoder/BiasAdd/ReadVariableOp f4 [32]
000000 ce 24 b2 bb 31 26 2d bb 00 a7 96 3b 14 0d 1c bc
       -0.0054365164 -0.002642047 0.0045975447 -0.009524602
000010 fa d1 c6 3a 54 c3 a4 bc 4b 3e 96 bc 2f a2 0a 3c
       0.0015168779 -0.020112671 -0.01834025 0.008461519
000020 c3 2f e2 bb 00 ea 1b bb 13 3c 1e bc b8 c9 1e 3c
       -0.0069026663 -0.0023790598 -0.0096578775 0.009691648
000030 b1 bb 44 bc 3f ba 5b bb 95 8c 07 3c e1 ba a3 3b
       -0.01200764 -0.003352776 0.008273263 0.004996643
000040 fd aa 34 bb a5 bc e9 3b 65 2f af 3c 96 fd 32 bc
       -0.0027567737 0.007133084 0.021384904 -0.010924717
000050 dc ab 10 ba 73 d7 ab 3b 39 10 62 bb 62 e0 87 bb
       -0.0005518773 0.0052441894 -0.0034494533 -0.0041466216
000060 3a 27 34 3b 7f d0 0c bc b1 d9 17 bc 12 4b fc 3b
       0.0027489201 -0.008594631 -0.00926821 0.0076993788
000070 46 60 23 bc 35 d0 d3 bb 88 75 a3 3a 1c ca 06 bc
       -0.009971684 -0.006464029 0.001247094 -0.008226898

vision_transformer/Encoder_1/layerNorm2_encoder/batchnorm/ReadVariableOp f4 [64]
000000 7c c7 86 3b 80 48 ae bb 18 01 e9 bb 5a 9d 88 3b
       0.004113136 -0.0053187013 -0.007110726 0.0041691484
000010 0d 1d 05 3b b7 09 0d bc 7a cc 1d 3c 32 a8 75 3a
       0.0020311505 -0.008608273 0.009631271 0.00093710714
000020 bc fc 19 bc fa 45 12 bc db 05 a6 bc 77 e7 25 3c
       -0.0093986355 -0.0089278165 -0.020266464 0.010125986
000030 b3 b2 9b bc 2d 1a 33 bc 45 03 a6 3b 8b b2 b8 bb
       -0.019006109 -0.010931534 0.0050663077 -0.0056365184
000040 0c 5b d5 ba 6d e5 08 3c 2d fe 99 3c 8a 9f 65 bb
       -0.0016277744 0.008355481 0.018797958 -0.003503772
000050 ba 69 e2 bb 8d 86 f6 3a a8 77 b0 bc a1 46 60 bc
       -0.0069095762 0.001880841 -0.021541432 -0.013688714
000060 5f 9b 00 3c 5f 0a 7f 3b 4f 33 d1 bc 0f 60 c2 bc
       0.007849543 0.0038916094 -0.025537161 -0.023727445
000070 b2 b6 6b 3c 7f 74 99 3c d0 b1 00 bc 94 57 77 bc
       0.01438682 0.018732307 -0.007854894 -0.015096564
000080 da b3 38 3a f8 06 3c 3b b6 36 e8 3b c7 67 9f 3b
       0.0007045843 0.0028690677 0.0070866 0.004864666
000090 62 b6 bb 3b 70 3e fd bb 22 ad 8b 3c 3c ef 75 3c
       0.005728529 -0.0077283904 0.01705033 0.015010651
0000a0 ac 9e bf 3b 2d 82 2a bc 1e 15 0f 3c b1 78 92 bb
       0.0058477726 -0.010407013 0.008733062 -0.004469954
0000b0 3c 14 ac bc 09 08 31 3b 60 58 f5 3b e9 67 32 bc
       -0.021005742 0.0027012846 0.0074873418 -0.010889032
0000c0 2f e9 9e 3c fd 71 0f 3c 8b c2 0a bc 17 93 55 bc
       0.0193983 0.008755204 -0.008469234 -0.013035557
0000d0 0a ae be 3c 70 59 dc 39 6e 41 37 3b e0 4b 00 bc
       0.023276348 0.00042028306 0.0027962583 -0.00783059
0000e0 a0 e0 4d bc 64 c1 29 3c 8c 60 29 bb 93 50 b5 3b
       -0.012565762 0.010361049 -0.00258449 0.005533287
0000f0 b8 6b 27 bc 95 69 f3 3b 68 0c 8b 3b b3 36 14 3b
       -0.010218553 0.007428358 0.0042434223 0.002261561

vision_transformer/Encoder_1/layerNorm2_encoder/batchnorm/mul/ReadVariableOp f4 [64]
000000 bb 40 80 3f eb 8d 7e 3f 6b b6 7f 3f e6 78 7f 3f
       1.0019754 0.994353 0.9988772 0.9979385
000010 a1 55 7d 3f 26 56 7e 3f 77 49 7f 3f 13 32 7e 3f
       0.98958784 0.993502 0.99721473 0.9929516
000020 9b 0a 7c 3f 18 8b 7c 3f 0e b9 81 3f 15 78 81 3f
       0.9845368 0.9864974 1.0134599 1.0114771
000030 52 43 82 3f 94 f6 7c 3f 44 f9 7e 3f 92 28 7e 3f
       1.0176795 0.9881375 0.995991 0.99280655
000040 0f 30 7e 3f 58 ae 80 3f 72 81 80 3f 66 4d 80 3f
       0.9929208 1.0053205 1.0039504 1.002362
000050 18 41 7f 3f 89 17 80 3f 48 f1 7a 3f 8b da 7b 3f
       0.997087 1.0007182 0.98024416 0.98380345
000060 e4 86 7d 3f 4f 8c 7f 3f 2d 0c 79 3f fd 85 82 3f
       0.9903395 0.9982347 0.97284204 1.019714
000070 be fd 80 3f b9 c3 81 3f c7 9d 7c 3f bf 18 81 3f
       1.0077436 1.0137855 0.9867825 1.0085677
000080 4c a1 7f 3f 52 4e 7f 3f 73 9a 80 3f db 1e 7e 3f
       0.99855494 0.9972888 1.0047134 0.9926583
000090 e6 63 7d 3f 13 54 7f 3f c0 0b 7c 3f e9 b1 81 3f
       0.9898056 0.9973766 0.9845543 1.0132419
0000a0 43 45 80 3f db c0 80 3f 19 2c 7f 3f d5 4a 80 3f
       1.0021137 1.0058855 0.9967666 1.0022837
0000b0 ba 03 7f 3f 6c 23 7f 3f 97 eb 7f 3f 43 b2 7f 3f
       0.9961506 0.99663424 0.99968857 0.9988138
0000c0 38 40 82 3f da 8f 7f 3f 93 bb 7f 3f 8a 6d 81 3f
       1.0175848 0.99828875 0.9989559 1.0111554
0000d0 ae 7b 82 3f 8d 56 7e 3f 9a 18 7d 3f 18 1a 7f 3f
       1.0193994 0.99350816 0.98865664 0.9964919
0000e0 ca f6 80 3f 66 05 80 3f bb 93 7e 3f f1 af 7d 3f
       1.0075314 1.0001647 0.9944417 0.9909659
0000f0 33 82 80 3f 60 f7 7d 3f 8f 32 7e 3f b8 01 80 3f
       1.0039734 0.9920559 0.99295896 1.0000525

vision_transformer/Encoder_1/layerNorm1_encoder/batchnorm/ReadVariableOp f4 [64]
000000 b1 a0 14 ba 29 b0 08 bc 7e c9 7a b9 e9 41 e7 bb
       -0.0005669697 -0.008342781 -0.0002391692 -0.0070574176
000010 1e e3 82 ba 03 ec 91 3b 48 83 1b 3b b1 1c 42 3c
       -0.0009985899 0.0044531836 0.0023729373 0.011847661
000020 8e 83 3c bc 8f 9d 96 39 43 b9 56 3b 92 6d 94 ba
       -0.011505974 0.0002872762 0.0032764233 -0.0011324158
000030 81 3e ee 3b 9d ec 25 3c e1 30 f2 38 c5 c2 77 3b
       0.0072706346 0.010127214 0.000115485636 0.00378053
000040 4b 96 3e bb 83 5c e7 ba 9e 01 8c bb 6d bf b5 3b
       -0.002908128 -0.0017651472 -0.0042726537 0.0055465014
000050 94 02 d2 3b b6 8b e0 bb 80 93 99 3c bf 8b 16 bc
       0.0064089987 -0.0068525923 0.018747091 -0.0091885915
000060 2a 14 92 3b 9c 9c 2b bc a0 22 e4 bb 09 de 9e bb
       0.00445797 -0.01047435 -0.0069621354 -0.004848246
000070 31 77 1e 3b a0 f7 2f 3b d0 58 81 3a f9 37 1f bc
       0.002417993 0.0026850477 0.0009868387 -0.009717935
000080 eb e9 32 3b 95 8a 33 bc f4 5f 22 bc 71 6c d7 3b
       0.002730007 -0.0109583335 -0.009910572 0.0065742065
000090 ba b4 81 bb c1 a5 b5 3b bd 5e 8d 3b 16 ac b9 bb
       -0.003958312 0.005543441 0.004314272 -0.005666266
0000a0 0e 9d 1c ba d9 ad e2 3b 52 26 24 bc 55 2f 02 3b
       -0.00059743307 0.006917697 -0.010018902 0.0019864638
0000b0 08 28 57 bb 61 85 47 3b 31 b5 81 bb a4 f5 94 ba
       -0.0032830257 0.003044449 -0.0039583673 -0.001136471
0000c0 11 ac 55 bc 18 b0 12 bc 79 90 a9 bb 79 79 69 3c
       -0.013041512 -0.008953117 -0.005174693 0.014250153
0000d0 ce f1 73 ba 93 87 fd 39 a9 41 16 bc 64 93 89 3b
       -0.0009305746 0.0004835693 -0.009170928 0.0041984785
0000e0 a3 9f 6b bb 6b bc 1c 3b 0e 59 c2 ba 36 f5 2f bc
       -0.0035953305 0.0023916017 -0.0014827566 -0.010739615
0000f0 cf 22 68 bb 3b 49 11 bc 8d b8 d4 bb 66 03 7a bb
       -0.0035421138 -0.008867557 -0.0064917267 -0.0038148998

vision_transformer/Encoder_1/layerNorm1_encoder/batchnorm/mul/ReadVariableOp f4 [64]
000000 da ee 7f 3f 96 05 80 3f 2e 85 80 3f b2 ea 80 3f
       0.99973834 1.0001705 1.0040643 1.0071623
000010 4c 85 80 3f a8 3a 81 3f cb 42 80 3f 5a a2 81 3f
       1.0040679 1.0096025 1.0020384 1.0127671
000020 ed 5f 81 3f a1 0d 80 3f e2 71 80 3f 3f 70 7f 3f
       1.0107399 1.0004159 1.0034754 0.9978065
000030 71 71 7e 3f 2e 23 81 3f a7 59 80 3f 26 21 80 3f
       0.9939185 1.0088861 1.002736 1.0010116
000040 4c 7d 80 3f ea fc 7f 3f ce f9 7e 3f 6a 8c 80 3f
       1.0038238 0.9999529 0.9959992 1.0042851
000050 3b 63 81 3f 34 1d 81 3f ae 8a 82 3f 7e 13 81 3f
       1.0108408 1.0087037 1.0198572 1.0084074
000060 d6 be 80 3f 68 4c 81 3f 36 74 81 3f 82 e6 80 3f
       1.0058239 1.0101442 1.011359 1.0070345
000070 88 72 80 3f 85 97 7e 3f b6 9c 80 3f 9a b4 7f 3f
       1.0034952 0.9944995 1.0047824 0.9988495
000080 6e cc 7f 3f 0a 1c 81 3f 4c 42 81 3f ee aa 7e 3f
       0.9992131 1.0086682 1.0098357 0.9947957
000090 9d de 7f 3f d6 b2 7f 3f 69 cf 7e 3f 93 79 7f 3f
       0.99949056 0.99882257 0.9953523 0.9979488
0000a0 23 13 80 3f ac 87 7f 3f ce 35 81 3f 1f 52 80 3f
       1.000584 0.99816394 1.0094545 1.0025061
0000b0 92 13 80 3f fe e2 80 3f a5 7d 7e 3f 30 a8 7f 3f
       1.0005972 1.0069273 0.9941047 0.9986601
0000c0 e6 03 82 3f 1b e8 7e 3f d1 c5 7f 3f 41 7d 7c 3f
       1.015744 0.99572915 0.9991122 0.9862862
0000d0 aa 9a 7f 3f db 35 80 3f a7 09 7d 3f c6 6b 7c 3f
       0.99845374 1.0016435 0.98842853 0.9860195
0000e0 75 81 80 3f b1 42 80 3f 51 88 7f 3f f5 b9 81 3f
       1.0039507 1.0020353 0.9981738 1.0134875
0000f0 69 70 80 3f 56 0a 7c 3f 34 db 7e 3f 1b 48 80 3f
       1.0034305 0.9845327 0.9955323 1.0022005

vision_transformer/BroadcastTo/ReadVariableOp f4 [1, 1, 64]
000000 4a c5 02 3e 8d 0e 5a 3e ab eb 72 3e 1f c7 68 be
       0.12770572 0.21294613 0.23722713 -0.22732209
000010 95 96 8b be 2c c9 ae bc 63 fe 0f be 9f 8e 39 3e
       -0.27263322 -0.02133616 -0.14061885 0.18120812
000020 ff 42 65 3e 8c 21 d1 3c f8 6d 26 3e ea 47 81 3c
       0.22388838 0.025528692 0.16252887 0.015781362
000030 84 bd ef bd 37 3f 5e be bb 5c 8e be a3 65 d3 3d
       -0.11706069 -0.21703802 -0.27805123 0.1032212
000040 00 9d 17 3e 3f b6 19 bd bf 85 97 be 1f e5 b5 bd
       0.14805984 -0.03752732 -0.29594228 -0.08881592
000050 c5 de c0 3d fd 93 16 be 56 e1 13 3e 60 70 2a bd
       0.0941749 -0.1470489 0.14441428 -0.041611075
000060 a5 98 51 be 35 c9 dd bd 2e f8 92 3e 04 73 65 be
       -0.20468386 -0.10829393 0.2870497 -0.22407156
000070 f5 6b 95 bd 96 0a ee 3c 8d 61 05 bc c0 66 3d 3e
       -0.07295982 0.029057782 -0.008140934 0.18496227
000080 0a 54 a7 3d 45 58 c6 3b 97 cb 0c 3d 51 90 eb 3d
       0.08170326 0.006053003 0.034373846 0.115021355
000090 69 13 a1 bd 10 bd 8c 3e 71 ac ed bd 27 5b d1 3d
       -0.0786503 0.27487993 -0.11605156 0.10222464
0000a0 07 4f 46 3e 30 16 5b be fb 24 eb 3d b4 97 a0 3d
       0.19366084 -0.21395183 0.11481663 0.07841435
0000b0 05 44 ed 3b 2e 8c 0f be 1c ed 1d bd 85 af 18 3e
       0.0072407746 -0.14018318 -0.038556203 0.14910705
0000c0 22 0c 92 3e ea 36 78 be b5 62 c9 3c 63 83 22 be
       0.28524882 -0.24239698 0.0245832 -0.15870433
0000d0 54 55 8f 3d f0 69 36 be d5 88 4b 3e 9c 69 a8 3c
       0.06998697 -0.1781385 0.19876416 0.020558171
0000e0 1c 7f 97 3d 57 cf 8c 3e bb bc 25 3e 6b 4a 68 be
       0.07397291 0.27501938 0.16185276 -0.22684638
0000f0 b7 c3 63 3e 71 07 32 3e d3 a1 98 be a3 a6 e0 bd
       0.22242628 0.17385651 -0.29810962 -0.109692834

vision_transformer/add/ReadVariableOp f4 [1, 61, 64]
000000 4e 2f 93 3d ef cb 22 be 95 5a 5b 3c ce 0c b2 3d
       0.07186757 -0.15898107 0.013388296 0.086938486
000010 79 a6 fb 3b b7 b1 36 3e 08 2f 49 be e9 da 9f 3d
       0.007679757 0.1784123 -0.19646847 0.07805426
000020 75 2b 9f 3c 18 96 19 3e 6e 37 a0 bc 83 c6 1c 3e
       0.019429902 0.14998662 -0.019557681 0.15310101
000030 b2 5b a8 bd 66 2c 34 3e c0 d8 48 3d 03 12 d8 bc
       -0.082206145 0.17595062 0.049034834 -0.026375776
000040 2a 01 a9 bd 55 e8 de 3d dc 2a 23 3e 73 c9 01 be
       -0.08252175 0.108841576 0.15934318 -0.12674503
000050 75 66 0d be 59 fc ce 3d 14 d0 fc 3d 2c f8 3c bd
       -0.13808616 0.10106725 0.12344375 -0.046135113
000060 c2 3c b4 bd 55 2f ec bd b0 bf 14 3e d9 c1 1e bd
       -0.08800651 -0.11532465 0.14526248 -0.038759086
000070 35 67 aa 3d 5d 4c 41 bd 9d 7b 27 bd 76 e2 49 be
       0.083204664 -0.047191966 -0.04088937 -0.19715294
000080 4c 53 12 be 0c 40 45 3e fb 0e 0d bd c1 30 89 bd
       -0.14289588 0.19262713 -0.034438115 -0.06698752
000090 b4 2a 2c be d3 4f 0a 3e b4 37 34 bd 4f cb 37 3e
       -0.16813165 0.13507013 -0.043998435 0.1794865
0000a0 bf 26 46 be 4d 2c da 3d a0 b1 de 3b b8 0c bc bd
       -0.19350718 0.10652981 0.006796077 -0.091821134
0000b0 e0 d9 03 3c 10 29 ac bd 85 a4 f2 bd ca 1d 88 3d
       0.008047551 -0.084062696 -0.11847786 0.06646307
0000c0 c9 fc 1b 3e ec 1b 45 bd 3d 94 6f 3d 80 3e d7 3c
       0.15233149 -0.04812233 0.05849098 0.02627492
0000d0 f0 5e 58 3e da 6e 92 3d 7b 68 ad bd 00 8e cd bd
       0.21129966 0.071500495 -0.08467194 -0.1003685
0000e0 0e 46 29 be 65 6f 23 3e 56 85 e2 3d 84 12 60 bd
       -0.1653063 0.15960462 0.11060588 -0.054705158
0000f0 72 cf 67 be ed 32 9a bd 4f 58 b6 bd 0b 2a 67 3e
       -0.22637728 -0.075292446 -0.08903562 0.22574632
000100 f9 74 48 3c 09 b1 13 be be 87 46 be e4 5a 2b bc
       0.01223492 -0.14423002 -0.19387719 -0.010458682
000110 6d c2 01 3e 1b 66 75 3b 3e 11 c8 bd 81 75 29 be
       0.12671824 0.0037444893 -0.09768914 -0.1654873
000120 c7 5d 0b 3d 7b 17 a4 bd 99 1a 44 be 2d dd c9 3d
       0.03402498 -0.08012291 -0.19150771 0.09856639
000130 42 f0 05 3e 11 9a d8 bd 9c cb ca bd d0 d2 27 3e
       0.13079932 -0.10576261 -0.09902117 0.16389012
000140 99 40 fe bb 9d 19 07 bd 01 c4 43 3e 34 80 5d 3d
       -0.0077591655 -0.03298341 0.19117738 0.054077342
000150 1e a8 37 3e e8 d3 a5 bc 3b 59 64 bd a5 1e 81 bd
       0.17935225 -0.020242646 -0.05574916 -0.06304673
000160 5b 5c cc bd be 6b f7 3d 90 40 47 be 2c e1 5b 3c
       -0.09978553 0.12081097 -0.19458222 0.013420384
000170 4f 08 0b be c4 e1 68 bd 53 b7 d7 3d a1 ef 0e 3e
       -0.13577388 -0.056855932 0.10533013 0.13958599
000180 ac 88 ee bc ef 13 c0 3d c9 0c 0b 3e f9 2e dc 3d
       -0.029117905 0.09378802 0.13579096 0.10751147
000190 e5 ea 1a bd e7 98 88 3d 60 f7 06 bd 8a 33 3a be
       -0.03782167 0.06669789 -0.03295076 -0.18183723
0001a0 a8 5d 56 be 53 f8 98 3a 40 83 bb 3d 68 8b 4e 3d
       -0.20934165 0.0011670686 0.09155893 0.050425917
0001b0 82 48 42 be 95 e9 0d 3e dc 1c 1e be ae 25 8b 3d
       -0.18972972 0.13858636 -0.15440696 0.06794296
0001c0 00 f7 74 3d 98 ed 93 bc d8 69 33 be 38 dc 5e 3e
       0.05980587 -0.01805763 -0.17520845 0.21763694
0001d0 cc 9e ed 3d ee 41 0b bc a1 5a 20 be c9 a2 bf bd
       0.11602554 -0.008499606 -0.15659572 -0.09357221
0001e0 42 de 13 bd 63 da fc bd 79 ef 59 be 37 24 53 bd
       -0.036100633 -0.123463415 -0.21282758 -0.05154821
0001f0 bc 73 43 3e 70 b9 04 be 43 2a 1c 3e 09 0b 00 3e
       0.19087118 -0.12961364 0.15250497 0.1250421
000200 0b aa 29 3e 40 d0 01 bd bf 62 8b 3d c9 31 1d 3e
       0.16568772 -0.031692743 0.06805944 0.15351023
000210 e9 cf d4 3d 71 23 1e bd 00 7a 36 be d0 fc 54 3e
       0.10391218 -0.03860802 -0.17819977 0.20799565
000220 7a 49 6c bd ab f4 93 bd d8 fa 47 3e 92 81 ed 3a
       -0.05768726 -0.07224401 0.19529283 0.001812028
000230 4c 80 f6 bd 12 02 16 3e 01 db 60 3d bc ee c4 3c
       -0.120361894 0.14649227 0.05489636 0.024039619
000240 00 2b 1b 3d bd 80 03 bc c8 0c 21 3e ac aa a1 bc
       0.037882805 -0.008026299 0.15727532 -0.019734703
000250 83 68 fe 3d 1f 0c 51 3c b5 cb 57 bd 94 94 9e 3c
       0.12422278 0.012759238 -0.052684505 0.019357957
000260 e0 78 b5 3d 16 af 2c be de ea e9 bc 4c a1 08 be
       0.08860946 -0.16863665 -0.028554376 -0.1334278
000270 e4 d7 c7 bc f2 5a 3a 3d 80 c0 5d 3e 97 68 1b 3e
       -0.024394937 0.04549689 0.21655464 0.15176617
000280 06 9f 05 3e 9e 4a 17 3e fe 4e 1e be e4 29 1d 3e
       0.13048944 0.14774558 -0.1545982 0.15348011
000290 ac dd 4d 3e bb cc 2a be 8a 21 9c bd c9 0c 8b 3d
       0.20104092 -0.16679661 -0.076235846 0.06789548
0002a0 2a 24 c9 bc b9 15 aa bd 3e f8 86 3d 1e 4c ba 3d
       -0.024553377 -0.083049245 0.06590317 0.090965495
0002b0 e7 b5 06 3d 55 e2 60 3e 5c b5 4d bd 28 03 47 be
       0.03288832 0.21961339 -0.050221786 -0.19434798
0002c0 ec 39 5c be 02 98 13 bd c9 65 59 3e 19 3b eb bd
       -0.2150647 -0.036033638 0.21230234 -0.11485881
0002d0 c4 5e d2 bd 03 1e 05 be 87 fb ee bd 77 15 32 bd
       -0.10271981 -0.1299973 -0.11669069 -0.0434775
0002e0 94 c0 10 bd 18 84 2c be cd a6 ef bd 8e ed 41 be
       -0.035339907 -0.16847265 -0.117017366 -0.18938276
0002f0 67 90 36 be e3 7d 20 3e d9 24 9f 3d 6c 08 18 be
       -0.17828523 0.15673022 0.077707 -0.14846963
000300 bc bd 22 3d 5e b8 a9 3c 16 96 ad ba a1 6b 9c 3d
       0.039731726 0.020717796 -0.0013243582 0.07637716
000310 d4 0f fc 3d 23 12 58 3e 9f bc 5d 3e 2a 8c f3 3c
       0.123077065 0.21100669 0.21653984 0.029729921
000320 c9 00 12 be 15 6e 13 3e 79 7d 12 bd ab fe 4c be
       -0.14258112 0.14397462 -0.03576419 -0.20019023
000330 a5 f8 1b be 75 39 82 3c 81 6e 6e 3d 70 81 50 3e
       -0.15231569 0.015896538 0.058210853 0.20361876
000340 43 ce 91 3b 9d c7 6c 3d b3 dd da 3d 4c d7 2c be
       0.004449637 0.057807554 0.10686817 -0.16879004
000350 94 0a 3f bd 20 56 5b be 08 8b 3b 3e 27 5c 2d 3e
       -0.046640947 -0.21419573 0.18314755 0.16929685
000360 ba 9d 11 be a7 68 5d 3d 5f 20 a0 bd 48 43 50 be
       -0.14220324 0.054054882 -0.07818674 -0.20338166
000370 04 46 7e 3d 04 f8 0d bd 83 72 4a be 5b 00 3d 3e
       0.06207849 -0.034660354 -0.19770245 0.18457167
000380 2c af 22 be 01 15 cf 3d 35 10 fe 3d 9f c3 00 be
       -0.15887135 0.10111428 0.12405435 -0.12574624
000390 71 8d 5c 3e b2 1d 3b be 99 99 f0 bd 36 01 c7 bd
       0.2153833 -0.18273047 -0.117480464 -0.09717028
0003a0 f8 d6 f4 3d e1 e2 ff 3d 96 73 91 3d ff d7 38 bc
       0.119550645 0.124944456 0.071021244 -0.011281966
0003b0 69 51 a1 3d c2 3e 46 3e 3d cd 40 be d4 1e 0a bd
       0.07876856 0.19359878 -0.18828292 -0.033720806
0003c0 a3 de fb bd ae 57 e1 bd 02 03 cb 3d fd e4 37 bc
       -0.12298324 -0.11003052 0.09912683 -0.011224029
0003d0 7e ab 2c 3e c8 db 5b 3e bf cd 42 be 85 3f 1d 3e
       0.16862294 0.21470559 -0.19023798 0.15356262
0003e0 bc 00 c3 bd 59 ca c3 bc 04 72 3f be 2b 0f 11 be
       -0.095216244 -0.023900198 -0.18695837 -0.14165942
0003f0 bd f5 c1 3d 76 ef bf 3d 44 7d 5c 3d d7 45 3d 3d
       0.09470699 0.093718454 0.0538304 0.046209183

vision_transformer/patch_projection_dense/Tensordot/MatMul1 i1 [64, 64] scale=0.0017754718 zero_point=0
000000 1e 9b ec 4a f4 e9 96 57 0d ec b8 26 16 22 95 55
       0.053264156 -0.17932266 -0.035509437 0.13138491 -0.021305662 -0.040835854 -0.18820001 0.15446605 0.023081133 -0.035509437 -0.12783398 0.06746793 0.03906038 0.060366042 -0.18997549 0.1509151
000010 e7 47 34 02 34 bd a2 d0 40 0a 93 f9 39 57 a1 ac
       -0.044386797 0.1260585 0.09232453 0.0035509437 0.09232453 -0.11895661 -0.16689435 -0.08522265 0.1136302 0.017754719 -0.19352643 -0.012428303 0.10120189 0.15446605 -0.16866982 -0.14913963
000020 5d e8 9d 79 f9 ed b7 c5 0f 14 0b 10 f5 e5 b6 f8
       0.16511889 -0.042611323 -0.17577171 0.2148321 -0.012428303 -0.033733964 -0.12960945 -0.10475284 0.026632078 0.035509437 0.01953019 0.02840755 -0.01953019 -0.04793774 -0.13138491 -0.014203775
000030 8d 08 ae 61 33 51 37 2d c1 aa 89 e0 52 f3 e1 e8
       -0.20417926 0.014203775 -0.1455887 0.17222077 0.09054907 0.14381322 0.09765095 0.079896234 -0.111854725 -0.15269057 -0.21128115 -0.0568151 0.1455887 -0.023081133 -0.055039626 -0.042611323
000040 ae bd 23 5e 88 2e d8 9e dd bd d4 13 a7 c0 6f 9d
       -0.1455887 -0.11895661 0.062141515 0.16689435 -0.21305662 0.08167171 -0.071018875 -0.17399624 -0.062141515 -0.11895661 -0.07812076 0.033733964 -0.158017 -0.1136302 0.19707738 -0.17577171
000050 9a 05 25 1b 19 fe 56 89 52 66 4b a0 c4 45 da 0d
       -0.18109813 0.008877359 0.065692455 0.04793774 0.044386797 -0.0035509437 0.15269057 -0.21128115 0.1455887 0.18109813 0.13316038 -0.1704453 -0.10652831 0.12250756 -0.06746793 0.023081133
000060 2e 1a d7 31 5a a7 cf a9 53 48 71 92 c9 3b 02 9f
       0.08167171 0.046162266 -0.07279435 0.08699812 0.15979247 -0.158017 -0.08699812 -0.15446605 0.14736417 0.12783398 0.20062833 -0.1953019 -0.09765095 0.10475284 0.0035509437 -0.17222077
000070 3e 1a 62 3b c7 a9 f1 58 74 b6 90 27 e8 2e 14 16
       0.11007925 0.046162266 0.17399624 0.10475284 -0.10120189 -0.15446605 -0.026632078 0.15624152 0.20595473 -0.13138491 -0.19885285 0.0692434 -0.042611323 0.08167171 0.035509437 0.03906038
000080 13 a9 1a cb 50 9c da 1e 31 d3 ca b4 9e b4 e8 74
       0.033733964 -0.15446605 0.046162266 -0.094100006 0.14203775 -0.17754719 -0.06746793 0.053264156 0.08699812 -0.079896234 -0.09587548 -0.13493586 -0.17399624 -0.13493586 -0.042611323 0.20595473
000090 6b e6 0a 90 bb 0d cb 55 ef f3 6a 98 f4 96 94 ad
       0.18997549 -0.046162266 0.017754719 -0.19885285 -0.12250756 0.023081133 -0.094100006 0.1509151 -0.030183021 -0.023081133 0.18820001 -0.18464907 -0.021305662 -0.18820001 -0.19175096 -0.14736417
0000a0 ee ff 38 d0 dd d6 76 a2 8b f5 6d d4 62 51 fd 29
       -0.031958494 -0.0017754718 0.099426426 -0.08522265 -0.062141515 -0.074569814 0.20950568 -0.16689435 -0.2077302 -0.01953019 0.19352643 -0.07812076 0.17399624 0.14381322 -0.0053264154 0.07279435
0000b0 14 1e 95 2e 0e f5 20 dc 8b 9b a8 67 89 27 98 8c
       0.035509437 0.053264156 -0.18997549 0.08167171 0.024856606 -0.01953019 0.0568151 -0.06391699 -0.2077302 -0.17932266 -0.15624152 0.1828736 -0.21128115 0.0692434 -0.18464907 -0.20595473
0000c0 9c cd 51 48 37 c2 20 ac 87 2d a8 c2 ae bf 2d 0a
       -0.17754719 -0.09054907 0.14381322 0.12783398 0.09765095 -0.11007925 0.0568151 -0.14913963 -0.2148321 0.079896234 -0.15624152 -0.11007925 -0.1455887 -0.11540567 0.079896234 0.017754719
0000d0 15 93 6d a9 f5 c7 29 c5 fb 0f a4 da 4c 70 cb bc
       0.037284907 -0.19352643 0.19352643 -0.15446605 -0.01953019 -0.10120189 0.07279435 -0.10475284 -0.008877359 0.026632078 -0.16334341 -0.06746793 0.13493586 0.19885285 -0.094100006 -0.120732084
0000e0 13 1c 32 10 91 6a 87 e7 ea ff 4a f2 46 12 8b a7
       0.033733964 0.049713213 0.08877359 0.02840755 -0.19707738 0.18820001 -0.2148321 -0.044386797 -0.03906038 -0.0017754718 0.13138491 -0.024856606 0.12428303 0.031958494 -0.2077302 -0.158017
0000f0 1a f7 50 c4 d9 28 02 d7 fd 19 45 3b 58 67 71 3f
       0.046162266 -0.015979247 0.14203775 -0.10652831 -0.0692434 0.071018875 0.0035509437 -0.07279435 -0.0053264154 0.044386797 0.12250756 0.10475284 0.15624152 0.1828736 0.20062833 0.111854725

mhsa_key_dense/Tensordot/MatMul i1 [64, 64] scale=0.001958644 zero_point=0
000000 d9 66 3b c6 20 ad c0 ba 56 56 2a 4f 3b 1d 6c 50
       -0.076387115 0.19978169 0.115559995 -0.11360136 0.06267661 -0.16256745 -0.12535322 -0.13710508 0.16844338 0.16844338 0.08226305 0.15473288 0.115559995 0.05680068 0.21153355 0.15669152
000010 5d 48 c7 19 a2 fa f6 ca 09 c8 69 41 dc 50 cb 58
       0.1821539 0.14102237 -0.11164271 0.048966102 -0.18411253 -0.011751864 -0.01958644 -0.10576677 0.017627796 -0.109684065 0.20565762 0.12731186 -0.070511185 0.15669152 -0.103808135 0.17236067
000020 da 96 f8 29 a5 b1 0d b7 2a ec 59 9b 4f cb 08 2e
       -0.07442847 -0.20761627 -0.015669152 0.08030441 -0.1782366 -0.15473288 0.025462372 -0.14298101 0.08226305 -0.03917288 0.17431931 -0.19782305 0.15473288 -0.103808135 0.015669152 0.09009762
000030 c0 e0 9a 46 6a f5 95 c4 31 eb 5e ad a6 9c 5c 2d
       -0.12535322 -0.06267661 -0.19978169 0.13710508 0.20761627 -0.021545084 -0.20957491 -0.11751864 0.09597356 -0.041131526 0.18411253 -0.16256745 -0.17627797 -0.19586441 0.18019524 0.08813898
000040 30 10 98 1a 51 2e db 54 24 ae 3b cc 34 c8 eb 20
       0.09401491 0.031338304 -0.20369898 0.050924744 0.15865016 0.09009762 -0.07246983 0.1645261 0.070511185 -0.16060881 0.115559995 -0.10184949 0.10184949 -0.109684065 -0.041131526 0.06267661
000050 52 bf b1 44 59 d4 62 b1 92 05 4a 5b cd 1d 52 9d
       0.16060881 -0.12731186 -0.15473288 0.1331878 0.17431931 -0.08618034 0.19194712 -0.15473288 -0.21545084 0.00979322 0.14493966 0.1782366 -0.09989084 0.05680068 0.16060881 -0.19390576
000060 b4 32 5f a4 bc f2 10 58 09 d6 0b 21 19 0e 37 b5
       -0.14885694 0.097932205 0.18607119 -0.18019524 -0.1331878 -0.027421016 0.031338304 0.17236067 0.017627796 -0.08226305 0.021545084 0.064635254 0.048966102 0.027421016 0.10772542 -0.1468983
000070 0a 9d fb 11 4e 94 55 f7 38 46 10 da 33 34 b6 9f
       0.01958644 -0.19390576 -0.00979322 0.03329695 0.15277423 -0.21153355 0.16648474 -0.017627796 0.109684065 0.13710508 0.031338304 -0.07442847 0.09989084 0.10184949 -0.14493966 -0.18998846
000080 07 39 41 2d 64 3e 60 00 9b a1 9b c0 0b ce 6a d5
       0.013710508 0.11164271 0.12731186 0.08813898 0.19586441 0.121435925 0.18802983 0.0 -0.19782305 -0.18607119 -0.19782305 -0.12535322 0.021545084 -0.097932205 0.20761627 -0.08422169
000090 da 34 f1 44 e5 45 f1 11 24 af b5 04 f0 c6 bd e3
       -0.07442847 0.10184949 -0.02937966 0.1331878 -0.052883387 0.13514644 -0.02937966 0.03329695 0.070511185 -0.15865016 -0.1468983 0.007834576 -0.031338304 -0.11360136 -0.13122915 -0.05680068
0000a0 b3 60 ca 4c 69 c6 54 ff 48 b7 60 ff 44 bc cf 0b
       -0.15081559 0.18802983 -0.10576677 0.14885694 0.20565762 -0.11360136 0.1645261 -0.001958644 0.14102237 -0.14298101 0.18802983 -0.001958644 0.1331878 -0.1331878 -0.09597356 0.021545084
0000b0 ee c8 3e 1c 3e eb a1 35 fe 92 b1 d4 44 94 51 37
       -0.035255592 -0.109684065 0.121435925 0.054842032 0.121435925 -0.041131526 -0.18607119 0.103808135 -0.003917288 -0.21545084 -0.15473288 -0.08618034 0.1331878 -0.21153355 0.15865016 0.10772542
0000c0 11 18 14 01 44 f2 53 a4 6a a5 62 26 26 e4 ac 5d
       0.03329695 0.047007456 0.03917288 0.001958644 0.1331878 -0.027421016 0.16256745 -0.18019524 0.20761627 -0.1782366 0.19194712 0.07442847 0.07442847 -0.054842032 -0.1645261 0.1821539
0000d0 a7 15 07 2a fe da f8 51 df e3 39 5b 34 c3 f8 f2
       -0.17431931 0.041131526 0.013710508 0.08226305 -0.003917288 -0.07442847 -0.015669152 0.15865016 -0.064635254 -0.05680068 0.11164271 0.1782366 0.10184949 -0.11947729 -0.015669152 -0.027421016
0000e0 b3 0c 0d 3d b2 5a e0 5a bc 23 e9 1f 95 51 45 fb
       -0.15081559 0.023503728 0.025462372 0.11947729 -0.15277423 0.17627797 -0.06267661 0.17627797 -0.1331878 0.06855254 -0.04504881 0.060717963 -0.20957491 0.15865016 0.13514644 -0.00979322
0000f0 e1 01 c3 33 fc 22 24 63 f0 07 be 16 48 45 f6 f5
       -0.060717963 0.001958644 -0.11947729 0.09989084 -0.007834576 0.0665939 0.070511185 0.19390576 -0.031338304 0.013710508 -0.12927051 0.04309017 0.14102237 0.13514644 -0.01958644 -0.021545084

mhsa_query_dense/Tensordot/MatMul i1 [64, 64] scale=0.0019739736 zero_point=0
000000 71 c2 9f ef 9c b0 1d f9 56 d5 db 3b bc 12 13 b3
       0.22305901 -0.122386366 -0.19147544 -0.03355755 -0.19739735 -0.15791789 0.057245232 -0.013817815 0.16976173 -0.084880866 -0.07303702 0.11646444 -0.1342302 0.035531525 0.0375055 -0.15199597
000010 60 d6 b9 9e ab 13 c7 16 32 14 d8 ec b0 b6 a6 59
       0.18950146 -0.08290689 -0.14015213 -0.19344941 -0.16778776 0.0375055 -0.11251649 0.04342742 0.098698676 0.03947947 -0.07895894 -0.03947947 -0.15791789 -0.14607404 -0.17765762 0.17568365
000020 08 c1 98 19 28 b9 b7 2c ee 30 55 01 c1 45 a1 c4
       0.015791789 -0.12436034 -0.20529325 0.049349338 0.07895894 -0.14015213 -0.14410007 0.08685484 -0.035531525 0.09475073 0.16778776 0.0019739736 -0.12436034 0.13620418 -0.1875275 -0.118438415
000030 f9 a7 ae 8f c1 24 49 16 15 19 16 31 99 3a 06 c6
       -0.013817815 -0.17568365 -0.16186583 -0.22305901 -0.12436034 0.07106305 0.14410007 0.04342742 0.041453443 0.049349338 0.04342742 0.096724704 -0.20331928 0.114490464 0.0118438415 -0.114490464
000040 d7 08 c7 39 95 ee 15 07 f2 0b d0 46 d1 0d ce 93
       -0.080932915 0.015791789 -0.11251649 0.11251649 -0.21121517 -0.035531525 0.041453443 0.013817815 -0.02763563 0.02171371 -0.09475073 0.13817815 -0.09277676 0.025661657 -0.098698676 -0.21516313
000050 f5 26 e1 58 5f f7 5b 60 cf ec 0c ab 61 69 cf fd
       -0.02171371 0.075011 -0.061193183 0.17370968 0.1875275 -0.017765762 0.17963159 0.18950146 -0.096724704 -0.03947947 0.023687683 -0.16778776 0.19147544 0.20726722 -0.096724704 -0.0059219208
000060 ab e7 3e 09 d1 f0 bd cb b6 dd 0d ef 34 51 16 e7
       -0.16778776 -0.049349338 0.122386366 0.017765762 -0.09277676 -0.031583577 -0.13225622 -0.1046206 -0.14607404 -0.06908908 0.025661657 -0.03355755 0.10264663 0.15989186 0.04342742 -0.049349338
000070 a4 6e 98 3a 02 68 33 16 ef 3a 1d 0d db c3 e4 d6
       -0.18160558 0.2171371 -0.20529325 0.114490464 0.003947947 0.20529325 0.100672655 0.04342742 -0.03355755 0.114490464 0.057245232 0.025661657 -0.07303702 -0.12041239 -0.05527126 -0.08290689
000080 fe 9c 11 60 c0 e0 c5 97 00 f9 94 6b f6 45 de 65
       -0.003947947 -0.19739735 0.03355755 0.18950146 -0.12633431 -0.063167155 -0.11646444 -0.20726722 0.0 -0.013817815 -0.21318915 0.21121517 -0.019739736 0.13620418 -0.0671151 0.19937134
000090 00 df 24 0d d4 39 dd 62 48 63 f3 b9 24 57 0e 46
       0.0 -0.06514113 0.07106305 0.025661657 -0.08685484 0.11251649 -0.06908908 0.19344941 0.1421261 0.19542338 -0.025661657 -0.14015213 0.07106305 0.1717357 0.02763563 0.13817815
0000a0 d6 6a 03 62 e2 6f a7 96 e3 de 9b 57 bb bd 50 e8
       -0.08290689 0.2092412 0.0059219208 0.19344941 -0.059219208 0.21911107 -0.17568365 -0.2092412 -0.057245232 -0.0671151 -0.19937134 0.1717357 -0.13620418 -0.13225622 0.15791789 -0.047375366
0000b0 34 d5 da 3d ec de eb b2 67 c4 ab ed 48 cf 4e 98
       0.10264663 -0.084880866 -0.075011 0.12041239 -0.03947947 -0.0671151 -0.041453443 -0.15396994 0.20331928 -0.118438415 -0.16778776 -0.0375055 0.1421261 -0.096724704 0.15396994 -0.20529325
0000c0 36 4c a9 59 c5 94 b5 ae 2a a3 a7 6c 3e 96 e3 3f
       0.10659458 0.150022 -0.1717357 0.17568365 -0.11646444 -0.21318915 -0.14804801 -0.16186583 0.08290689 -0.18357955 -0.17568365 0.21318915 0.122386366 -0.2092412 -0.057245232 0.12436034
0000d0 a6 aa 00 dc dc 9d d2 28 51 3a 17 d4 1f b7 42 3b
       -0.17765762 -0.16976173 0.0 -0.07106305 -0.07106305 -0.19542338 -0.09080279 0.07895894 0.15989186 0.114490464 0.045401394 -0.08685484 0.061193183 -0.14410007 0.13028225 0.11646444
0000e0 1f 04 95 a8 26 01 c2 f6 e3 9b 6c 4f 40 54 6a aa
       0.061193183 0.007895894 -0.21121517 -0.17370968 0.075011 0.0019739736 -0.122386366 -0.019739736 -0.057245232 -0.19937134 0.21318915 0.15594392 0.12633431 0.16581377 0.2092412 -0.16976173
0000f0 59 43 2d c7 57 9c 50 bb aa 5e dc 04 d6 d9 37 97
       0.17568365 0.13225622 0.08882881 -0.11251649 0.1717357 -0.19739735 0.15791789 -0.13620418 -0.16976173 0.18555352 -0.07106305 0.007895894 -0.08290689 -0.07698497 0.10856855 -0.20726722
