asic/func_sim/reference_data/model_quant.tflite (tflite, 65064 bytes, 26 tensors)

vision_transformer/mlp_head_softmax/MatMul f4 [5, 32]
0.18040137 -0.025141228 0.34272295 0.27621508 0.22149295 -0.2779784 0.4166984 -0.17791826
-0.36303866 -0.2525703 -0.4323624 0.3483138 0.21148752 0.08686515 0.057114366 -0.28177166
0.4526502 0.42325348 -0.48595014 0.41886732 0.23045588 -0.025992457 -0.11184455 -0.39083624
-0.04440011 0.16662273 0.4759244 0.2234846 -0.3449254 -0.38154253 0.21352768 -0.14073607
0.30926225 0.3636548 -0.31649354 0.15568988 0.031882375 -0.19736093 -0.2942905 -0.04946301
-0.16485608 0.12469589 0.06869083 -0.38605556 -0.1301123 0.22456095 -0.21574214 0.29122475
0.30787674 0.18233979 0.19945203 0.31227738 0.21807855 -0.14900035 -0.1122012 -0.20272604
-0.28364727 0.079147026 0.043719742 0.15335402 0.061288405 -0.29200646 -0.29103997 -0.24787082
-0.036248542 -0.24167053 -0.20531668 -0.401434 -0.010701421 0.09032099 -0.25123933 -0.21225998
-0.0750814 -0.034825742 0.10352241 -0.2632596 0.29471108 0.25195837 0.2413334 -0.3282412
0.03230551 0.083953544 0.24026866 0.09888829 0.0704117 0.15893209 0.15842116 0.03226221
0.31348792 -0.04244615 -0.114425346 0.10216249 -0.33715528 0.1020476 0.04394475 -0.0010818611
0.16712959 0.23894754 0.2528986 0.23922491 0.09619878 -0.11628852 -0.18580793 0.006273532
-0.21902539 -0.33953446 -0.20124574 -0.3643305 0.21761325 -0.3114896 -0.13232368 -0.27282152
-0.25208429 -0.23613058 0.25514558 -0.0057252236 -0.035362285 -0.13912232 0.3694034 0.18779564
-0.2821539 0.1889137 0.108715326 0.163655 0.33314645 -0.17484541 -0.37622017 -0.10321536
0.23014197 0.28249 -0.15262252 0.051599354 0.22779919 0.035322633 -0.1256265 -0.36461115
0.026026273 -0.35442415 -0.06044284 -0.23874077 -0.22093552 0.24772766 -0.19096427 -0.31736374
-0.15037446 0.06853461 -0.049909487 -0.3279521 -0.3494325 -0.27506 0.064243086 0.12325362
-0.15615062 0.10520697 0.08421648 0.063634984 -0.24527991 0.18186969 0.33518758 -0.33871347
00000000: 23bb 383e faf4 cdbc 6279 af3e 106c 8d3e
00000010: 0ccf 623e 2f53 8ebe 7e59 d53e 3430 36be
00000020: 34e0 b9be e550 81be 9b5e ddbe 3056 b23e
00000030: 2f90 583e 5be6 b13d c1f0 693d 6044 90be
00000040: c4c1 e73e aeb4 d83e 75ce f8be c775 d63e
00000050: a0fc 6b3e 22ee d4bc c10e e5bd b01b c8be
00000060: e4dc 35bd 269f 2a3e 5dac f33e 26d9 643e
00000070: 109a b0be 8b59 c3be 00a7 5a3e 1e1d 10be
00000080: 9f57 9e3e f630 ba3e 710b a2be 2b6d 1f3e
00000090: 1897 023d fc18 4abe 3fad 96be ba99 4abd
000000a0: 08d0 28be 8f60 ff3d c7ad 8c3d 13a9 c5be
000000b0: 293c 05be 4ef3 653e 82eb 5cbe 691b 953e
000000c0: 05a2 9d3e 48b7 3a3e 273d 4c3e d2e2 9f3e
000000d0: fc4f 5f3e 8c93 18be bec9 e5bd 6a97 4fbe
000000e0: 373a 91be d617 a23d 7913 333d d608 1d3e
000000f0: 8d09 7b3d df81 95be 3103 95be d9d1 7dbe
00000100: 5a79 14bd 7b78 77be 893e 52be c288 cdbe
00000110: 0355 2fbc 36fa b83d 71a2 80be ae5a 59be
00000120: 47c4 99bd 70a5 0ebd 8f03 d43d f6c9 86be
00000130: 5fe4 963e b000 813e 1a20 773e 3b0f a8be
00000140: c852 043d d6ef ab3d fd08 763e f285 ca3d
00000150: 0234 903d 18bf 223e 2839 223e 6125 043d
00000160: 7d81 a03e 04dc 2dbd d657 eabd 913a d13d
00000170: 9e9f acbe 55fe d03d 69ff 333d 3ccd 8dba
00000180: 0524 2b3e aaae 743e ed7b 813e 60f7 743e
00000190: de03 c53d ad28 eebd 6f44 3ebe 3392 cd3b
000001a0: 3148 60be 76d7 adbe 5d13 4ebe 8789 babe
000001b0: 02d6 5e3e 917b 9fbe dc7f 07be 43af 8bbe
000001c0: 3111 81be 37cc 71be 71a2 823e a89a bbbb
000001d0: 0bd8 10bd 1576 0ebe 7122 bd3e 804d 403e
000001e0: 7a76 90be 9872 413e 24a6 de3d 2d95 273e
000001f0: 2c92 aa3e ad0a 33be ee9f c0be 9362 d3bd
00000200: 56aa 6b3e 87a2 903e 1449 1cbe d859 533d
00000210: 3144 693e 77ae 103d 3ca4 00be 50ae babe
00000220: 0d35 d53c 1577 b5be e992 77bd 7678 74be
00000230: ec3c 62be 52ac 7d3e 238c 43be 807d a2be
00000240: c3fb 19be e05b 8c3d e46d 4cbd 56e9 a7be
00000250: d1e8 b2be aad4 8cbe e191 833d 656c fc3d
00000260: f3e5 1fbe c076 d73d b179 ac3d 0f53 823d
00000270: a82a 7bbe 0c3c 3a3e b59d ab3e da6b adbe

mhsa_combine_head_dense/BiasAdd/ReadVariableOp f4 [64]
0.011935648 0.00012783942 0.0016710598 -0.011540029 -0.0037476134 -0.0027957691 0.007766729 -0.003209938
0.012757112 -0.004050011 0.00076232105 -0.008574698 0.017633608 -0.0015706585 0.0010503989 0.0057157613
-0.0061955242 -0.0037182218 0.0047557107 -0.0041065426 -0.0022526912 0.006437706 0.011023408 -0.0053577325
-0.009537735 0.010928534 -0.009058042 -0.004012739 0.003208204 -0.008363861 0.0031943258 -0.0066594076
0.0049504885 -0.002162525 0.0020404155 -0.0028809167 -0.0036280577 0.0017035137 -0.00094170554 -0.00927453
0.0092425 -0.011810581 -0.010304626 0.0025729444 0.0016368494 -0.0018637972 -0.0044256723 0.01137978
0.00987086 0.00524222 0.008715318 -0.010251919 0.00023193011 0.010160865 0.002619886 -0.005249089
0.0045326105 0.0008419613 0.0010655472 0.005450813 -0.003493083 0.00075520674 -0.00040333613 0.007264618
00000000: bc8d 433c a20c 0639 7607 db3a 6412 3dbc
00000010: 859a 75bb 3939 37bb 0c80 fe3b d35d 52bb
00000020: 3503 513c f4b5 84bb 80d6 473a e47c 0cbc
00000030: 5b74 903c 8ede cdba 8aad 893a 484b bb3b
00000040: d303 cbbb 69ad 73bb cbd5 9b3b 2d90 86bb
00000050: e3a1 13bb 64f3 d23b 869b 343c eb8f afbb
00000060: 2944 1cbc 980d 333c 2f68 14bc 4b7d 83bb
00000070: bb40 523b 9308 09bc e557 513b 2937 dabb
00000080: b537 a23b 26b9 0dbb 7eb8 053b c3cd 3cbb
00000090: b5c4 6dbb 6f48 df3a cadc 76ba 33f4 17bc
000000a0: db6d 173c 2b81 41bc bcd4 28bc d89e 283b
000000b0: 8d8b d63a a84a f4ba 3b05 91bb 4272 3a3c
000000c0: 63b9 213c eec6 ab3b b1ca 0e3c aaf7 27bc
000000d0: 4432 7339 c279 263c 65b2 2b3b 8d00 acbb
000000e0: 4b86 943b 11b7 5c3a d5a9 8b3a bc9c b23b
000000f0: 35ec 64bb 11f9 453a dc76 d3b9 080c ee3b

mhsa_key_dense/BiasAdd/ReadVariableOp f4 [64]
0.0025270507 -0.0027456698 -0.0007011501 -0.0020547353 -0.0012696986 -0.002250373 0.0027989626 -0.00048348948
0.0018612734 -0.0035740603 0.0042400784 -0.0020364986 0.0045958012 0.0020503567 0.0022293462 -0.0053434074
0.00054054655 0.00034654734 -0.0004018807 -0.00043593085 0.0001865996 -0.00018117751 7.000039e-05 -0.0007233699
-0.0014311408 0.0009896184 -0.002080433 0.0017966315 -0.0003707046 -0.0028278807 0.0010430331 0.0005411086
0.0014966902 -0.0013598296 0.001966864 0.0021014235 0.0014665835 0.0013247406 -0.001519523 0.0018129575
-0.00012710261 -0.00011813959 0.0002145124 -0.00010644571 -0.00024720287 4.3002976e-05 -0.00012180585 -6.0645627e-05
-0.0011312783 -0.0039092284 0.0013523195 -0.00090024405 -0.0032160464 0.0005479514 0.0036188867 -0.00077123736
-0.00022573493 0.002383969 0.0017443184 0.0021793304 -0.0024592567 0.002062199 0.0020423606 0.0013799676
00000000: e09c 253b b2f0 33bb 63cd 37ba bda8 06bb
00000010: 046c a6ba fe7a 13bb cd6e 373b dc7c fdb9
00000020: f9f5 f33a c83a 6abb 5bf0 8a3b c776 05bb
00000030: 6098 963b 475f 063b 391a 123b c017 afbb
00000040: 77b3 0d3a ccb0 b539 84b3 d2b9 a68d e4b9
00000050: f3a9 4339 78fa 3db9 2ccd 9238 88a0 3dba
00000060: 1e95 bbba 15b6 813a e057 08bb f37c eb3a
00000070: 215b c2b9 f753 39bb 62b6 883a 2fd9 0d3a
00000080: 972c c43a 4f3c b2ba 81e6 003b 09b8 093b
00000090: 603a c03a eba2 ad3a bb2a c7ba c2a0 ed3a
000000a0: d946 05b9 b6c1 f7b8 bcee 6039 9b3b dfb8
000000b0: 029b 81b9 185e 3438 0572 ffb8 bf5d 7eb8
000000c0: 6747 94ba fc18 80bb 5040 b13a 5bfe 6bba
000000d0: 4ec4 52bb 65a4 0f3a d82a 6d3b dd2c 4aba
000000e0: 42b3 6cb9 5d3c 1c3b 9da1 e43a 19d3 0e3b
000000f0: 7b2b 21bb f525 073b 20d9 053b 07e0 b43a

mhsa_query_dense/BiasAdd/ReadVariableOp f4 [64]
-0.013678939 -0.00011361079 0.002342427 0.008577623 0.0051787538 0.013005281 -0.004200937 0.0057022665
-0.0014611197 -0.0013161905 -6.907046e-05 0.0026043293 -0.0020040176 -0.006143463 0.00041723123 0.0034303183
0.005602211 -0.005676352 0.0042646085 -0.009228396 0.0036764815 -0.0008912952 -0.0030072858 0.0071157203
0.005537497 -0.0061585726 0.008985146 0.0120545365 -0.0021446266 0.009310324 -0.005867099 0.0026157445
-0.01331449 -0.012059055 -0.0072112256 -0.014068107 -0.014133843 -0.009775182 0.00929391 -0.011657509
-0.006093467 0.004896955 -0.0035661915 0.008400353 0.0043080305 -0.0020646814 -0.003771415 -0.0013754106
0.0059663057 0.004330595 -0.006130859 0.0033626622 0.0062063984 -0.0057414626 0.007279677 -0.00621578
-0.004863659 -0.0018744784 0.0039031897 0.0064807506 -0.011159249 0.0137101635 0.004062385 -0.0009813339
00000000: a11d 60bc 5442 eeb8 6783 193b 2989 0c3c
00000010: 89b2 a93b 1a14 553c 04a8 89bb 14da ba3b
00000020: 0b83 bfba 0684 acba ecd9 90b8 65ad 2a3b
00000030: d655 03bb 1a4f c9bb d4bf da39 31cf 603b
00000040: c192 b73b b100 babb 21be 8b3b b332 17bc
00000050: 20f1 703b cfa5 69ba e215 45bb fd2a e93b
00000060: e473 b53b dacd c9bb 6f36 133c 6480 453c
00000070: dd8c 0cbb 548a 183c cb40 c0bb e96c 2b3b
00000080: 0525 5abc 5893 45bc 254c ecbb eb7d 66bc
00000090: a291 67bc 1628 20bc 7c45 183c 23ff 3ebc
000000a0: b5ab c7bb a376 a03b c4b6 69bb a2a1 093c
000000b0: 612a 8d3b 9b4f 07bb d829 77bb 1f47 b4ba
000000c0: 0081 c33b aae7 8d3b 5fe5 c8bb 1c60 5c3b
000000d0: 0b5f cb3b e122 bcbb 5b8a ee3b bead cbbb
000000e0: 545f 9fbb 0fb1 f5ba a8cc 7f3b 7a5c d43b
000000f0: 48d5 36bc 98a0 603c c11d 853b 1aa0 80ba

mhsa_value_dense/BiasAdd/ReadVariableOp f4 [64]
0.0027390304 -0.012956174 0.014657464 -0.0008197227 -0.0018845104 0.0014553723 -0.007933369 -0.005296887
0.0022926833 -0.008525417 -0.007789864 0.0009872736 -0.008354385 0.00075827056 0.0045712 -0.0016481811
-0.0038259253 0.0035929494 -0.0015838766 0.0021658526 0.0072835884 0.005375149 -0.006982713 0.0034716313
-0.009342752 0.0014536798 0.00027950408 -0.006463445 0.0045084986 -0.0031581477 -0.0035789285 -0.0037881385
-0.0059562335 0.004396251 0.0010731941 -0.003294219 0.001898624 0.00036160013 -0.0073237466 0.00043506088
0.0030875688 0.0039996575 -0.00019111278 -0.0042166514 0.0050928807 -0.0028985245 0.0017511483 0.0006522127
-0.0004763073 -0.012081191 -0.0033909024 0.005788834 -0.009514921 -0.0004189537 -0.009234761 -0.0011883329
0.0059477077 0.0059255078 0.0081344545 0.001917453 0.013105416 -0.0015843069 -0.008516097 -0.0005262526
00000000: 4e81 333b 2246 54bc dc25 703c a9e2 56ba
00000010: ad01 f7ba 31c2 be3a f6fa 01bc 8291 adbb
00000020: d840 163b 31ae 0bbc 1e42 ffbb 6867 813a
00000030: d5e0 08bc adc6 463a 01ca 953b c807 d8ba
00000040: 60bc 7abb b077 6b3b 149a cfba faf0 0d3b
00000050: 2bab ee3b 0522 b03b 3ecf e4bb 4f84 633b
00000060: 5812 19bc 6689 be3a 678a 9239 4ecb d3bb
00000070: 07bc 933b edf8 4ebb 758c 6abb 6b42 78bb
00000080: 822c c3bb 6d0e 903b 6baa 8c3a d3e3 57bb
00000090: 40db f83a 2695 bd39 0afc efbb e218 e439
000000a0: cf58 4a3b 8f0f 833b 7265 48b9 d62b 8abb
000000b0: 2ee2 a63b 2cf5 3dbb c986 e53a 41f9 2a3a
000000c0: e2b8 f9b9 30f0 45bc e739 5ebb 42b0 bd3b
000000d0: 79e4 1bbc 04a7 dbb9 654d 17bc d6c1 9bba
000000e0: fde4 c23b c32a c23b 6046 053c 0c53 fb3a
000000f0: 19b8 563c 85a8 cfba 1a87 0bbc 37f4 09ba

vision_transformer/patch_projection_dense/BiasAdd/ReadVariableOp f4 [64]
-0.007810822 -0.004914641 0.0017081486 -0.0044272225 -0.0057881717 -0.0009349032 -0.0102957655 0.0030781033
-0.0035589524 -0.0012831154 -0.00035146694 -0.002698425 0.0072835735 0.0017477816 -0.003939898 0.0031971438
0.004714399 0.0003921496 -0.00020024985 -0.008227947 0.00876448 0.008203534 -0.010493514 0.007909173
0.00073541806 -0.00018263941 -0.00786972 0.004079134 -0.0026248675 0.004791069 0.009201813 0.011483524
-0.00093176216 -0.0031436093 -0.0022864544 0.0050650775 -0.005051533 0.007460718 -0.011465363 -0.0042598387
-0.0031664975 -0.00767982 -0.0055174283 -0.0039925403 0.002625572 -0.0035689122 0.00075317535 -0.003385939
-0.0046090716 -0.0077882423 -0.004331579 -0.00029020515 -0.003603726 0.006239062 0.0023295067 0.0045427275
0.0130194165 0.0097492365 -0.003371887 0.00874716 0.0030878286 0.0016773167 -0.007154089 0.00365426
00000000: edf1 ffbb ff0a a1bb f5e3 df3a 3c12 91bb
00000010: b4aa bdbb 4b14 75ba 92af 28bc 01ba 493b
00000020: 503d 69bb 352e a8ba 1845 b8b9 0fd8 30bb
00000030: 0bab ee3b d215 e53a 431a 81bb 2c87 513b
00000040: 3f7b 9a3b 6e99 cd39 29fa 51b9 83ce 06bc
00000050: e598 0f3c 1e68 063c fdec 2bbc 7a95 013c
00000060: 12c9 403a e582 3fb9 00f0 00bc 42aa 853b
00000070: f805 2cbb 66fe 9c3b 33c3 163c 6425 3c3c
00000080: 8041 74ba 0305 4ebb 57d8 15bb f3f8 a53b
00000090: 5587 a5bb 0a79 f43b 38d9 3bbc 1e96 8bbb
000000a0: 0385 4fbb 00a7 fbbb 8bcb b4bb dbd3 82bb
000000b0: ca11 2c3b 69e4 69bb be70 453a a1e6 5dbb
000000c0: b207 97bb 8334 ffbb ebef 8dbb ad26 98b9
000000d0: 7d2c 6cbb 0c71 cc3b a3aa 183b 29db 943b
000000e0: 644f 553c 43bb 1f3c e0fa 5cbb 4050 0f3c
000000f0: 2b5d 4a3b 69d9 db3a d96c eabb 4f7c 6f3b

vision_transformer/mlp_head_softmax/BiasAdd/ReadVariableOp f4 [5]
-0.10578946 0.0037463005 0.044717163 -0.0031207306 -0.023950443
00000000: 25a8 d8bd 7e84 753b 5829 373d 2c85 4cbb
00000010: b833 c4bc

vision_transformer/mlp_head/mlp_head_dense1/BiasAdd/ReadVariableOp f4 [32]
-0.028685246 -0.011314693 -0.030443437 -0.02941619 -0.024990002 0.010589438 -0.035071034 -0.0133421505
0.0066369455 0.0034515501 0.010281638 0.0027114258 -0.017799878 0.00636985 -0.0092364885 -0.016143711
-0.020826219 -0.019226873 0.020497255 -0.016353132 -0.010968154 -0.009035033 0.005601965 0.0158949
0.0030860004 -0.017640114 -0.018322805 0.0041615586 -0.023582436 -0.0029259743 -0.010614955 0.0036550027
00000000: 52fd eabc 4361 39bc 8464 f9bc 39fa f0bc
00000010: d5b7 ccbc 527f 2d3c a5a6 0fbd 0999 5abc
00000020: bc7a d93b 6733 623b 5174 283c 2db2 313b
00000030: 0dd1 91bc 2dba d03b a454 17bc d13f 84bc
00000040: bf9b aabc ad81 9dbc dce9 a73c 01f7 85bc
00000050: c6b3 33bc ad07 14bc b090 b73b 0536 823c
00000060: 7f3e 4a3b 0082 90bc b519 96bc af5d 883b
00000070: f42f c1bc b4c1 3fbb 59ea 2dbc c588 6f3b

vision_transformer/mlp_head_layerNorm/batchnorm/ReadVariableOp f4 [64]
-0.0053447294 -0.022570517 0.018272543 0.027281234 0.0029693467 0.027575133 0.016532153 -0.017764267
-0.015956253 0.014596617 0.010550575 -0.019821897 0.0022758602 -0.008118495 -4.787513e-05 0.017246563
-0.0009596653 -0.026031876 0.010158013 -0.016523303 0.0028949752 0.017869135 0.0021011545 0.020768698
0.012304051 -0.025652757 -0.0076267296 0.011634576 0.015835548 0.00035950326 0.017037982 -0.013556815
0.014077288 -0.026173307 -0.0024594802 -0.009012895 -0.021906171 -0.01694789 -0.013132009 -0.008778162
-0.013814223 -0.008828103 -0.017863698 -0.013135919 -0.031681348 0.015684335 0.00096247875 -0.023379665
0.0021622132 -0.00965362 -0.01745063 0.002564441 -0.0015213188 -0.021730958 -0.006859955 0.00063828693
0.0071757114 -0.0074351765 -0.0013581372 0.02519635 0.012260687 -0.015067247 -0.008680655 -0.0090986425
00000000: d722 afbb cee5 b8bc 4db0 953c e57c df3c
00000010: 5f99 423b 3fe5 e13c 706e 873c 5e86 91bc
00000020: b0b6 82bc a626 6f3c 52dc 2c3c 8861 a2bc
00000030: 9926 153b 7003 05bc 88cd 48b8 aa48 8d3c
00000040: 0c92 7bba cd40 d5bc cb6d 263c e15b 87bc
00000050: a0b9 3d3b 4b62 923c 86b3 093b 1e23 aa3c
00000060: ee96 493c bb25 d2bc a5e9 f9bb f39e 3e3c
00000070: 8db9 813c b67b bc39 3d93 8b3c 671d 5ebc
00000080: 6da4 663c 6769 d6bc 3b2f 21bb d2aa 13bc
00000090: 9274 b3bc 4dd6 8abc a327 57bc 48d2 0fbc
000000a0: 0d55 62bc bfa3 10bc e456 92bc 0a38 57bc
000000b0: 4dc4 01bd 6f7c 803c db4e 7c3a b686 bfbc
000000c0: ebb3 0d3b 382a 1ebc a0f4 8ebc 2e10 283b
000000d0: fd66 c7ba 1f05 b2bc 79c9 e0bb b652 273a
000000e0: 3b22 eb3b c8a2 f3bb 8603 b2ba 9368 ce3c
000000f0: 0ce1 483c 9ddc 76bc 4e39 0ebc 7912 15bc

vision_transformer/mlp_head_layerNorm/batchnorm/mul/ReadVariableOp f4 [64]
0.9943796 0.99169564 0.9974119 0.9974719 0.99979615 0.9723534 0.9820722 0.98880446
0.99975365 0.97395 0.986167 0.9774859 0.98848957 0.99780184 0.9785837 1.0033714
0.97647107 0.9843309 0.9934969 0.99455583 0.98960817 0.9971385 0.9819658 1.0019088
0.99421 1.0068337 0.9836892 0.9645412 0.9922378 0.98148286 0.9726292 0.9849669
0.99775535 1.0114175 0.97806096 0.976781 0.9739207 0.9959784 0.99846864 0.9972286
0.96850085 0.995302 0.98271704 0.9754539 0.99623966 0.99546295 0.9912422 0.99395984
0.973965 0.9869763 0.9827259 0.9825907 0.9895441 0.99870026 0.9857807 0.9783893
0.9731493 0.98815554 0.9864621 0.9805847 0.9920134 0.99403787 0.98938745 0.9884634
00000000: a98f 7e3f c4df 7d3f 6356 7f3f 525a 7f3f
00000010: a4f2 7f3f 27ec 783f 1569 7b3f 4a22 7d3f
00000020: dbef 7f3f ca54 793f 7175 7c3f 843c 7a3f
00000030: a70d 7d3f f16f 7f3f 7684 7a3f 796e 803f
00000040: 02fa 793f 1cfd 7b3f d055 7e3f 369b 7e3f
00000050: f656 7d3f 7844 7f3f 1c62 7b3f 8c3e 803f
00000060: 8c84 7e3f eddf 803f 0ed3 7b3f 2cec 763f
00000070: 4c03 7e3f 7642 7b3f 3afe 783f ca26 7c3f
00000080: e56c 7f3f 2176 813f 3462 7a3f 520e 7a3f
00000090: de52 793f 71f8 7e3f a49b 7f3f 604a 7f3f
000000a0: acef 773f 1dcc 7e3f 5893 7b3f 59b7 793f
000000b0: 9009 7f3f a9d6 7e3f 0cc2 7d3f 2774 7e3f
000000c0: c555 793f 7baa 7c3f ed93 7b3f 108b 7b3f
000000d0: c352 7d3f d2aa 7f3f 205c 7c3f b977 7a3f
000000e0: 5020 793f c3f7 7c3f c888 7c3f 9907 7b3f
000000f0: 97f4 7d3f 4479 7e3f 7f48 7d3f f00b 7d3f

vision_transformer/Encoder_1/mlp_dense2_encoder/BiasAdd/ReadVariableOp f4 [64]
-0.010282395 -0.023849877 0.023981972 0.029330704 0.012747708 0.019993871 0.015443069 -0.019340906
-0.008056768 0.0065923743 0.0068269204 -0.012418402 0.0061627557 -0.016746456 -0.002018118 0.026946701
-0.004254609 -0.017539682 0.011897584 -0.015746161 0.012053561 0.016477158 -0.0014817629 0.020258246
0.00956493 -0.025300303 0.0070980843 0.004099883 0.011102356 -0.011625581 0.018244516 -0.006586413
0.01355253 -0.034759898 0.0072762677 0.012917571 -0.011907164 -0.020268764 -0.011214464 -0.011774423
-0.011679228 -0.0046044965 -0.017491749 0.0054591303 -0.024693187 0.021289334 -0.0032435472 -0.011943631
0.010683859 -0.011504375 -0.01778035 -0.0049879616 0.01575134 -0.020386059 0.0037563138 0.009009204
0.013916181 0.010336903 -0.00026865012 0.02113819 0.007606808 -0.012430823 -0.009693316 -0.007477713
00000000: 7e77 28bc d160 c3bc d775 c43c f246 f03c
00000010: c3db 503c 30ca a33c ed04 7d3c d270 9ebc
00000020: 8900 04bc d804 d83b 5cb4 df3b 8e76 4bbc
00000030: f1f0 c93b dd2f 89bc 6742 04bb 54bf dc3c
00000040: 3f6a 8bbb 61af 8fbc 16ee 423c 18fe 80bc
00000050: 4d7c 453c 1bfb 863c b637 c2ba 9ff4 a53c
00000060: 39b6 1c3c 9542 cfbc 0c97 e83b 5058 863b
00000070: a8e6 353c 3979 3ebc 8675 953c d6d2 d7bb
00000080: 6e0b 5e3c 6560 0ebd c26d ee3b 38a4 533c
00000090: 4416 43bc ae0a a6bc dfbc 37bc 82e9 40bc
000000a0: 3c5a 3fbc 51e1 96bb db4a 8fbc 81e2 b23b
000000b0: 5e49 cabc f866 ae3c b191 54bb 38af 43bc
000000c0: 5a0b 2f3c d97c 3cbc 19a8 91bc 0e72 a3bb
000000d0: f408 813c aa00 a7bc 7d2c 763b 579b 133c
000000e0: b200 643c 1d5c 293c 9cd9 8cb9 ff29 ad3c
000000f0: 8842 f93b a7aa 4bbc b7d0 1ebc 9a07 f5bb

vision_transformer/Encoder_1/mlp_dense1_encoder/BiasAdd/ReadVariableOp f4 [32]
0.0072745504 -0.00924095 0.0046705417 -0.017736027 0.015906751 -0.011880494 -0.010560964 0.009344373
-0.0056347023 0.010843854 -0.0032955597 0.005968567 -0.007059242 -0.01042837 -0.013410951 -0.017134884
-0.004189151 -0.0043836096 -0.0041037714 -0.007815601 -0.0071344813 -0.0012063592 0.008392669 -0.0060669337
0.010000683 -0.00202353 0.00440887 0.007776174 0.008066583 0.0007855812 -0.008950187 -0.004023406
00000000: 5a5f ee3b 5b67 17bc 580b 993b 254b 91bc
00000010: e04e 823c 67a6 42bc e507 2dbc 2419 193c
00000020: 4fa3 b8bb 6caa 313c 51fa 57bb f893 c33b
00000030: 3751 e7bb c1db 2abc 9bb9 5bbc 755e 8cbc
00000040: 2545 89bb 62a4 8fbb ee78 86bb 020d 00bc
00000050: 5ec8 e9bb b31e 9eba 6881 093c 21cd c6bb
00000060: e8d9 233c 339d 04bb 4878 903b 47cf fe3b
00000070: b429 043c 76ef 4d3a cea3 12bc c7d6 83bb

vision_transformer/Encoder_1/layerNorm2_encoder/batchnorm/ReadVariableOp f4 [64]
0.017433982 -0.000746239 0.0087813055 -0.011928446 -0.0065403054 -0.0050895964 0.014788934 -0.007359912
0.009780679 -0.0017634175 -0.00015944059 -0.012209423 0.013238143 -0.0009935795 0.0039094747 0.0020134724
-0.011990301 -0.0048925197 0.0052427473 -0.006960612 0.0037492423 0.006263988 0.0146916825 -0.007896043
-0.0072139543 0.006363664 -0.015369004 -0.000281843 0.004901535 -0.008263977 0.0039924188 -0.0034733862
-9.3728464e-05 -0.0065831365 0.002103603 0.000627546 -0.0022314617 -0.0036449174 -9.388398e-05 -0.006695496
0.0063331164 -0.013347705 -0.012853033 0.0021018835 -0.0038840936 -0.005526787 -0.006674147 0.011867541
0.017874174 0.0009540401 0.008660726 -0.013865474 0.00915189 0.014562997 0.0017869739 -0.002115347
0.004598908 -0.010868655 0.0042139404 0.0033132315 -0.003168235 -0.003790113 -0.006273694 0.0041293027
00000000: b6d1 8e3c 409f 43ba 77df 0f3c 876f 43bc
00000010: 0f50 d6bb a1c6 a6bb 494d 723c 6b2b f1bb
00000020: 243f 203c 7922 e7ba 822f 27b9 080a 48bc
00000030: cce4 583c ff3a 82ba 0d1b 803b 76f4 033b
00000040: f872 44bc 6e51 a0bb 5acb ab3b d815 e4bb
00000050: d9b5 753b 2442 cd3b 62b5 703c 685e 01bc
00000060: 0963 ecbb 4886 d03b 46ce 7bbc 54c4 93b9
00000070: 0e9d a03b a265 07bc d6d2 823b c0a1 63bb
00000080: 1690 c4b8 5ab7 d7bb 9adc 093b e681 243a
00000090: b73d 12bb 91df 6ebb 94e3 c4b8 e465 dbbb
000000a0: 0886 cf3b 55b0 5abc 8795 52bc c1bf 093b
000000b0: 478c 7ebb 0d1a b5bb ceb2 dabb 1370 423c
000000c0: dc6c 923c 8c18 7a3a b8e5 0d3c 032c 63bc
000000d0: cff1 153c a399 6e3c e538 ea3a a2a1 0abb
000000e0: 70b2 963b 7112 32bc 1815 8a3b cd22 593b
000000f0: 2aa2 4fbb 8b63 78bb 8f93 cdbb 1a4f 873b

vision_transformer/Encoder_1/layerNorm2_encoder/batchnorm/mul/ReadVariableOp f4 [64]
1.0092882 0.9962463 0.99777186 0.9865242 1.0023133 0.9949144 1.0031775 1.0021918
0.99072874 0.9943 0.9978339 1.007547 0.9997097 0.99740416 0.99717367 0.9924604
1.0026226 0.98807275 1.0041459 1.0047911 0.9945499 1.0006609 1.0096298 1.0045384
0.98564 0.99663085 0.99972045 0.99359494 0.98960876 0.99591756 1.0015721 1.0042344
0.99329364 0.9995422 0.99265844 0.99506766 0.9970405 0.99506974 0.99648106 1.0018852
1.001307 1.0141563 0.997267 1.0004449 0.99920386 0.99677116 0.9958225 1.0091873
1.0075368 0.9976536 1.0070179 0.99421066 0.9886626 1.0025666 0.9968741 0.9978101
1.0022511 0.99764603 0.9954516 1.0020467 1.0020636 1.0001895 1.0046636 1.0048876
00000000: 5b30 813f ff09 7f3f fa6d 7f3f da8c 7c3f
00000010: cd4b 803f b6b2 7e3f 1f68 803f d247 803f
00000020: 66a0 7d3f 728a 7e3f 0b72 7f3f 4df7 803f
00000030: faec 7f3f e155 7f3f c646 7f3f e311 7e3f
00000040: f055 803f 56f2 7c3f da87 803f ff9c 803f
00000050: d29a 7e3f a815 803f 8d3b 813f b794 803f
00000060: e752 7c3f 3323 7f3f aeed 7f3f 3d5c 7e3f
00000070: 0057 7d3f 74f4 7e3f 8433 803f c18a 803f
00000080: 7e48 7e3f ffe1 7f3f dd1e 7e3f c1bc 7e3f
00000090: 0c3e 7f3f e4bc 7e3f 6219 7f3f c63d 803f
000000a0: d42a 803f e0cf 813f e44c 7f3f 940e 803f
000000b0: d3cb 7f3f 652c 7f3f 39ee 7e3f 0d2d 813f
000000c0: f7f6 803f 3a66 7f3f f6e5 803f 9784 7e3f
000000d0: fe18 7d3f 1a54 803f 2433 7f3f 7c70 7f3f
000000e0: c449 803f bb65 7f3f ebd5 7e3f 1143 803f
000000f0: 9f43 803f 3606 803f d198 803f 28a0 803f

vision_transformer/Encoder_1/layerNorm1_encoder/batchnorm/ReadVariableOp f4 [64]
-0.008046707 -0.0065902015 0.0012045011 -0.005895409 -0.006675713 -0.0026797662 -0.009494417 0.00029977402
-0.0036620365 -0.0015111656 -6.0784572e-05 -0.004055161 0.0050952258 0.0014821632 -0.0029690934 0.0023833313
0.004140055 -0.00025701415 -0.0015802733 -0.0092669185 0.007224353 0.008400813 -0.011579233 0.0066301296
-0.00016504445 -0.0012258757 -0.007276453 0.0017373337 -0.0030754465 0.0027107138 0.008635159 0.011177485
-0.0006200116 -0.004350313 -0.0035626346 0.0043107946 -0.0073585943 0.006298973 -0.011044376 -0.0027844775
-0.0051385374 -0.008037771 -0.00805564 -0.0037668368 0.0029725407 -0.0055286656 -0.00048470023 -0.0035353426
-0.0062968773 -0.008942064 -0.0042304923 -0.0009855718 -0.0038693445 0.0053403294 0.0007408807 0.0051014787
0.012960581 0.0083019305 -0.004962901 0.007576898 0.0015604504 0.0013784405 -0.006922543 0.0031301363
00000000: 56d6 03bc 9ef2 d7bb 5ae0 9d3a 462e c1bb
00000010: f1bf dabb 049f 2fbb 798e 1bbc fd2a 9d39
00000020: c7fe 6fbb 4e12 c6ba f0f2 7eb8 28e1 84bb
00000030: daf5 a63b 2545 c23a 1f95 42bb aa31 1c3b
00000040: 4ca9 873b dbbf 86b9 2c21 cfba 46d4 17bc
00000050: 44ba ec3b 90a3 093c d3b6 3dbc 8f41 d93b
00000060: c80f 2db9 90ad a0ba 506f eebb 3fb7 e33a
00000070: 6e8d 49bb 3ba6 313b 7b7a 0d3c c521 373c
00000080: 4688 22ba 128d 8ebb 177b 69bb 9141 8d3b
00000090: 5d20 f1bb 9e67 ce3b 78f3 34bc c87b 36bb
000000a0: 2d61 a8bb dbb0 03bc cefb 03bc 09dd 76bb
000000b0: f5ce 423b cf29 b5bb 5d1f feb9 35b1 67bb
000000c0: 0956 cebb bc81 12bc f19f 8abb 4d2e 81ba
000000d0: d494 7dbb eefd ae3b aa37 423a 4e2a a73b
000000e0: 9e58 543c d204 083c d59f a2bb a147 f83b
000000f0: 0788 cc3a caac b43a 80d6 e2bb f922 4d3b

vision_transformer/Encoder_1/layerNorm1_encoder/batchnorm/mul/ReadVariableOp f4 [64]
1.008418 0.9933867 0.99906665 1.0035324 1.0063043 1.0028647 0.986877 1.0025293
1.0044162 1.001572 1.0004431 0.99632955 0.9935464 0.99789584 0.99480134 1.0024458
0.9953977 0.99893373 0.99507177 1.009635 0.9928634 1.0080512 1.0060322 0.98851496
0.9990577 0.99815786 1.0082531 1.0027244 1.0037286 1.0017316 1.0086133 0.992342
0.9985542 1.0036969 0.9974238 0.9964652 1.0071802 1.0063033 0.9929859 0.9967739
1.0034034 0.99077576 0.9922385 0.99873316 1.0007415 0.99324316 0.9999563 1.0048486
1.0049376 0.9911897 1.007043 0.99860436 0.98862416 1.0060998 1.006265 0.99799746
0.99113744 1.0088009 0.9981178 1.0081102 1.0015899 0.9945964 1.008373 0.99711424
00000000: d713 813f 974e 7e3f d5c2 7f3f c073 803f
00000010: 94ce 803f df5d 803f f9a3 7c3f e152 803f
00000020: b690 803f 8333 803f 850e 803f 740f 7f3f
00000030: 0f59 7e3f 1a76 7f3f 4dab 7e3f 2550 803f
00000040: 62d2 7e3f 1fba 7f3f 06bd 7e3f b83b 813f
00000050: 4c2c 7e3f d207 813f aac5 803f 510f 7d3f
00000060: 3fc2 7f3f 4687 7f3f 700e 813f 4659 803f
00000070: 2e7a 803f be38 803f 3e1a 813f 200a 7e3f
00000080: 40a1 7f3f 2479 803f 2b57 7f3f 5818 7f3f
00000090: 48eb 803f 8cce 803f 5334 7e3f 932c 7f3f
000000a0: 866f 803f 7ba3 7d3f 5803 7e3f faac 7f3f
000000b0: 4c18 803f 2f45 7e3f 23fd 7f3f e19e 803f
000000c0: cca1 803f 9cbe 7d3f c9e6 803f 89a4 7f3f
000000d0: 7916 7d3f e1c7 803f 4bcd 803f c37c 7f3f
000000e0: 2fbb 7d3f 6320 813f a684 7f3f c109 813f
000000f0: 1934 803f df9d 7e3f 5e12 813f e142 7f3f

vision_transformer/BroadcastTo/ReadVariableOp f4 [1, 1, 64]
0.059037153 0.15376574 0.27846456 0.27157924 -0.02211354 -0.036334347 -0.28089398 -0.1150302
0.05122116 -0.16139114 0.2331181 0.2726684 -0.13433388 -0.25993994 -0.15152952 0.11393627
0.20650943 -0.042041074 0.23381807 0.1845485 -0.16123475 0.31409955 -0.18798463 0.1177451
-0.13349018 0.20292526 0.06267692 -0.07077819 0.07238905 -0.2997832 0.13613135 0.12894057
-0.036786143 0.009187343 -0.2467489 0.1545956 -0.14700036 0.13844861 0.12929739 -0.09672184
-0.108396046 -0.14233333 0.18189114 0.06893761 0.014405598 0.08525557 -0.13992402 -0.028380418
0.23918602 -0.08971114 0.14851913 0.28568402 -0.1329826 -0.14180954 -0.26470432 0.19116887
0.2579227 0.029076157 0.006033415 -0.18940297 -0.17135574 -0.11406239 0.0433867 0.15230177
00000000: f1d0 713d c474 1d3e e892 8e3e 6f0c 8b3e
00000010: 7427 b5bc 53d3 14bd 56d1 8fbe f494 ebbd
00000020: 47cd 513d b843 25be 83b6 6e3e 319b 8b3e
00000030: d28e 09be d916 85be 8e2a 1bbe 6b57 e93d
00000040: 3577 533e 4333 2cbd 016e 6f3e 48fa 3c3e
00000050: b91a 25be a8d1 a03e 0b7f 40be 5824 f13d
00000060: a6b1 08be a4cb 4f3e c25c 803d 28f4 90bd
00000070: b640 943d 2f7d 99be 0466 0b3e ff08 043e
00000080: 11ad 16bd 8286 163c beab 7cbe 4f4e 1e3e
00000090: 4387 16be 79c5 0d3e 8966 043e 1a16 c6bd
000000a0: bffe ddbd d4bf 11be ac41 3a3e 292f 8d3d
000000b0: 7505 6c3c 799a ae3d 3e48 0fbe 0d7e e8bc
000000c0: 2eed 743e 79ba b7bd 6615 183e 2d45 923e
000000d0: 972c 08be 8536 11be 5387 87be c6c1 433e
000000e0: 720e 843e 1f31 ee3c f4b3 c53b daf2 41be
000000f0: e177 2fbe 8b99 e9bd 41b6 313d fff4 1b3e

vision_transformer/add/ReadVariableOp f4 [1, 61, 64]
0.01617485 0.1961311 -0.01024223 -0.04041371 0.19661225 -0.090524696 0.14353114 0.0834098
-0.061861217 -0.019785065 0.11843096 -0.21919623 0.14819534 -0.07149307 0.17480643 -0.082635306
-0.03856986 0.19834656 0.11694349 -0.2240048 0.009331567 -0.17280282 0.16855639 0.024557004
0.035534125 -0.11006219 0.114304885 0.13709264 0.2010866 0.10803965 0.022758463 -0.023373364
0.18765345 0.01696562 -0.1477644 0.1725191 -0.13898873 0.18648437 -0.116983265 -0.13310781
0.09916305 -0.23788667 0.0751747 0.16141243 0.06516244 0.21881516 -0.11976508 0.19447684
0.018151117 0.1738833 -0.102395445 -0.20658109 0.059279293 -0.1401912 0.1474224 0.17198755
0.12107658 0.09862623 -0.13762355 -0.19223484 0.09592982 -0.1625375 0.06388269 0.13872859
0.19444752 0.07324145 0.22063398 0.03853869 -0.17110403 0.061561305 -0.13681772 -0.017530715
-0.21292736 0.09774177 -0.034925286 0.08548432 -0.10049117 0.06741721 0.18128794 0.13493094
-0.047512762 0.12209286 -0.1950464 0.11708806 0.21538413 -0.017832395 0.010809146 0.0021119039
0.05648182 -0.06580639 -0.21550657 -0.031339623 0.016470503 0.04932192 0.028045721 0.031707156
0.18794483 -0.042006798 -0.1784198 -0.12326123 0.20838188 0.08728329 -0.14006047 -0.14929895
-0.15041417 -0.11007138 0.16579455 0.2022505 -0.10593638 0.20822178 -0.14831187 -0.030821498
0.14830932 -0.22783361 -0.19644968 0.06867552 -0.080132455 0.045831345 -0.06953692 0.1355203
-0.15598966 0.067428656 -0.16951688 0.18039367 0.15127191 0.18519562 0.16320118 -0.06647426
0.034825176 -0.040087257 0.008394914 -0.18245836 -0.107627824 0.1980021 0.046264324 0.21293321
-0.19760676 -0.1057654 -0.10416578 0.12758031 -0.14964181 0.199552 0.15104637 0.11164016
-0.0021653052 -0.13813742 -0.20379621 0.13461491 -0.2039204 -0.16828379 -0.062463272 -0.15776674
0.12725918 -0.20844789 0.20044279 -0.1410069 -0.18318748 0.14994651 0.13518283 0.22594547
0.12677124 -0.11860279 -0.012599992 -0.092159964 0.14740205 0.21248564 0.058169954 -0.13295096
0.1430572 -0.002619515 -0.01367699 0.05013565 -0.18305543 -0.17125683 -0.034740858 -0.075479
0.014870199 -0.15955825 -0.12365753 0.17714451 -0.049676202 -0.145279 -0.13405398 -0.13574992
0.22283557 -0.048816167 -0.21102464 0.13597684 -0.07974391 -0.17234752 -0.0039991345 0.114891805
-0.098433524 -0.1272252 0.061439916 -0.054682404 0.1467739 -0.0073930984 -0.22477064 0.095093064
-0.15218917 -0.077943824 0.08144549 -0.09364667 -0.05663004 -0.16653825 -0.11632881 -0.020574331
0.22165658 -0.110450655 0.09626445 0.039489664 0.078989394 0.114696786 -0.22024573 -0.04125932
-0.050344154 0.1926605 -0.03686596 -0.056220986 0.17894463 0.052816015 0.15481874 0.148349
-0.049569134 0.061557446 0.043575075 -0.1617672 0.13023818 -0.20660862 -0.16672537 0.15933819
0.032202713 0.19493237 0.0005594329 -0.17073137 -0.2005437 -0.13694955 -0.13999993 -0.10428967
-0.21856576 0.11402766 0.07338092 0.11174003 0.046553757 0.04754873 0.01584976 0.0914078
-0.011605712 -0.12821564 0.17570777 0.21267006 -0.117242336 -0.045532115 0.19993776 0.18897276
00000000: 1e81 843c 97d6 483e 07cf 27bc d988 25bd
00000010: b954 493e 0365 b9bd d4f9 123e c2d2 aa3d
00000020: 3062 7dbd 4a14 a2bc ee8b f23d fa74 60be
00000030: 85c0 173e f56a 92bd 7500 333e b33c a9bd
00000040: 6efb 1dbd 5c1b 4b3e 1280 ef3d 8461 65be
00000050: 6ee3 183c 39f3 30be 0c9a 2c3e c52b c93c
00000060: 3b8c 113d 4968 e1bd ae18 ea3d 0362 0c3e
00000070: a5e9 4d3e e443 dd3d f56f ba3c 7f79 bfbc
00000080: 3a28 403e 7cfb 8a3c 8d4f 17be d9a8 303e
00000090: 1053 0ebe c2f5 3e3e ec94 efbd 6a4d 08be
000000a0: ff15 cb3d 9098 73be 31f5 993d 4d49 253e
000000b0: e373 853d 1511 603e 6547 f5bd f024 473e
000000c0: a7b1 943c 770e 323e b4b4 d1bd fe89 53be
000000d0: d8ce 723d 488e 0fbe e6f5 163e 811d 303e
000000e0: fff6 f73d 8dfc c93d 30ed 0cbe 36d9 44be
000000f0: da76 c43d 3b70 26be eed4 823d de0e 0e3e
00000100: 401d 473e 9dff 953d e0ed 613e bfda 1d3d
00000110: e535 2fbe b527 7c3d f219 0cbe 939c 8fbc
00000120: a109 5abe d62c c83d d10d 0fbd 6712 af3d
00000130: 51ce cdbd 0912 8a3d 8ca3 393e 562b 0a3e
00000140: be9c 42bd d20b fa3d 3eba 47be ddcb ef3d
00000150: a88d 5c3e 3e15 92bc d818 313c de67 0a3b
00000160: 7b59 673d 80c5 86bd c1ad 5cbe fa5d 00bd
00000170: 26ed 863c c805 4a3d 24c0 e53c 5ddf 013d
00000180: 9c74 403e 520f 2cbd aeb3 36be 6270 fcbd
00000190: 0f62 553e 95c1 b23d 036c 0fbe d3e1 18be
000001a0: 2c06 1abe 1b6d e1bd 0cc6 293e c11a 4f3e
000001b0: 2cf5 d8bd 1738 553e 11df 17be 5e7d fcbc
000001c0: 66de 173e 374d 69be 1b2a 49be c0a5 8c3d
000001d0: 7c1c a4bd a6b9 3b3d 5f69 8ebd d5c5 0a3e
000001e0: c1bb 1fbe 0918 8a3d d595 2dbe 1eb9 383e
000001f0: 06e7 1a3e eca3 3d3e 361e 273e a823 88bd
00000200: d8a4 0e3d 8932 24bd d28a 093c 5dd6 3abe
00000210: fa6b dcbd 10c1 4a3e a97f 3d3d 2a0b 5a3e
00000220: 6d59 4abe 889b d8bd de54 d5bd 6aa4 023e
00000230: b43b 19be 5c57 4c3e e6ab 1a3e 99a3 e43d
00000240: cbe7 0dbb e573 0dbe f4af 50be 7ed8 093e
00000250: 82d0 50be 9652 2cbe 7dd9 7fbd 9b8d 21be
00000260: 3b50 023e 5d73 55be e040 4d3e 1d64 10be
00000270: 8095 3bbe 948b 193e 5e6d 0a3e 405e 673e
00000280: 52d0 013e 05e6 f2bd 3270 4ebc 5dbe bcbd
00000290: 90f0 163e d695 593e 9e43 6e3d 4c24 08be
000002a0: 967d 123e 2bac 2bbb 7415 60bc 0a5b 4d3d
000002b0: e272 3bbe f35d 2fbe 6e4c 0ebd bc94 9abd
000002c0: 23a2 733c 3d63 23be 2940 fdbd 5f65 353e
000002d0: 4679 4bbd 05c4 14be 7245 09be 0702 0bbe
000002e0: 022f 643e 76f3 47bd d816 58be 833d 0b3e
000002f0: c650 a3bd de7b 30be 2c0b 83bb 654c eb3d
00000300: 8497 c9bd 5347 02be 6ca8 7b3d a8fa 5fbd
00000310: e64b 163e ce41 f2bb 462a 66be 27c0 c23d
00000320: 7ad7 1bbe 03a1 9fbd e5cc a63d d3c9 bfbd
00000330: e7f4 67bd 0189 2abe cd3d eebd 808b a8bc
00000340: f1f9 623e f433 e2bd 4c26 c53d eabf 213d
00000350: 31c5 a13d 26e6 ea3d 1988 61be 88ff 28bd
00000360: ac35 4ebd cb48 453e c300 17bd fa47 66bd
00000370: 433d 373e 9b55 583d ce88 1e3e cde8 173e
00000380: 0109 4bbd a923 7c3d c77b 323d 4da6 25be
00000390: 285d 053e 3691 53be 0eba 2abe 8d29 233e
000003a0: fee6 033d 5a9c 473e e8a6 123a 34d4 2ebe
000003b0: 545b 4dbe 813c 0cbe 245c 0fbe d395 d5bd
000003c0: b4cf 5fbe 5587 e93d bc48 963d f5d7 e43d
000003d0: 27af 3e3d 75c2 423d 5bd7 813c 0334 bb3d
000003e0: e225 3ebc f64a 03be bdec 333e 2ec6 593e
000003f0: c01c f0bd e27f 3abd 7cbc 4c3e 1382 413e

vision_transformer/patch_projection_dense/Tensordot/MatMul1 i1 [64, 64] scale=0.0017849697 zero_point=0
-0.10888315 -0.08210861 -0.19813164 -0.20348655 0.18385188 0.15172243 -0.0767537 0.042839274
-0.06961382 -0.1820669 -0.19277672 -0.12673286 -0.16778715 0.13387273 0.017849697 -0.16064727
-0.1713571 -0.21419637 0.18563685 -0.1713571 -0.07318376 0.124947876 -0.066043876 0.19277672
-0.09638836 -0.18385188 -0.18385188 0.14279757 -0.17492703 0.042839274 -0.0017849697 0.010709818
0.10352825 0.016064728 0.1892068 0.18028194 -0.107098185 0.05533406 0.1999166 0.19099176
-0.0767537 -0.06961382 -0.09638836 -0.14279757 -0.1820669 -0.10531321 -0.15886231 -0.12316291
0.1820669 0.12673286 -0.11066812 -0.046409212 0.14815249 0.026774546 0.03926933 0.010709818
-0.13387273 -0.11066812 -0.05711903 -0.11423806 -0.03926933 0.03926933 -0.17492703 -0.16064727
0.17314206 -0.021419637 -0.033914424 -0.07139879 -0.19277672 -0.21062642 -0.21241139 0.19099176
0.13208775 -0.16243224 0.028559515 -0.13030279 -0.06782885 -0.16957211 0.20527151 0.17849697
0.17314206 -0.13387273 -0.10531321 0.17314206 -0.16421722 -0.005354909 0.06068897 -0.0946034
0.13387273 0.11245309 0.117808 0.19277672 -0.14458254 0.1945617 0.058904 0.062473938
-0.1999166 -0.014279758 0.117808 -0.21598133 -0.06782885 -0.05711903 0.07318376 0.1356577
0.19277672 -0.05533406 0.08746351 0.05711903 0.16421722 0.11423806 0.10352825 0.13030279
-0.21062642 -0.06068897 -0.124947876 -0.028559515 -0.07853866 -0.053549092 -0.19634667 -0.176712
-0.07139879 -0.07853866 0.083893575 0.13208775 0.17849697 -0.023204606 0.026774546 0.13922764
-0.15172243 -0.021419637 0.1820669 0.0035699394 -0.12137794 0.008924848 0.1535074 0.21419637
-0.028559515 -0.11066812 0.11245309 0.14993745 -0.06961382 -0.074968725 -0.028559515 0.1820669
-0.1535074 0.18028194 0.15707733 0.21062642 0.11959297 0.14636752 -0.19813164 0.13744266
-0.13030279 0.08746351 -0.13922764 0.19099176 0.07853866 -0.14636752 -0.17314206 0.18385188
-0.16957211 -0.176712 -0.18742181 0.062473938 -0.12673286 -0.15529236 -0.18028194 -0.116023034
0.06961382 -0.053549092 0.116023034 -0.04819418 -0.15172243 -0.089248486 -0.1713571 0.14993745
-0.14458254 0.16064727 -0.008924848 0.06068897 -0.176712 -0.06425891 -0.14101261 -0.16778715
-0.124947876 0.1892068 0.0 -0.10888315 -0.19099176 -0.023204606 0.15886231 -0.028559515
-0.12137794 -0.14458254 0.12316291 -0.10174327 0.058904 0.030344484 0.21241139 -0.014279758
-0.117808 0.14815249 0.08210861 -0.092818424 -0.20170158 0.117808 -0.176712 0.05533406
-0.12851782 -0.13387273 -0.053549092 -0.09638836 -0.083893575 0.023204606 -0.17314206 -0.21598133
0.124947876 -0.062473938 0.07318376 0.13387273 -0.0999583 -0.17314206 -0.092818424 0.13030279
0.019634666 -0.16778715 0.10888315 -0.18385188 0.1713571 -0.066043876 0.09103345 -0.066043876
-0.20884146 0.08567855 -0.19634667 -0.012494788 0.17492703 0.15886231 -0.028559515 0.19813164
-0.16778715 -0.0999583 0.16064727 -0.16064727 -0.098173335 0.21241139 0.05711903 0.20884146
-0.016064728 0.04819418 -0.14458254 -0.042839274 -0.07853866 0.08567855 -0.014279758 0.0035699394
00000000: c3d2 918e 6755 d518 d99a 94b9 a24b 0aa6
00000010: a088 68a0 d746 db6c ca99 9950 9e18 ff06
00000020: 3a09 6a65 c41f 706b d5d9 cab0 9ac5 a7bb
00000030: 6647 c2e6 530f 1606 b5c2 e0c0 ea16 9ea6
00000040: 61f4 edd8 948a 896b 4aa5 10b7 daa1 7364
00000050: 61b5 c561 a4fd 22cb 4b3f 426c af6d 2123
00000060: 90f8 4287 dae0 294c 6ce1 3120 5c40 3a49
00000070: 8ade baf0 d4e2 929d d8d4 2f4a 64f3 0f4e
00000080: abf4 6602 bc05 5678 f0c2 3f54 d9d6 f066
00000090: aa65 5876 4352 914d b731 b26b 2cae 9f67
000000a0: a19d 9723 b9a9 9bbf 27e2 41e5 abce a054
000000b0: af5a fb22 9ddc b1a2 ba6a 00c3 95f3 59f0
000000c0: bcaf 45c7 2111 77f8 be53 2ecc 8f42 9d1f
000000d0: b8b5 e2ca d10d 9f87 46dd 294b c89f cc49
000000e0: 0ba2 3d99 60db 33db 8b30 92f9 6259 f06f
000000f0: a2c8 5aa6 c977 2075 f71b afe8 d430 f802

mhsa_key_dense/Tensordot/MatMul i1 [64, 64] scale=0.0018125613 zero_point=0
0.19938174 -0.15406771 0.007250245 0.12506673 -0.20300686 0.038063787 -0.18669382 0.025375858
0.13775466 -0.11600392 -0.12869185 -0.06525221 0.038063787 -0.17219332 0.14137979 -0.16675565
-0.005437684 -0.0018125613 -0.01450049 -0.15044259 0.10512856 0.15406771 0.1685682 -0.15225515
0.045314033 -0.08519038 0.2247576 -0.08337782 0.12869185 -0.17038076 -0.048939154 -0.20481943
0.13775466 -0.10875368 0.05437684 0.17219332 0.050751716 -0.0036251226 -0.1921315 -0.09244063
-0.09606575 -0.09969087 -0.18125613 0.117816485 -0.007250245 0.0561894 0.17219332 0.059814524
0.11419136 -0.12687929 0.0797527 0.063439645 0.15044259 0.0 -0.059814524 -0.1450049
-0.09244063 -0.045314033 0.01450049 -0.11600392 -0.059814524 -0.13775466 0.17400588 0.045314033
-0.21388224 0.023563297 0.021750735 0.007250245 0.030813541 -0.007250245 -0.18125613 0.09787831
-0.19575661 -0.0036251226 0.19756918 -0.15769283 0.02718842 0.15769283 -0.08700294 0.13231698
-0.021750735 -0.09425319 0.0888155 0.14137979 0.15769283 -0.038063787 0.005437684 0.032626104
-0.19938174 -0.16675565 0.14863002 -0.02718842 0.03987635 0.17944357 0.21206968 0.1595054
-0.19394405 0.18850638 -0.06525221 0.034438666 0.04350147 0.025375858 0.019938175 0.14319234
0.16131796 0.023563297 0.21206968 -0.1921315 -0.10150343 -0.19938174 -0.06525221 -0.0888155
0.19394405 0.045314033 0.019938175 0.123254165 -0.038063787 0.11600392 -0.20300686 -0.17400588
-0.20481943 -0.12506673 -0.1921315 0.032626104 0.021750735 -0.15044259 -0.12506673 -0.13775466
0.20844455 0.17400588 0.08519038 -0.1921315 0.14319234 -0.005437684 -0.12687929 0.09787831
-0.016313052 0.07250245 -0.05800196 0.090628065 -0.09244063 -0.0018125613 0.012687929 0.12869185
0.20481943 0.17944357 0.1921315 -0.19394405 -0.0797527 0.08337782 -0.021750735 -0.06706477
0.08519038 -0.1921315 -0.045314033 0.15769283 -0.16131796 0.14137979 0.0036251226 0.13231698
0.19031894 0.19756918 -0.09606575 -0.048939154 -0.04168891 0.18488126 0.019938175 0.03987635
-0.1595054 -0.07431501 0.09787831 0.103315994 -0.13412954 0.021750735 0.10512856 0.1123788
-0.02718842 -0.14319234 -0.19756918 0.030813541 0.1359421 0.045314033 0.019938175 0.1123788
0.063439645 0.13412954 0.090628065 0.1123788 0.21388224 -0.09969087 -0.2156948 -0.10512856
-0.19575661 0.050751716 -0.030813541 -0.14137979 -0.12869185 -0.08700294 0.1830687 -0.090628065
-0.21025711 0.19394405 -0.14137979 0.13050441 0.11962905 0.09787831 0.15769283 -0.18488126
0.19575661 0.19575661 -0.059814524 -0.1595054 -0.0797527 0.018125612 0.17038076 0.11419136
-0.04168891 0.123254165 -0.009062806 0.06706477 -0.07431501 -0.06887733 -0.0036251226 -0.05800196
-0.18488126 -0.16131796 -0.117816485 0.13412954 -0.0018125613 0.09787831 -0.0561894 -0.038063787
0.14137979 -0.19031894 0.13050441 0.045314033 0.0018125613 0.06525221 -0.15225515 -0.07431501
0.10512856 0.09244063 0.1595054 0.09244063 0.14863002 -0.18488126 -0.070689894 -0.117816485
-0.07250245 0.0888155 0.15769283 -0.047126595 0.01450049 -0.12869185 -0.09244063 -0.12506673
00000000: 6eab 0445 9015 990e 4cc0 b9dc 15a1 4ea4
00000010: fdff f8ad 3a55 5dac 19d1 7cd2 47a2 e58f
00000020: 4cc4 1e5f 1cfe 96cd cbc9 9c41 fc1f 5f21
00000030: 3fba 2c23 5300 dfb0 cde7 08c0 dfb4 6019
00000040: 8a0d 0c04 11fc 9c36 94fe 6da9 0f57 d049
00000050: f4cc 314e 57eb 0312 92a4 52f1 1663 7558
00000060: 9568 dc13 180e 0b4f 590d 7596 c892 dccf
00000070: 6b19 0b44 eb40 90a0 8fbb 9612 0cad bbb4
00000080: 7360 2f96 4ffd ba36 f728 e032 cdff 0747
00000090: 7163 6a95 d42e f4db 2f96 e757 a74e 0249
000000a0: 696d cbe5 e966 0b16 a8d7 3639 b60c 3a3e
000000b0: f1b1 9311 4b19 0b3e 234a 323e 76c9 89c6
000000c0: 941c efb2 b9d0 65ce 8c6b b248 4236 579a
000000d0: 6c6c dfa8 d40a 5e3f e944 fb25 d7da fee0
000000e0: 9aa7 bf4a ff36 e1eb 4e97 4819 0124 acd7
000000f0: 3a33 5833 529a d9bf d831 57e6 08b9 cdbb

mhsa_query_dense/Tensordot/MatMul i1 [64, 64] scale=0.0018087084 zero_point=0
0.07958317 -0.05787867 0.03436546 0.092244126 -0.05787867 -0.05787867 -0.028939335 -0.06873092
-0.11394863 -0.112139925 -0.08320059 0.14288796 -0.16278376 0.1718273 -0.17725343 0.041600294
-0.15193151 -0.08320059 -0.005426125 0.15916634 0.14107926 0.08320059 -0.19714922 -0.05787867
0.09043542 -0.1700186 -0.054261252 0.14469667 -0.074157044 0.0 -0.18629697 -0.22608855
-0.072348334 0.012660959 0.19714922 -0.0651135 -0.0651135 -0.06873092 0.03436546 -0.17906213
0.07958317 0.037982877 0.09586155 -0.18267955 0.16640118 -0.13927054 -0.108522505 -0.14469667
0.13927054 0.1718273 -0.037982877 -0.106713794 0.019895792 -0.08139188 0.14288796 -0.10309638
0.18448825 0.0217045 0.20076664 0.13384442 0.15374021 0.106713794 0.005426125 0.14831409
0.018087083 -0.21161889 -0.14107926 0.18267955 -0.08320059 0.025321918 0.10309638 0.20076664
-0.13384442 0.17544472 -0.07958317 0.1266096 -0.11937475 -0.10128767 -0.20619276 -0.09947896
-0.0018087084 -0.04883513 -0.072348334 -0.17725343 -0.16278376 0.09767026 0.10490509 -0.173636
0.092244126 -0.009043542 0.09947896 0.027130626 0.15012279 0.07053963 -0.03255675 0.061496086
0.1266096 -0.08139188 -0.01085225 0.21342759 0.02351321 0.11756605 0.18448825 -0.20800146
0.15012279 0.019895792 -0.0850093 0.07958317 0.009043542 0.11394863 -0.11394863 -0.03255675
0.0072348337 0.050643835 -0.061496086 -0.043409 -0.108522505 -0.19895792 -0.08320059 -0.09947896
0.005426125 0.112139925 -0.18087085 -0.12299217 -0.20981018 0.07053963 -0.15374021 0.08320059
0.1917231 0.17544472 0.18267955 -0.06873092 0.030748043 -0.054261252 -0.16640118 -0.20076664
-0.0072348337 0.04702642 0.108522505 0.21704501 0.07053963 0.050643835 -0.13746184 0.10490509
-0.03255675 -0.20800146 -0.0072348337 0.15193151 -0.16640118 0.12480088 -0.030748043 -0.0651135
-0.18991439 0.14831409 -0.19895792 0.019895792 -0.19895792 -0.02351321 0.19534051 -0.15735763
0.027130626 0.043409 0.110331215 0.1266096 0.10490509 0.059687376 -0.039791584 -0.19534051
0.0 0.21161889 -0.0036174168 -0.1935318 -0.18629697 0.054261252 -0.20076664 0.077774465
-0.061496086 -0.13384442 0.0217045 0.0217045 0.043409 -0.05787867 0.13927054 0.16459246
0.018087083 0.0036174168 0.11756605 0.14107926 0.110331215 -0.02351321 0.041600294 -0.108522505
0.012660959 -0.14831409 -0.16820988 0.0651135 -0.15916634 -0.1718273 0.061496086 0.17544472
0.12480088 0.11756605 -0.014469667 0.027130626 -0.173636 0.14831409 0.005426125 -0.02351321
-0.18991439 0.20438404 0.059687376 0.09586155 -0.16640118 0.20800146 -0.09043542 -0.028939335
0.050643835 -0.108522505 -0.173636 -0.005426125 -0.09043542 -0.075965755 0.08139188 -0.13203572
-0.0651135 0.014469667 -0.110331215 -0.18629697 0.10128767 0.14831409 -0.072348334 -0.07053963
0.04521771 -0.09405284 -0.17906213 -0.05787867 0.019895792 0.092244126 -0.173636 0.22247113
-0.052452546 0.15554893 -0.030748043 0.1266096 -0.09767026 -0.21161889 -0.17906213 0.10309638
0.08862671 0.052452546 0.1917231 -0.030748043 -0.19895792 -0.056069963 -0.037982877 0.173636
00000000: 2ce0 1333 e0e0 f0da c1c2 d24f a65f 9e17
00000010: acd2 fd58 4e2e 93e0 32a2 e250 d700 9983
00000020: d807 6ddc dcda 139d 2c15 359b 5cb3 c4b0
00000030: 4d5f ebc5 0bd3 4fc7 660c 6f4a 553b 0352
00000040: 0a8b b265 d20e 396f b661 d446 bec8 8ec9
00000050: ffe5 d89e a636 3aa0 33fb 370f 5327 ee22
00000060: 46d3 fa76 0d41 668d 530b d12c 053f c1ee
00000070: 041c dee8 c492 d2c9 033e 9cbc 8c27 ab2e
00000080: 6a61 65da 11e2 a491 fc1a 3c78 271c b43a
00000090: ee8d fc54 a445 efdc 9752 920b 92f3 6ca9
000000a0: 0f18 3d46 3a21 ea94 0075 fe95 991e 912b
000000b0: deb6 0c0c 18e0 4d5b 0a02 414e 3df3 17c4
000000c0: 07ae a324 a8a1 2261 4541 f80f a052 03f3
000000d0: 9771 2135 a473 cef0 1cc4 a0fd ced6 2db7
000000e0: dc08 c399 3852 d8d9 19cc 9de0 0b33 a07b
000000f0: e356 ef46 ca8b 9d39 311d 6aef 92e1 eb60

mhsa_value_dense/Tensordot/MatMul i1 [64, 64] scale=0.0018029441 zero_point=0
-0.17849147 -0.0018029441 0.05769421 0.050482437 -0.10457076 -0.064905986 -0.15865909 0.0
0.0018029441 0.16947675 0.0054088323 -0.10817665 0.09916192 0.16046202 -0.120797254 0.03966477
0.08654132 0.084738374 -0.016226497 -0.1839003 0.07932954 0.16587086 0.11538842 0.13341786
-0.0018029441 0.07211776 0.19832385 0.13702375 0.16226497 -0.03966477 -0.037861828 -0.012620609
0.027044162 -0.1550532 -0.19291502 -0.0054088323 0.16046202 -0.08654132 -0.111782536 0.046876546
-0.1226002 -0.20192975 0.16226497 0.0775266 -0.120797254 -0.09916192 0.084738374 -0.20733857
0.064905986 0.09375309 0.041467715 0.0613001 0.03065005 -0.04867949 -0.16046202 0.050482437
0.17849147 0.12440314 -0.02163533 0.18930914 -0.06851187 0.17127968 -0.14062963 0.12981197
0.14062963 -0.10457076 -0.15144731 -0.0775266 0.059497155 0.1550532 0.095556036 -0.034255937
0.09375309 0.023438273 0.17308263 0.09375309 -0.16587086 -0.0775266 0.12981197 -0.095556036
-0.010817665 -0.17488559 0.19652091 0.19291502 -0.15865909 -0.15144731 -0.04867949 -0.17488559
-0.0036058882 0.08293543 0.22536801 -0.100964874 0.09735898 0.05228538 0.06851187 -0.14784142
0.16226497 -0.120797254 -0.19652091 0.20553564 0.19471796 0.04327066 -0.050482437 -0.106373705
0.1226002 0.16406791 0.014423553 0.17127968 0.15325025 0.0054088323 -0.17668852 0.0054088323
0.08834426 0.04867949 -0.046876546 -0.15865909 -0.028847106 -0.11538842 -0.18029441 -0.00901472
-0.08654132 -0.19111207 -0.1388267 -0.055891268 -0.2289739 -0.0613001 0.03065005 -0.028847106
-0.14964436 -0.0054088323 -0.09735898 0.10276782 0.10276782 -0.16226497 0.04327066 -0.15325025
-0.07392071 -0.045073602 0.02163533 -0.03605888 -0.18209736 0.08293543 -0.03966477 0.09195015
0.18029441 -0.15865909 0.0775266 0.01802944 0.11538842 -0.11358548 -0.19111207 0.14243259
-0.027044162 0.14603847 -0.10817665 0.106373705 0.09916192 0.032452993 -0.07932954 0.19291502
-0.13702375 0.09375309 0.13341786 -0.100964874 0.034255937 0.016226497 -0.014423553 -0.10817665
-0.032452993 -0.059497155 0.032452993 0.06310304 -0.075723656 -0.1226002 0.03605888 -0.14243259
0.06670893 0.03065005 -0.12440314 -0.111782536 -0.04327066 0.05769421 0.023438273 -0.111782536
0.19832385 0.19291502 -0.08293543 0.0018029441 -0.17488559 0.10817665 -0.20553564 0.032452993
0.21455035 -0.055891268 0.03605888 -0.03966477 -0.019832386 -0.10817665 0.01802944 0.075723656
0.20553564 -0.13702375 0.08834426 -0.14964436 -0.14243259 -0.050482437 0.120797254 0.08293543
-0.13522081 0.10817665 0.1676738 -0.17668852 -0.09916192 0.14784142 -0.064905986 0.100964874
-0.21455035 0.20373268 0.08113249 -0.08113249 -0.07211776 -0.16406791 0.07031482 -0.13341786
-0.0072117765 0.11899431 -0.15144731 0.019832386 -0.09735898 -0.06851187 -0.01802944 0.111782536
-0.0072117765 -0.1676738 0.111782536 0.01802944 0.050482437 -0.10457076 -0.07932954 -0.19111207
0.19652091 -0.06310304 -0.025241219 0.032452993 -0.12800904 -0.027044162 -0.14243259 -0.03065005
-0.17488559 -0.10276782 0.100964874 0.06310304 -0.2001268 -0.04867949 -0.04327066 0.08834426
00000000: 9dff 201c c6dc a800 015e 03c4 3759 bd16
00000010: 302f f79a 2c5c 404a ff28 6e4c 5aea ebf9
00000020: 0faa 95fd 59d0 c21a bc90 5a2b bdc9 2f8d
00000030: 2434 1722 11e5 a71c 6345 f469 da5f b248
00000040: 4ec6 acd5 2156 35ed 340d 6034 a4d5 48cb
00000050: fa9f 6d6b a8ac e59f fe2e 7dc8 361d 26ae
00000060: 5abd 9372 6c18 e4c5 445b 085f 5503 9e03
00000070: 311b e6a8 f0c0 9cfb d096 b3e1 81de 11f0
00000080: adfd ca39 39a6 18ab d7e7 0cec 9b2e ea33
00000090: 64a8 2b0a 40c1 964f f151 c43b 3712 d46b
000000a0: b434 4ac8 1309 f8c4 eedf 1223 d6bc 14b1
000000b0: 2511 bbc2 e820 0dc2 6e6b d201 9f3c 8e12
000000c0: 77e1 14ea f5c4 0a2a 72b4 31ad b1e4 432e
000000d0: b53c 5d9e c952 dc38 8971 2dd3 d8a5 27b6
000000e0: fc42 ac0b cada f63e fca3 3e0a 1cc6 d496
000000f0: 6ddd f212 b9f1 b1ef 9fc7 3823 91e5 e831
