asic/func_sim/reference_data/model.tflite (tflite, 144632 bytes, 26 tensors)

mhsa_combine_head_dense/BiasAdd/ReadVariableOp f4 [64]
000000 39 d9 09 bc a7 34 51 3c 51 0c 13 bb 0f f5 34 bb
       -0.008413606 0.012768901 -0.002243776 -0.0027611887
000010 f5 c1 90 bc a4 0a 49 3b df 21 28 bb 87 16 d3 3a
       -0.01767061 0.0030676508 -0.0025654954 0.0016104736
000020 f7 70 6f bb 43 d7 a6 3b dd 66 8c 3b cb 36 45 3b
       -0.0036535838 0.005091579 0.004284723 0.0030092474
000030 ba 88 8d 3a b5 01 a9 3b 51 72 c7 3a 2a 7f 5f 3c
       0.0010798194 0.005157674 0.0015216564 0.013641158
000040 05 29 3b 3c 01 cb 45 bc 11 e8 08 3a bf 38 7e 3b
       0.011423354 -0.012072326 0.0005222569 0.0038791148
000050 54 ba 04 3c fb 20 07 bc fb 16 2d bc aa 76 c4 3b
       0.008101065 -0.008247609 -0.010564561 0.005995591
000060 16 e0 00 3a 90 f9 14 3b 6e 3d c2 3b 26 5a 3d bb
       0.0004916204 0.0022731759 0.005927733 -0.0028892844
000070 21 58 fb bb fd 96 ea 3b 94 98 c5 bb ec da b3 3b
       -0.007670418 0.0071591125 -0.0060301516 0.005488744
000080 13 f8 a3 bb c7 47 75 3b 5d 77 4f 3b c8 41 3c 3a
       -0.005003938 0.0037426816 0.003165684 0.0007181433
000090 7e f1 84 3a db dc e9 bb 4f 3b 7c 3b 47 e1 a4 3a
       0.0010142771 -0.0071369237 0.00384875 0.0012579345
0000a0 72 26 d0 bb ac 9b 3a 3a 4b dc bd bb 83 72 4c ba
       -0.0063522393 0.0007118534 -0.0057940832 -0.0007799046
0000b0 21 a4 a1 bb 6b 3a 9f bb bc 8e 8c 3b 2a 80 f5 3b
       -0.004932896 -0.004859259 0.004289476 0.007492085
0000c0 94 68 3e 3b 5a e8 01 bc 66 50 bd bb 83 6b bb 3b
       0.0029054033 -0.007928932 -0.0057774065 0.0057196035
0000d0 6b d5 58 ba cc 66 94 bb 62 ac 7b bb 22 3f 0b 3b
       -0.0008271548 -0.004528856 -0.0038402309 0.0021247347
0000e0 cd ec a5 bb e0 4a 12 bc c5 de e1 bb d2 8e 92 bb
       -0.0050636292 -0.008928984 -0.0068930113 -0.004472592
0000f0 7a 7d 16 3c a9 e7 26 3c a1 1c 2c bb 49 7c 5a 3b
       0.009185189 0.010187068 -0.0026262181 0.003333824

mhsa_key_dense/BiasAdd/ReadVariableOp f4 [64]
000000 ca f1 d4 3a b6 44 d4 ba c2 af 48 bb d7 80 4b 3b
       0.0016246375 -0.0016194794 -0.0030622338 0.0031052136
000010 1a 4e 5e 3a ba 08 1c 3b d6 b5 77 bb 41 19 5e 3b
       0.0008480266 0.0023808912 -0.0037797592 0.0033889564
000020 7d ea ee 37 e7 b1 22 ba c2 73 e3 39 02 74 dc b9
       2.8481003e-05 -0.0006206319 0.0004338306 -0.00042048102
000030 80 57 ae 39 3e c7 ed 39 86 a2 36 ba 7b b4 87 39
       0.0003325306 0.0004535261 -0.0006966967 0.00025883675
000040 8c 22 2b b9 23 ba ea 39 f0 e4 bb 39 1c 4d 66 b9
       -0.000163207 0.0004477064 0.0003583799 -0.00021963235
000050 db 08 31 ba 64 ab 79 3a c4 e9 65 3a 08 7f 1a 3a
       -0.0006753334 0.00095241354 0.00087704905 0.0005893563
000060 22 23 83 b9 3a 74 40 3a 1b 96 f9 b9 dd bd 1e ba
       -0.00025012443 0.0007341538 -0.00047604818 -0.00060555135
000070 49 da 66 ba 59 a0 fb b9 67 31 dc b7 2c f0 a3 b9
       -0.0008806331 -0.0004799392 -2.6249048e-05 -0.00031268725
000080 ad f2 da ba 65 30 97 ba d3 2b 63 b9 54 d8 c5 3a
       -0.0016704403 -0.0011534808 -0.00021664733 0.0015094378
000090 f9 0f 17 bb c3 43 b9 ba 7c 1d 03 3b ae 17 fc 3a
       -0.0023050292 -0.0014134574 0.0020006588 0.0019233131
0000a0 88 11 0f bb cc c5 0c 3a 42 34 f5 3a 30 c9 31 ba
       -0.0021830518 0.000537005 0.0018707591 -0.00067819934
0000b0 04 6c 43 3b 80 99 24 3b a9 58 c1 3a 55 7e 5c 39
       0.002981902 0.0025115907 0.0014751154 0.00021027897
0000c0 a2 b7 9c ba f1 49 da b9 9b 32 d1 ba 4c f7 8c ba
       -0.0011956582 -0.0004163529 -0.0015960516 -0.0010754853
0000d0 cd 5e 2d ba df dd b3 3a ea 11 9a 39 13 79 a4 3a
       -0.00066135527 0.0013722739 0.00029386516 0.001254829
0000e0 df 9f 0c bb a5 d7 11 ba f5 be 84 b9 eb 0b 70 ba
       -0.0021457595 -0.00055634446 -0.00025319276 -0.00091570494
0000f0 5d 95 7f 39 be fe 7f 3a 81 fb 00 39 15 6e 40 ba
       0.00024374337 0.00097654376 0.00012300724 -0.0007340622

mhsa_query_dense/BiasAdd/ReadVariableOp f4 [64]
000000 1e 59 71 bc 14 51 c2 3b 21 84 18 3c ff 65 f8 3a
       -0.01473072 0.0059300754 0.009308846 0.0018951296
000010 86 42 7a 3b d1 e3 d1 ba c8 e7 6b 3b d8 da 2c b9
       0.0038186624 -0.0016013329 0.0035996307 -0.00016484724
000020 d0 50 2e 3c 97 48 39 3b 6e d9 bf 39 c1 a8 cf 38
       0.010639384 0.0028272027 0.00036592357 9.901962e-05
000030 16 10 6d bb d0 f7 be 3a 39 18 16 39 2e 7d 94 38
       -0.0036172918 0.0014569703 0.00014314138 7.0805065e-05
000040 b4 3e 9a bb 3f 5e 44 ba 74 ff 00 3c 65 87 e5 3b
       -0.004707182 -0.00074908504 0.007873405 0.0070046657
000050 c6 fd d4 ba 7e b6 1d 3b 60 f3 b3 39 3d 9e 54 3a
       -0.0016249947 0.0024065073 0.0003432287 0.00081107375
000060 22 e0 ae bb 0d 0d f2 bb 48 d4 06 3c f2 3d 4c 3a
       -0.0053367773 -0.0073868097 0.008229323 0.0007791213
000070 36 78 31 bc f2 5a d4 bb 32 8b e9 bb 94 6e 05 bc
       -0.010831883 -0.006480568 -0.007127189 -0.00814404
000080 c2 58 56 bb f3 c8 93 3a 64 32 9b bb 7f 36 f3 3a
       -0.0032706712 0.0011275097 -0.0047362316 0.001855567
000090 74 28 c7 3b 6f a5 6e 3b 9a f0 7f 3b 58 e4 ae bb
       0.0060778204 0.0036414524 0.0039053322 -0.0053372793
0000a0 64 9f a1 bb 77 6f ba bb 62 33 74 3b 06 5c 95 3b
       -0.004932331 -0.005689557 0.0037262072 0.004558089
0000b0 a2 78 a8 bb 08 a9 a1 3b 4e 8f 91 3b a0 40 58 bb
       -0.0051413337 0.00493348 0.004442132 -0.0032997504
0000c0 52 29 77 3a 7c bd fa 3a 25 9d a0 b8 b4 17 5e bb
       0.00094284595 0.0019129957 -7.658665e-05 -0.003388864
0000d0 ad 12 73 ba 1a ab e2 37 14 53 b8 39 c2 63 d6 ba
       -0.0009272497 2.7020975e-05 0.00035157113 -0.0016356634
0000e0 91 c1 c3 3b 07 00 c3 3b 7e bd 9d 3b e8 49 bd bb
       0.0059740026 0.005950931 0.004813849 -0.0057766326
0000f0 19 6a 53 3b 32 88 bc bb be f0 bf bb 0c f8 d3 3b
       0.0032259284 -0.0057535404 -0.005857556 0.0064687785

mhsa_value_dense/BiasAdd/ReadVariableOp f4 [64]
000000 45 6c 59 3b c4 91 2e 3c 34 d3 97 ba d2 b7 23 bb
       0.0033176106 0.01065487 -0.0011583329 -0.0024981392
000010 da c3 69 3b 88 1b 4c ba 01 fe cd ba e4 11 de bb
       0.0035669715 -0.0007786085 -0.0015715958 -0.006777035
000020 c2 50 ea 3b 6f 88 0b bc 4e 97 aa 39 05 78 a7 3b
       0.0071507404 -0.008516415 0.00032537658 0.005110743
000030 ce 7d c6 3b 8e 06 81 b9 40 8e ce 3a 7f cb 1d 3a
       0.0060574776 -0.0002460968 0.0015758947 0.0006019398
000040 07 6f 44 bc 28 72 a8 39 e7 e0 11 bc b4 bf 08 39
       -0.011989362 0.0003212851 -0.008903719 0.00013041386
000050 53 7b 4c bb 64 2f 42 bb d5 fa 08 bc 6a 1c 80 3b
       -0.0031201437 -0.0029630298 -0.008360584 0.003909637
000060 fb 52 2f bc fa 27 42 bc 97 6f 36 bc 3d 18 8f 3b
       -0.010700936 -0.0118503515 -0.0111350035 0.004366903
000070 62 d3 59 3b 58 ef 6b 3a 52 56 91 3b 62 8b 0c 3c
       0.0033237566 0.00090002036 0.004435339 0.008578153
000080 07 3a 46 bb 49 16 5d 3b dd 28 9b 3b ff 0e 10 3b
       -0.003024699 0.0033735207 0.004735096 0.0021981595
000090 45 f6 bb bb c5 c7 9a 3b 4f d6 3a 3a 7a 69 bf bb
       -0.0057361447 0.0047235214 0.00071272714 -0.005841431
0000a0 f1 06 10 bc b6 f2 d1 3b b8 0a 88 bb e3 5e 5b 38
       -0.008790717 0.006407107 -0.0041516684 5.230204e-05
0000b0 15 cf 9f ba 4a 1d 79 3b 88 44 6c bb 9f da fa bb
       -0.0012192453 0.0038011842 -0.003605159 -0.007655456
0000c0 12 8b 4e 3c 16 33 43 3a 22 24 cc ba 10 9d 40 3b
       0.012606399 0.0007446272 -0.0015574733 0.0029390492
0000d0 b4 f7 8f 3a e3 8f 91 bb 3c 0b 1e bb 6e 2f 50 bc
       0.0010983855 -0.0044422015 -0.0024115583 -0.012706621
0000e0 60 68 20 b9 42 85 e3 3b fa 6e 9d ba 31 ac 77 3a
       -0.00015297672 0.006943376 -0.0012011223 0.0009447961
0000f0 ef 1b cb ba 6c a5 56 3c 2b 76 b3 3a 6a 6c c2 bb
       -0.0015495996 0.013100963 0.0013691833 -0.005933334

vision_transformer/patch_projection_dense/BiasAdd/ReadVariableOp f4 [64]
000000 bf e9 19 bb db c9 1f bc f8 1f 06 b9 47 67 50 3b
       -0.002348527 -0.009752716 -0.00012791145 0.003179984
000010 8c ed 8e 3a b5 3d 1d 3b 21 88 aa bb 32 d9 e9 ba
       0.0010904535 0.002399308 -0.005204216 -0.0017841219
000020 b7 f0 09 3b cd 2b ed ba 29 53 30 39 04 79 9a bb
       0.0021048018 -0.0018094719 0.00016815648 -0.004714133
000030 03 76 28 3c 9b 21 e7 b9 23 5c 31 3b 7e 7e 8f 3a
       0.010282042 -0.0004408479 0.0027062974 0.0010947732
000040 17 4c 9b ba 2b cc 45 bb ff 55 0a 3c 98 53 2f 3b
       -0.0011848238 -0.0030181508 0.008443355 0.0026752707
000050 5f f4 ad bb 34 d6 97 3b e2 46 13 bc 29 d9 cf 38
       -0.0053086723 0.0046336893 -0.008989068 9.9109784e-05
000060 73 96 09 3c a2 d7 41 3b 44 11 1e 3a e9 0b 72 bb
       0.008397686 0.002957799 0.00060297945 -0.0036933369
000070 39 ed ca bb 49 45 5e 3b 34 e4 d5 bb a0 55 fe 3a
       -0.00619283 0.003391581 -0.006527448 0.001940418
000080 4e 19 3d 3c 2a 8c 1b bb 3c da 8e 3b e5 14 98 3b
       0.011541678 -0.0023734667 0.0043595117 0.0046411627
000090 51 ca 83 ba 52 b5 0a bc 29 f0 ca bb 0b e8 04 3c
       -0.0010054802 -0.008466082 -0.00619318 0.008111964
0000a0 3f 81 f3 3b 67 b8 ed 3b d6 a8 29 bc e2 b3 cb 3b
       0.007431179 0.0072546485 -0.010355195 0.006216512
0000b0 05 24 59 3b 10 79 1d ba 90 5c 6b bc ca e1 b7 bb
       0.0033133042 -0.00060071144 -0.01436533 -0.005611633
0000c0 f7 06 89 bb d1 de 9d b9 bf 74 2e 3b e2 44 a5 bb
       -0.0041817385 -0.00030111385 0.002661988 -0.005043612
0000d0 71 57 e3 3b 71 29 d0 ba 32 36 1c 3b 7c 64 b9 3b
       0.006937914 -0.0015881491 0.0023836014 0.0056577306
0000e0 92 e2 ce 3a 4c ad c7 b9 32 c5 13 bb eb 35 8b 39
       0.0015784076 -0.00038085354 -0.0022547957 0.00026552318
0000f0 de 34 0d bc 32 b6 61 3b 1e 90 2d 39 13 82 8f ba
       -0.008618562 0.0034440872 0.00016552254 -0.0010948799

vision_transformer/mlp_head_softmax/BiasAdd/ReadVariableOp f4 [5]
000000 9b 20 d0 bd 34 d9 d8 bb 35 aa 1c 3d 8e 51 9c bb
       -0.10162469 -0.0066176895 0.03824826 -0.0047704643
000010 8a 41 a6 bc
       -0.020294923

vision_transformer/mlp_head/mlp_head_dense1/BiasAdd/ReadVariableOp f4 [32]
000000 cf f6 8c 3c d0 a8 6e 3c 6d d8 e0 3c 6b a2 85 3b
       0.017207531 0.014566615 0.02744695 0.0040781996
000010 5b 55 62 3c 48 77 09 bc 2f 8c 8b ba a6 81 68 3c
       0.013814296 -0.008390255 -0.0010646636 0.014191067
000020 29 6f e8 bc 23 47 36 bc 92 fe 6a bc d8 aa 71 3c
       -0.028373318 -0.011125359 -0.014342921 0.014750205
000030 f7 1e 7c bc a2 e8 db bc 96 6e 72 bc e8 48 76 3c
       -0.015388242 -0.026844326 -0.014796874 0.015032031
000040 c5 d8 82 bc 09 80 f5 bc 30 8e 1b 3c d9 a0 40 bb
       -0.015972504 -0.029968278 0.009494349 -0.0029392748
000050 12 88 a0 ba 3d c3 70 3b 37 18 32 3d 98 e7 4e bb
       -0.0012247583 0.0036737465 0.043480124 -0.0031571146
000060 23 68 fd bb 52 9a fc bc 61 47 18 bd e8 8d 5a bc
       -0.0077333613 -0.030835304 -0.037177447 -0.013339497
000070 f4 5e 47 bd 5b b7 cf bb fd d7 87 3b 4d 47 65 3b
       -0.04867454 -0.0063389963 0.004145621 0.0034985126

vision_transformer/mlp_head_layerNorm/batchnorm/ReadVariableOp f4 [64]
000000 54 d1 23 bc 79 3a 52 3b db 0b cd bb 93 ec 88 3c
       -0.009998638 0.003207831 -0.006257517 0.01671437
000010 6b 7e 65 3c 3e 4d 36 3b 21 4a 9f ba eb ef f8 3c
       0.014007191 0.0027817036 -0.001215283 0.03038784
000020 d8 d8 ca ba 00 6f cf bb 58 f9 1a 3c 07 d5 0b bd
       -0.0015476001 -0.006330371 0.009458862 -0.034138706
000030 52 32 1f 3d d8 e8 66 bb c2 1c 0d 3c 6b 38 3e 3b
       0.03886635 -0.0035234 0.008612813 0.0029025327
000040 7b 2e de bc af b9 2e 3c 65 18 2f bc 14 bd b6 3c
       -0.027121773 0.010664388 -0.010686968 0.022306956
000050 bf 9d f0 ba fe cc 0c 3c 7d ee b2 3b d3 24 fa 3b
       -0.0018357559 0.008593796 0.005460559 0.0076337843
000060 42 ee e5 3c 89 b5 39 3c 1f 6f 9e bc f2 db c1 3b
       0.028067712 0.011334785 -0.019340096 0.005916112
000070 df b9 b2 bc 1f 1e 7c 3b d8 d8 01 3c df 7b 12 bb
       -0.021817146 0.0038470102 0.007925235 -0.0022351665
000080 3a 0d 5f bc 72 d8 bb bc f7 dd 01 bb 84 35 29 3c
       -0.013613993 -0.022930358 -0.001981614 0.0103277005
000090 96 7c ca bc cc a3 a7 3b a9 53 ab bb 80 f5 cc 3c
       -0.02471761 0.0051159617 -0.005228479 0.025019407
0000a0 5d 0a 9a 3a ab 52 10 3c 7c e4 1f 3b 93 d2 be bb
       0.0011752356 0.008808772 0.0024397662 -0.0058234422
0000b0 79 09 d4 3b b5 8f e5 bb 2b 5c 5d 3c b5 8d 3a 3c
       0.006470856 -0.0070056566 0.013510744 0.011386325
0000c0 a0 34 bb 3b ef be 87 3b 29 cf c8 bc 35 18 c1 bb
       0.0057130605 0.004142634 -0.024512844 -0.0058927783
0000d0 a3 40 94 bb 11 a4 34 bc df 9b 7b 3c 44 85 40 3c
       -0.004524307 -0.011025445 0.015356987 0.011750523
0000e0 98 fe e1 3b 62 f6 4e bc c7 54 db 3c 78 83 be bb
       0.006896805 -0.012631984 0.026773823 -0.005814012
0000f0 c9 2c 63 bb e6 29 15 3c 6b db a8 3b db c1 a9 bc
       -0.0034664145 0.009104228 0.00515311 -0.02072232

vision_transformer/mlp_head_layerNorm/batchnorm/mul/ReadVariableOp f4 [64]
000000 e5 db 7e 3f 85 e4 7e 3f 25 a0 7f 3f fe d9 7b 3f
       0.9955428 0.99567443 0.99853736 0.98379505
000010 9f f3 7d 3f 9f 6b 7c 3f 8e 22 7d 3f 93 b0 81 3f
       0.9919986 0.98601717 0.9888085 1.0132011
000020 74 3a 7e 3f 77 03 7e 3f 5c b9 79 3f 59 7f 7a 3f
       0.9930794 0.99224037 0.9754846 0.9785057
000030 3f fa 7c 3f b7 12 7e 3f 36 06 7c 3f 9c 9b 7d 3f
       0.98819345 0.99247307 0.9844698 0.99065566
000040 43 97 82 3f 8f fd 7c 3f 38 88 7a 3f ea db 7c 3f
       1.0202411 0.988244 0.97864103 0.9877306
000050 1d 7d 7c 3f d0 85 7c 3f 32 6b 7e 3f 58 68 79 3f
       0.9862841 0.9864168 0.9938232 0.9742484
000060 b9 af 7e 3f 90 14 7d 3f 6c c2 7b 3f 48 6d 7c 3f
       0.9948688 0.988595 0.9834354 0.9860425
000070 df 40 80 3f a6 7a 7f 3f 71 79 7b 3f 88 3a 7f 3f
       1.0019797 0.9979652 0.9823218 0.99698687
000080 3f 10 7c 3f b5 7a 7e 3f a8 8c 79 3f 74 17 7d 3f
       0.9846229 0.99405986 0.9748025 0.9886391
000090 a1 50 7e 3f e0 0e 7b 3f f1 aa 7d 3f 68 91 77 3f
       0.9934178 0.9806957 0.9908896 0.9670625
0000a0 50 00 7c 3f 10 cb 7d 3f 76 ff 7d 3f 72 1f 80 3f
       0.98437977 0.99137974 0.9921793 1.0009596
0000b0 3d 46 7d 3f 5e 71 7c 3f 73 62 7b 3f 7b a1 7c 3f
       0.989353 0.98610485 0.98197097 0.986839
0000c0 a3 cb 7b 3f 43 d5 7d 3f 33 6d 81 3f 0d 29 7b 3f
       0.983576 0.99153537 1.011145 0.98109514
0000d0 7c 51 7c 3f 7e 44 7e 3f e8 7f 7b 3f db c2 7a 3f
       0.98561835 0.9932326 0.98242044 0.97953576
0000e0 bb 1f 79 3f ef 6e 7a 3f 8d 48 81 3f 45 a6 7b 3f
       0.9731404 0.9782552 1.0100266 0.9830058
0000f0 a4 1d 7c 3f 48 e5 7b 3f e0 0e 7c 3f 84 ed 80 3f
       0.9848273 0.9839673 0.984602 1.0072484

vision_transformer/Encoder_1/mlp_dense2_encoder/BiasAdd/ReadVariableOp f4 [64]
000000 d8 d1 e7 bb 8a 2c 9d 39 59 d9 93 bc f5 e4 26 3c
       -0.007074576 0.00029978558 -0.018047975 0.010186424
000010 0b 3a ee 3c 12 a0 a9 3b ce 2b 34 bb 54 65 ac 3c
       0.029080411 0.0051765526 -0.002749193 0.02104441
000020 0c a8 be 3b 18 e5 46 bc 3b 8c a3 3b 6d ac e0 bc
       0.0058183726 -0.012139581 0.004991082 -0.027425969
000030 8b 4d e3 3c 63 c8 ce 3b 10 dc b4 3b a5 f1 7b 3c
       0.027746936 0.006310509 0.0055193976 0.015377437
000040 b6 b9 df bc 95 b1 55 3b b2 81 50 bc f9 02 a7 3c
       -0.027310234 0.0032607068 -0.012726234 0.02038716
000050 70 c7 80 bc f3 3a b7 bb ff 67 90 3c ab 5a 2e 3c
       -0.0157201 -0.005591744 0.017627714 0.010641734
000060 c3 49 c7 3c b2 77 89 3c 44 89 b4 bc bb 57 4a 3b
       0.024327165 0.016780708 -0.02203811 0.0030875045
000070 7a 35 e9 bc cb dc bb 39 cd 4b 8c 3b c0 17 8b 3a
       -0.028467882 0.00035831923 0.004281497 0.0010611936
000080 3d e9 b6 bc 15 89 bb bc 41 49 5c 3b 64 64 47 3c
       -0.022328014 -0.022892514 0.0033612999 0.012169931
000090 5b 4b aa bc 92 04 ad bb d6 e9 76 bb 09 0c 39 3c
       -0.020787885 -0.005280086 -0.0037675998 0.011294373
0000a0 74 45 a8 3b 8d 05 04 3c 86 1c 98 bb 97 21 23 bc
       0.0051352326 0.008057964 -0.004642072 -0.009956739
0000b0 b5 40 40 3c b6 2f d6 b8 db 8a 1b 3c fc 88 63 3b
       0.011734177 -0.00010213202 0.009493555 0.00347191
0000c0 8f d4 bb 3b 7d 75 09 3a b9 c5 e1 bc bd 8d e8 3b
       0.005732126 0.00052436424 -0.027560102 0.0070969746
0000d0 ce 96 b4 3b ce 19 fc bb b5 a2 1c 3c 41 0f 84 3c
       0.0055111414 -0.007693506 0.009560277 0.016120555
0000e0 64 53 ba 3a 8f 8a 8e bc b5 bc 2d 3d 11 5a b4 39
       0.0014215526 -0.017400054 0.042416293 0.0003439938
0000f0 dd 61 ae bb 3d 20 8e 3c 3c ca 9a 3b d2 04 e4 bc
       -0.005321725 0.017349357 0.0047238152 -0.02783433

vision_transformer/Encoder_1/mlp_dense1_encoder/BiasAdd/ReadVariableOp f4 [32]
000000 3e a9 09 bc ac 91 a1 3c 26 14 a5 ba 3e 22 a4 39
       -0.008402167 0.019722782 -0.0012594506 0.0003130603
000010 80 2f 98 3b 52 04 b1 3a c8 1e 03 3c fc 3c 53 bc
       0.0046443343 0.0013505316 0.008002944 -0.012892958
000020 be 9d 29 3a 6d 6b 13 bc fe 75 f7 bb 6e 8a 4f 3b
       0.0006470344 -0.00899778 -0.0075519076 0.0031668204
000030 3f 21 42 3a 12 c1 50 3b 58 41 19 bc 8b 14 18 3c
       0.0007405467 0.003185336 -0.009353958 0.009282242
000040 d9 88 aa bb 0e 55 d2 bb ba 86 17 ba 82 fe b1 3a
       -0.005204302 -0.0064188307 -0.00057802687 0.0013579878
000050 28 6b 10 bc 39 a4 54 bc a0 eb d6 bb 9e ea 81 bc
       -0.008814611 -0.012978607 -0.0065588504 -0.015858945
000060 25 08 5e bb 4d d3 f7 b9 3f bc c0 bb 45 bd 54 bb
       -0.0033879366 -0.00047268943 -0.0058818157 -0.0032461446
000070 27 27 84 3b c6 a5 68 bc e7 5a 96 3c d6 d7 0e 3c
       0.0040329876 -0.01419968 0.018353892 0.0087184515

vision_transformer/Encoder_1/layerNorm2_encoder/batchnorm/ReadVariableOp f4 [64]
000000 e2 bf 60 bc 56 99 91 3c 64 51 1e ba f2 ae 25 bb
       -0.013717623 0.017773312 -0.000603935 -0.0025281277
000010 3a eb b3 bc fa 48 ac ba 4e c6 93 bb f9 3f e1 ba
       -0.02196275 -0.0013144307 -0.0045097237 -0.0017185203
000020 47 19 9b bb 9b 11 fd 3b 8a 16 2b 3a 39 88 00 3a
       -0.004733238 0.007723046 0.0006526491 0.0004903111
000030 cf 90 5d 3b 20 4e 08 3c e8 9e 02 3a c1 02 a5 3c
       0.0033808236 0.008319408 0.00049827853 0.020142915
000040 6d 32 1a 3c b7 63 49 bc ab e0 a2 bb 0f 7a e0 3a
       0.0094114365 -0.01229184 -0.00497063 0.001712622
000050 2a 53 6a 3c 24 a0 48 bc c2 0d 7a bc af 07 1a 3b
       0.014302054 -0.012245212 -0.015262069 0.0023503115
000060 d9 5e d7 bb 2f 6d bf bb 85 84 fc 3b a4 ee db b9
       -0.006572586 -0.005841873 0.0077062272 -0.00041948736
000070 68 b7 9b bb 7e 16 2a 3c 1c cd 44 bb 77 34 f2 3b
       -0.0047520883 0.010381339 -0.0030029481 0.007391508
000080 e3 2a 79 bb 66 14 3b 3c e4 c1 22 3c 95 c8 69 b9
       -0.0038019947 0.011418438 0.009933922 -0.00022295334
000090 4a 86 0b 3c 1e 06 1d bb ce 56 b8 3a a3 b1 bc 3a
       0.008515904 -0.0023959945 0.0014063956 0.0014396202
0000a0 b1 8a ed bb 88 3a 02 bb 2a ad fe bb 3d bf a3 ba
       -0.0072491993 -0.0019871313 -0.0077721076 -0.0012492907
0000b0 d6 d0 8c bb a8 3f 80 bb 7c ad 33 b8 b0 a9 18 3c
       -0.004297356 -0.0039138384 -4.2838496e-05 0.0093178
0000c0 e0 c7 5f 3b 9b fe 90 bc 10 b2 7e bb d4 bc 21 3c
       0.0034146234 -0.01769953 -0.0038863458 0.00987168
0000d0 79 d6 24 bb bf 54 df ba 73 91 db bb 3b e6 99 ba
       -0.002515225 -0.0017038806 -0.0067006885 -0.0011741588
0000e0 31 72 35 bb f9 74 14 bc d4 55 76 bc ca 49 fe bb
       -0.0027686472 -0.009061092 -0.015035111 -0.007760261
0000f0 8f 03 70 3c 24 82 4d 3c 96 ae c1 bb 3a ec 8f 3b
       0.014649286 0.012543235 -0.005910705 0.004392174

vision_transformer/Encoder_1/layerNorm2_encoder/batchnorm/mul/ReadVariableOp f4 [64]
000000 96 de 80 3f f4 4b 7f 3f 08 f8 7d 3f 29 ef 7c 3f
       1.0067928 0.9972527 0.9920659 0.9880243
000010 e1 2a 82 3f 02 e8 7d 3f b2 04 80 3f 9e 3e 7e 3f
       1.0169336 0.9918214 1.0001433 0.99314296
000020 55 0e 7e 3f 10 ee 7e 3f 16 ca 7f 3f 50 e0 7e 3f
       0.9924062 0.99582005 0.99917734 0.99561024
000030 93 00 80 3f 8c 59 80 3f ce cc 7f 3f 7a 0e 81 3f
       1.0000175 1.0027328 0.9992188 1.0082543
000040 4f d1 7f 3f 22 9e 81 3f ae 6f 7f 3f 6e 16 80 3f
       0.99928755 1.0126383 0.99779785 1.0006845
000050 2c 93 7c 3f d0 5e 81 3f 7d 6c 81 3f 11 65 7e 3f
       0.98662066 1.010706 1.0111233 0.99372965
000060 d3 26 80 3f ec 9a 80 3f 6a 92 80 3f dc 7f 7e 3f
       1.0011848 1.0047278 1.0044682 0.9941385
000070 9f a1 7d 3f 15 e1 80 3f 8a 14 80 3f e8 74 7d 3f
       0.9907474 1.006869 1.0006268 0.9900651
000080 1a f4 7e 3f af fc 7e 3f 76 e5 7d 3f 8c 1a 7e 3f
       0.9959122 0.99604315 0.99178255 0.9925926
000090 b8 1e 80 3f 0a d8 7d 3f 35 31 80 3f c3 89 7f 3f
       1.0009375 0.99157774 1.0015017 0.9981958
0000a0 8a a3 7e 3f ce 31 7f 3f 7a 3e 80 3f c1 96 7f 3f
       0.9946829 0.9968537 1.0019066 0.9983941
0000b0 5c bd 7d 3f 67 6e 80 3f 2d e1 7f 3f fb f5 7d 3f
       0.99117064 1.0033692 0.99952966 0.9920346
0000c0 47 02 80 3f 3e ba 80 3f 9d 89 80 3f 9f 5d 7f 3f
       1.0000695 1.0056837 1.0041996 0.9975223
0000d0 99 23 80 3f ef 58 7e 3f 03 41 80 3f 87 ca 7f 3f
       1.0010864 0.9935445 1.001984 0.9991841
0000e0 f1 9b 7d 3f c9 5b 7d 3f ec d7 80 3f a2 87 80 3f
       0.9906607 0.9896818 1.0065894 1.0041392
0000f0 f9 d6 80 3f 45 d9 80 3f 52 87 7f 3f 14 84 7f 3f
       1.0065604 1.0066305 0.9981586 0.9981091

vision_transformer/Encoder_1/layerNorm1_encoder/batchnorm/ReadVariableOp f4 [64]
000000 7d 2e 89 bb 71 62 37 bc 4f d3 97 ba ac 7d 1a 3b
       -0.00418645 -0.011192904 -0.0011583361 0.0023573441
000010 6d 80 9d 3a bb f2 94 3b 52 f1 bc bb e1 d1 75 ba
       0.0012016423 0.0045455373 -0.0057660723 -0.00093772827
000020 f0 8a 57 3b 13 73 4e ba 97 58 e9 3a 83 2c b8 bb
       0.003288921 -0.0007875424 0.0017802891 -0.0056205406
000030 0b f8 1d 3c d0 b6 0f 3a a0 c0 eb 3a c3 42 10 3b
       0.009641658 0.0005482258 0.0017986484 0.002201245
000040 2a 0d 09 bb 1f 9c 62 bb 77 df 05 3c 1d 03 e2 3a
       -0.0020912387 -0.0034577919 0.008170954 0.001724336
000050 80 93 a3 bb 8a 03 6b 3b b8 7f 0d bc d5 9d 0d ba
       -0.0049919486 0.0035860264 -0.008636408 -0.0005402242
000060 f5 67 0f 3c b3 de 11 3b 1b 0e 9d 3a b8 0c 81 bb
       0.008752813 0.0022257983 0.0011982353 -0.003938284
000070 3a 10 8c bb bc 1a 2d 3b 7a cc b5 bb e6 c2 0b 3a
       -0.0042743953 0.002641364 -0.005548057 0.00053314713
000080 36 70 38 3c 7b 58 0b bb 89 68 7e 3b b1 5a 97 3b
       0.011257222 -0.0021262455 0.0038819632 0.0046189656
000090 ee c2 8d ba 88 75 04 bc 8b fa a5 bb c3 31 f5 3b
       -0.001081554 -0.008084662 -0.0050652674 0.0074827387
0000a0 dc d1 d0 3b 0d 7c ca 3b 66 79 32 bc 1a e7 ba 3b
       0.0063726734 0.006179339 -0.010893201 0.005703819
0000b0 54 07 78 3b cc 40 8e ba 4f e6 61 bc d2 e1 8d bb
       0.0037846165 -0.0010853051 -0.01378782 -0.0043298984
0000c0 cc 8c 92 bb 32 6e 7a b9 e2 ea 90 3b ce b4 97 bb
       -0.0044723507 -0.00023882909 0.0044225315 -0.004629708
0000d0 70 2c cc 3b 70 a9 25 bb d4 86 38 39 fe ed c1 3b
       0.0062308833 -0.0025277995 0.00017597835 0.0059182635
0000e0 aa 6e 13 3b fe 0e 69 39 c7 b5 0c bb 49 eb 57 ba
       0.002249638 0.00022226197 -0.0021470652 -0.00082366593
0000f0 e2 84 08 bc d6 27 0a 3b bf d4 c8 39 b5 82 22 bb
       -0.008332463 0.0021080873 0.0003830548 -0.0024797146

vision_transformer/Encoder_1/layerNorm1_encoder/batchnorm/mul/ReadVariableOp f4 [64]
000000 40 78 80 3f 15 77 81 3f 73 4a 80 3f 80 8c 80 3f
       1.0036697 1.0114466 1.002272 1.0042877
000010 fe 10 80 3f d1 81 80 3f 6d a2 7e 3f a8 a9 80 3f
       1.0005186 1.0039617 0.9946659 1.0051775
000020 4f f3 7f 3f 38 2f 80 3f 91 1a 80 3f 48 50 7e 3f
       0.99980634 1.001441 1.0008107 0.9934125
000030 17 70 7d 3f 91 a0 80 3f 90 5e 7e 3f 32 b8 7f 3f
       0.9899916 1.0049001 0.9936304 0.99890435
000040 c6 f3 7f 3f 4c 42 7f 3f a2 09 81 3f 8c 30 80 3f
       0.99981344 0.99710536 1.0081065 1.0014815
000050 ce 84 80 3f bb f3 7e 3f 03 d3 80 3f 19 ee 7f 3f
       1.0040529 0.99590653 1.0064396 0.99972683
000060 e4 c1 7d 3f 9e 53 7f 3f 4d c1 7f 3f 02 5e 80 3f
       0.9912398 0.99736965 0.9990433 1.0028689
000070 f9 ef 7d 3f 24 8d 7e 3f 7f dc 80 3f c0 78 7f 3f
       0.99194294 0.99434114 1.006729 0.99793625
000080 1d 74 81 3f ff ec 7e 3f 07 7e 80 3f ee 85 80 3f
       1.011356 0.9958038 1.003846 1.0040872
000090 73 a1 7f 3f 10 2e 81 3f 2e fc 80 3f c9 5b 7e 3f
       0.99855727 1.0092182 1.0076959 0.99358803
0000a0 fc 51 7e 3f af f1 80 3f da 01 7d 3f c9 ba 80 3f
       0.9934385 1.0073756 0.9883095 1.0057002
0000b0 be 3f 80 3f 21 a7 7f 3f b8 7c 7c 3f 25 bb 80 3f
       1.0019453 0.99864393 0.98627806 1.0057112
0000c0 a3 85 80 3f 21 92 7f 3f 08 c9 7f 3f 65 97 7f 3f
       1.0040783 0.9983235 0.99916124 0.99840385
0000d0 f8 54 7e 3f 4e 47 80 3f a9 46 80 3f bd 99 80 3f
       0.993484 1.002176 1.0021564 1.0046917
0000e0 7e be 7f 3f 5d 13 80 3f 11 58 7f 3f d6 69 7f 3f
       0.99900043 1.0005909 0.99743754 0.9977087
0000f0 2e 0e 81 3f 3d 28 7f 3f cd f4 7f 3f fd 7a 80 3f
       1.0082452 0.99670774 0.9998291 1.0037533

vision_transformer/BroadcastTo/ReadVariableOp f4 [1, 1, 64]
000000 50 65 57 be 65 76 39 be 4c 17 e9 3c 33 4d 93 be
       -0.21034741 -0.1811157 0.028453492 -0.28769836
000010 9b 5c 21 be 9c c9 50 3e b6 2b 6e bd b2 98 63 3e
       -0.15757982 0.20389408 -0.058147155 0.22226217
000020 a8 04 6d be 0c a4 1c 3d 1f f9 75 3e bd f7 65 3e
       -0.23146307 0.038242385 0.24020813 0.22457786
000030 09 86 37 bd 5d 99 99 3e b2 5f 88 3c 1d 7a 06 3e
       -0.04480556 0.2999982 0.016647194 0.1313252
000040 9e 89 a5 be f1 05 78 be d6 3b dd bb da d8 04 3e
       -0.32331556 -0.24221016 -0.0067515178 0.12973347
000050 24 6e 7f be b2 22 b7 3d 64 87 1d bc b5 1c 35 3e
       -0.24944359 0.089421645 -0.009614799 0.17686732
000060 53 ce d8 bd fe be 35 be 5d 15 3a be 3e 80 82 be
       -0.10586228 -0.17748639 -0.18172212 -0.25488466
000070 0a c9 43 be fe e3 8b 3e e2 3b 86 3e f7 5c 00 be
       -0.19119659 0.27322382 0.26217562 -0.12535463
000080 44 55 12 3e ba 2f 8c be 5a 02 04 be 08 dc 9a 3e
       0.14290339 -0.27380162 -0.12891522 0.30245996
000090 80 a9 18 3e 5b 99 03 3e 09 df 16 3e 0e 8f 10 3e
       0.14908409 0.12851469 0.14733519 0.14117071
0000a0 42 91 c0 bb d4 56 3f be 30 20 fe 3d 0e 1e 50 be
       -0.005876691 -0.18685466 0.12408483 -0.20323965
0000b0 37 19 37 be 38 db 6e be 07 a8 83 3e 12 a4 02 3e
       -0.17880712 -0.23325813 0.25714132 0.127579
0000c0 fe 5c bc 3d 5b 18 f7 3d 2f 28 dc 3d 1c ff 1e be
       0.09197424 0.12065192 0.10749852 -0.15527004
0000d0 8e ff 62 bc 86 a4 0e be e0 6e 2a 3e 04 7d 89 be
       -0.013854874 -0.13929948 0.16643858 -0.26853192
0000e0 84 33 42 3e e2 73 3b 3e 84 8f 43 3e a2 35 24 3e
       0.18964964 0.18305925 0.19097716 0.16036084
0000f0 08 19 f3 bc 30 fd 95 3e b3 e7 8a bd 5d bb 94 be
       -0.029675022 0.2929473 -0.06782474 -0.29049197

vision_transformer/add/ReadVariableOp f4 [1, 61, 64]
000000 69 4f e4 3d 8e 7b f1 bd 1a 65 00 be c1 b6 44 3e
       0.11147959 -0.11791144 -0.12538567 0.1921034
000010 e7 5e 6c 3e 6e fc 43 3e 75 87 ad 3c c2 96 70 3e
       0.23083077 0.19139263 0.021182755 0.2349501
000020 ca b8 9f bd ee 3b 11 bd 82 33 e1 bd c4 1d 0c 3b
       -0.077989176 -0.035457544 -0.109961525 0.0021380046
000030 61 a6 3f 3e 8b 88 60 3e 1a de 21 3e 71 ed 2e bd
       0.18715812 0.21927087 0.15807381 -0.04270691
000040 e9 8b 09 3d 88 f0 ca bc fe 49 41 3e b3 bc 55 3e
       0.033580694 -0.024772897 0.18875882 0.20872764
000050 58 44 1e be a2 62 67 be 13 5a e2 3d 00 1b f3 3d
       -0.15455759 -0.22596219 0.110523365 0.11870384
000060 1a 80 d4 bd 09 b9 e9 bb e0 07 f0 bc 03 a4 3f 3d
       -0.10375996 -0.0071326536 -0.02930063 0.046787273
000070 be 1e 93 3d a1 1a e9 bd f2 6b 51 bd 52 f5 17 3e
       0.07183598 -0.11382032 -0.051128335 0.14839676
000080 ff 76 4e bb 27 4d 1b 3e 97 fc 97 bc f1 f8 13 3e
       -0.0031504033 0.1516615 -0.018553061 0.14450432
000090 c5 a2 19 3e fc 6d 24 bd d1 4f 5d 3e 8b d7 58 3c
       0.15003498 -0.04014395 0.21612479 0.013234983
0000a0 b0 15 99 bd f6 60 be 3d ff cc 90 bc fa 8f 3e 3c
       -0.0747484 0.092958376 -0.017675875 0.011631006
0000b0 32 10 06 3e 07 7f 04 be e8 31 33 be 1f f7 5a 3e
       0.13092116 -0.12939082 -0.17499506 0.21383332
0000c0 4a 47 09 be 8c c6 01 bb 81 21 68 be 8d 1b ec bd
       -0.13406101 -0.001980218 -0.2266903 -0.115286924
0000d0 23 76 f9 bd b6 dd 90 bb fc ad 4d be 50 b1 3e 3e
       -0.12180736 -0.0044209613 -0.20085901 0.18622327
0000e0 7f 2c cd 3c 59 7a 07 3d 3c f5 24 be 1e be 8e bd
       0.025045631 0.033075664 -0.16109174 -0.06969856
0000f0 3c 99 49 3d 43 39 2e 3e c6 2a 3d 3e 4c 75 8b bd
       0.0492184 0.17014031 0.18473348 -0.06809482
000100 8e d9 5a 3d 5c 7e 16 3e be 1c 90 3d 64 c0 88 bd
       0.053430133 0.1469664 0.07036732 -0.066773206
000110 0c 6a 32 be d4 cd 47 be 72 e5 3d 3e 7c 1d 28 3e
       -0.17423266 -0.19512111 0.18544558 0.16417497
000120 a0 1e aa bd b4 7a 53 3e 61 10 bf bd cc 63 22 be
       -0.083066225 0.20652276 -0.09329296 -0.15858382
000130 cd eb 05 be 2e d6 fe 3d 56 b4 17 be 4c e5 1a 3e
       -0.13078232 0.12443195 -0.14814886 0.15126532
000140 5e a9 e1 bd e8 c3 b8 3d 68 69 11 be 43 ea 50 be
       -0.11018632 0.09021741 -0.14200366 -0.20401864
000150 fb a7 a0 3d 4d 3b 3b be ce 82 0c 3e 3a 36 87 3d
       0.0784454 -0.1828434 0.13721773 0.0660214
000160 a7 1b fe 3d 36 91 20 3e 86 d4 f1 bd c3 ef b4 3c
       0.12407618 0.15680394 -0.11808114 0.022086984
000170 34 c6 40 bd 58 a6 a0 bc c4 a5 3a 3e c2 1f a1 3d
       -0.04706402 -0.019610569 0.18227297 0.078673854
000180 03 b6 a8 3d ba 13 b3 bc 7b 85 4e 3e 47 67 90 bd
       0.08237841 -0.021859992 0.20168106 -0.070509486
000190 e4 b0 bf bc 47 3e 98 3d 85 19 28 be 0e 57 ec bb
       -0.023399778 0.074337535 -0.16415985 -0.007212526
0001a0 d9 d7 03 bc 1b 35 83 3d 76 8e 2e bd aa 6e 13 bd
       -0.008047068 0.064066134 -0.04261633 -0.03599421
0001b0 7a 40 4a be 59 12 2e 3e 4f e7 0f 3d c4 da 3b 3e
       -0.19751158 0.16999187 0.035132702 0.18345171
0001c0 8f 35 55 3e c2 49 ea bd 93 e7 65 3e 8c 22 51 3e
       0.20821212 -0.114398494 0.2245162 0.20423335
0001d0 11 d5 58 be 3d a9 60 3e 58 11 e4 3d a2 a0 bb 3c
       -0.21175028 0.2193956 0.111361206 0.022903744
0001e0 4d 7c 09 be 46 8d fb 3c eb b6 fa bd 99 c4 59 be
       -0.13426323 0.030707013 -0.1224192 -0.21266402
0001f0 fa 65 47 be 7d b3 91 bd 2b c6 2b be a0 ec 3b bd
       -0.19472495 -0.07114313 -0.16774814 -0.04587996
000200 f3 4d 14 3e b4 72 06 3d 0f c4 00 3e 4a c6 23 3e
       0.1448286 0.032824233 0.1257479 0.1599361
000210 7b 52 58 3d 3e 27 a2 3d 87 9c 16 3e 26 df 21 be
       0.052813035 0.07917641 0.14708148 -0.1580778
000220 a3 04 2a be 33 0e 41 be 6a 92 c7 3d 09 4e 18 bd
       -0.16603331 -0.18853073 0.09744723 -0.037183795
000230 8a b2 66 3e 3f 6a 0a 3e 0b 01 25 be 02 b8 a4 bd
       0.22529045 0.13517092 -0.16113679 -0.08042909
000240 d8 57 58 be 0d bf ca 3d b9 8f 04 3e ef 53 23 be
       -0.2112726 0.09899721 0.12945451 -0.15949987
000250 98 b7 f7 bd c7 1a 62 bd 4c 38 fd 3d 53 e9 20 3e
       -0.120955646 -0.055201318 0.123642534 0.15714006
000260 78 6e 0f 3e dd 4a 24 be e2 00 73 bd 4f 04 19 be
       0.14006984 -0.16044183 -0.059327014 -0.1494305
000270 f6 2f 4e be 8d bc e6 3c 85 b4 25 3b 79 d1 78 3d
       -0.20135483 0.02816608 0.00252846 0.060746644
000280 40 f7 14 be c3 c1 1a 3e e5 1b 57 be 72 fc 90 3d
       -0.14547443 0.15112977 -0.21006735 0.070794
000290 fa 1d 2d 3e 33 5a 5a be 2c b8 3e bd 3c c6 15 bc
       0.16905966 -0.21323471 -0.04656236 -0.009141501
0002a0 a1 45 5f bd 41 4b 0f be 7d 5b 3a 3e 1a 4d 73 3b
       -0.054509763 -0.13993551 0.18198963 0.0037124814
0002b0 05 8e 0a 3e fd ee e4 bc 7a 9b 98 bd b4 7c 97 3c
       0.13530739 -0.02794599 -0.0745153 0.01849208
0002c0 aa 93 31 be c9 58 3b be 1c c2 3b 3e 51 27 83 3d
       -0.17341486 -0.18295588 0.18335766 0.064039834
0002d0 2b 72 17 3e 1b 9a 25 be 69 c4 ef bd 23 17 55 be
       0.14789645 -0.16172068 -0.11707384 -0.20809607
0002e0 6a 6b 4c 3e 81 b5 45 3e c9 7e cb bd f5 34 b8 3d
       0.1996285 0.1930752 -0.09936292 0.08994476
0002f0 94 e1 00 3e be 8e b9 3c c2 81 18 3e 55 53 e1 3b
       0.12586051 0.022651073 0.14893249 0.006876389
000300 82 92 07 bd 86 fd 0d be a6 fa 38 be 03 59 05 be
       -0.033098705 -0.13866243 -0.18064365 -0.13022237
000310 be 59 33 3e 99 41 f1 3a 8b bc 20 be 10 5e 9f bd
       0.17514703 0.001840639 -0.15696923 -0.07781613
000320 f6 50 8c 3d 0c ac 10 be be c2 de 3d 5f 1f b0 3d
       0.068513796 -0.1412813 0.10876988 0.085997336
000330 04 49 65 bd bf 7c ab 3d 29 b4 6a bd 48 14 12 bd
       -0.055977836 0.08373403 -0.05730072 -0.035663873
000340 a1 e3 34 bd a4 20 d8 bd e1 e0 27 be 1d 89 d7 bd
       -0.044162396 -0.10553101 -0.16394378 -0.10524199
000350 1b 93 10 be b6 46 94 3d f9 d3 ce bd 3a fc fc bd
       -0.14118616 0.072400495 -0.10099024 -0.12352796
000360 30 28 f0 3c 6b 17 dd 3c 0a 2a 50 3e 89 5f 06 be
       0.029316038 0.026988706 0.20328537 -0.13122381
000370 a1 06 d0 3d 68 84 af bd 6a cf 1d be 41 65 c1 bd
       0.10157514 -0.08570176 -0.15411153 -0.09443141
000380 5d 41 02 be 95 3f e9 3d 80 66 c5 3c 74 5f 56 be
       -0.12720247 0.113890804 0.024096727 -0.2093485
000390 ed 69 12 be af 91 28 3d a5 26 c4 3d d7 cb 53 be
       -0.1429822 0.04115456 0.09577683 -0.20683227
0003a0 61 ea 14 3e 4b 6e 07 3e ed 31 69 be 76 43 ff 3d
       0.14542533 0.13225667 -0.22772951 0.12464039
0003b0 3b 32 0c be d7 b6 e1 bb 76 27 4f be 3f 96 b1 3d
       -0.13691036 -0.0068882513 -0.20229897 0.08671235
0003c0 c4 23 fc bd 81 76 a9 bd e7 47 9a 3b 51 fb 35 3e
       -0.12311509 -0.08274556 0.0047082785 0.17771651
0003d0 8f c0 77 3d bd 8c fb 3d bf e6 60 3e 00 35 56 3e
       0.060486373 0.12282703 0.21963023 0.20918655
0003e0 23 ce b8 bd 94 3d 53 bd cd b4 e5 bd 18 d8 3e bd
       -0.090236925 -0.051572397 -0.11216126 -0.0465928
0003f0 d5 a0 10 be 94 dd a3 3b a0 c5 ee 3d 23 b0 4a 3e
       -0.14123853 0.0050007794 0.11658788 0.19793753

vision_transformer/patch_projection_dense/Tensordot/MatMul1 f4 [64, 64]
000000 45 09 57 3e dd c4 38 3d 42 72 5d be ad 2b 1c be
       0.2099963 0.04510962 -0.21625617 -0.15251036
000010 29 e4 b6 3d 71 43 01 be f0 1a 12 be cf 1c c7 3c
       0.08930237 -0.12623383 -0.14268088 0.02430573
000020 71 01 2c 3d 43 ce 5c be d0 88 b5 3d 6b d7 1a bd
       0.041993562 -0.21563058 0.088639855 -0.037803095
000030 b5 b7 4d 3e 83 62 1f be ab aa 4e 3e 15 57 53 bd
       0.2008961 -0.15564923 0.20182292 -0.05159672
000040 18 60 d3 3d 33 87 ec bd ca 37 b2 bd 4a cf 92 bd
       0.10321063 -0.11549225 -0.08702047 -0.071684435
000050 09 f6 52 3d 68 e9 67 bd 9c d8 1c be 88 54 0b be
       0.05150417 -0.056619078 -0.15317005 -0.13606465
000060 f0 2c 58 be a0 e4 11 3e c9 da 8f bd f1 62 3f 3d
       -0.21110892 0.1424737 -0.07024152 0.046725217
000070 db 4a 34 3e 71 42 1c 3e d2 8b 61 3d ce 75 47 be
       0.1760668 0.1525972 0.055064984 -0.19478533
000080 d7 23 19 3e 48 a6 96 3d 51 9a cf bc ca 87 c3 bd
       0.14955078 0.073559344 -0.025342138 -0.09547384
000090 18 83 ab 3d 20 85 bd 3d a6 67 e3 3d c3 9d 5e be
       0.083746135 0.09253907 0.11103754 -0.21739869
0000a0 ab 69 f5 3d 2e be 1f be 71 f6 8c 3d 8b 5a 90 3d
       0.11983045 -0.15599892 0.068829425 0.0704852
0000b0 10 b8 d7 3d d0 07 4d be 49 ac 41 3e 80 a9 98 bc
       0.10533154 -0.20022511 0.18913378 -0.018635511
0000c0 ab 0c 00 3e 98 79 09 be e8 6b 1b be 30 61 ed 3d
       0.12504832 -0.1342529 -0.15177882 0.11590803
0000d0 25 bb b7 bd f7 b4 3e be 22 58 1e be 14 bc 9f bd
       -0.08971242 -0.1862372 -0.15463307 -0.07799545
0000e0 b0 22 2d 3e 55 9b fd bd 4b 54 eb 3d 35 27 2f be
       0.16907763 -0.12383143 0.11490687 -0.171048
0000f0 7d 32 5d bb 13 a4 3c 3e 67 04 e1 bd bd 9d 46 be
       -0.0033752017 0.18421964 -0.10987168 -0.1939611
000100 1c 16 54 be dc dd 41 be 01 57 4f 3b 26 83 33 3e
       -0.20711559 -0.18932289 0.0031637552 0.17530498
000110 4f 78 77 bd 26 17 b6 3d 48 08 26 be f7 34 b4 bd
       -0.06041747 0.08891134 -0.16214097 -0.08799165
000120 80 c0 4d be bc e5 c9 3d cf 2f 35 be ab 7f 51 be
       -0.20092964 0.098582715 -0.17694019 -0.20458858
000130 7f 96 cb bd 2c 7c 8a 3d a3 de 3c bd 2c 1b 50 3d
       -0.09940814 0.06761965 -0.04611076 0.050807163
000140 0a c6 03 3e 05 3d f3 bd cd 65 e6 bd f2 ef 7d bd
       0.12868515 -0.11876873 -0.11249886 -0.061996408
000150 0f 5a 88 3d 1f 2e ca bd 07 45 02 3d ca c7 26 be
       0.06657802 -0.09872078 0.03180411 -0.16287151
000160 04 af 3d 3e e9 af 99 bd cd ad c0 3d be 78 40 3e
       0.18523794 -0.07504255 0.0940815 0.1879606
000170 ad e0 2c bc a8 b7 1d 3e 94 5e b2 bd e0 f8 64 be
       -0.010551614 0.1540209 -0.087094456 -0.22360563
000180 b4 cd 22 be f2 0a f8 bd e3 7a 03 3e d1 b7 6e bd
       -0.15898782 -0.12111463 0.12839846 -0.05828077
000190 2a b5 bb bd 62 21 48 3e 33 70 41 be 95 df 47 3e
       -0.09165414 0.19543985 -0.18890457 0.19518884
0001a0 13 02 4e be 76 46 10 3e 2e f3 cb 3d 20 7f 4f bd
       -0.20117979 0.14089379 0.09958492 -0.050658345
0001b0 39 eb d7 bd 13 22 e5 3d 18 05 19 be 7d dd 35 be
       -0.10542912 0.1118814 -0.1494335 -0.17760272
0001c0 71 dd dd bd a5 02 64 3d 96 0d 0f 3e d4 23 50 3e
       -0.10833252 0.055666585 0.13970026 0.20326167
0001d0 4d 00 09 be f1 a1 ad bd b1 8a ff 3d c0 cd c5 3d
       -0.13379021 -0.084781535 0.12477625 0.09658384
0001e0 c1 18 0e be 87 80 8b 3d 55 9a 07 3e 6f 1a 0f be
       -0.1387663 0.06811624 0.13242467 -0.13974927
0001f0 12 4a fb bd de d5 49 bd 53 97 08 be 92 8c 4a 3e
       -0.12269987 -0.049276225 -0.13338976 0.19780186
000200 fb 3c c6 bd e0 14 68 3d 92 4c d3 bd 05 16 22 3e
       -0.096796 0.056660533 -0.10317339 0.15828712
000210 02 10 ba 3d c0 b8 a2 3d 88 c2 1a 3e 7c ac 0b be
       0.090850845 0.079453945 0.1511327 -0.13640016
000220 09 cc a9 bd 60 5e 21 3e 2a 77 47 be 09 ed 4b 3e
       -0.0829087 0.15758657 -0.19479051 0.1991464
000230 e1 3a 2f 3e b2 6a c9 bd f3 ec fc bd ed 5b 11 3e
       0.17112304 -0.09834804 -0.12349882 0.14195223
000240 68 97 1d 3e 2f 83 ab bd e5 fa 01 3c e9 38 8b bd
       0.15389788 -0.08374631 0.007933353 -0.06797964
000250 a5 2c 0e 3e ce 23 37 3e 61 ef 37 3e 36 7a 51 3e
       0.13884218 0.17884752 0.1796241 0.20456776
000260 ac 8b 44 be 6d b5 9b 3c fa e9 e2 3d 04 d5 2f 3d
       -0.19193906 0.019007409 0.11079784 0.042927757
000270 cc a1 e8 bd f0 ce c1 3d 5e 65 31 3e ec 61 9e bd
       -0.11358985 0.09463298 0.17323825 -0.07733521
000280 9c 65 0e bd 67 63 04 3d 4b ad 50 bc 76 57 73 3d
       -0.03476487 0.03232136 -0.012736629 0.05940958
000290 41 5c a5 3c d6 1e d8 bd f0 34 00 bd 7a ef e3 bc
       0.020185592 -0.105527565 -0.031300485 -0.027824152
0002a0 43 00 2c be 77 e9 59 3e 5a 45 3e be a8 32 06 be
       -0.16796975 0.21280466 -0.18581143 -0.13105261
0002b0 60 b4 ea bc a3 e3 9d 3d 0f 74 0f be 11 a0 09 be
       -0.028650463 0.07709434 -0.14009117 -0.13439967
0002c0 29 12 5b be 26 47 27 be 54 73 df 3d ff bd 0d 3e
       -0.21393646 -0.16335735 0.10910669 0.13842009
0002d0 35 21 48 be b0 5f 0c be 2e fb a5 bd 29 d2 52 be
       -0.19543917 -0.13708377 -0.08104549 -0.20587982
0002e0 36 9f 5c be 27 d5 6c bc f2 19 2a 3d ee c1 dd 3c
       -0.21545109 -0.014455116 0.04152865 0.027070012
0002f0 58 e5 76 bc b8 ae 3e 3e f4 4a 37 be a5 69 30 3e
       -0.015069328 0.18621337 -0.17899686 0.172278
000300 9d 89 39 3e 15 6d 59 be 58 a0 2b be 93 ef 99 3c
       0.18118902 -0.21233018 -0.16760385 0.018790996
000310 3a 47 45 3e 7f 95 12 be 4e 52 de bd e7 45 72 bd
       0.19265452 -0.1431484 -0.10855542 -0.059148695
000320 fb 2f 31 3e ed 16 16 3e 27 5e 66 3d 30 3e 08 be
       0.1730346 0.14657183 0.056242134 -0.13304973
000330 88 2e 4e be c5 9a 4a 3c b8 14 50 be 10 b6 17 be
       -0.20134938 0.0123660015 -0.20320404 -0.14815545
000340 75 91 9e bd 7e 9f 44 3c c0 6f 06 3e 3c 01 da 3d
       -0.077425875 0.0120009165 0.13128567 0.10644767
000350 f8 a8 f7 3d cc 4e 23 3e 32 f0 9c 3c 01 84 b1 3c
       0.12092775 0.15948027 0.019157503 0.02166939
000360 d1 c0 19 3e dd 67 3c 3e 4a 52 03 be 23 cd fd 3d
       0.1501496 0.18398996 -0.1282436 0.12392642
000370 08 d3 b6 3d a4 52 bc 3d 6b c0 53 bd e1 07 0f 3e
       0.0892697 0.0919545 -0.051697176 0.1396785
000380 1f 3f 35 bd 19 f8 e4 bd 54 0d 09 bd 9d 83 05 3e
       -0.04424965 -0.111801334 -0.033459976 0.13038488
000390 e1 bd 28 bd dd 4a dd 3d 61 d4 a6 3d 85 57 97 bd
       -0.041196708 0.10805295 0.08145977 -0.0738974
0003a0 b3 c1 8a 3d 56 b9 03 be 77 bf 55 3e 3f 1d df 3d
       0.067752264 -0.12863669 0.2087382 0.1089425
0003b0 af 9d bf bd 23 b0 41 3e bc e2 0a be b5 42 48 be
       -0.09356248 0.18914847 -0.13563055 -0.19556697
0003c0 7f 1d 08 be dc ed 39 be a6 a2 18 be a1 d8 71 bd
       -0.13292502 -0.18157142 -0.14905795 -0.059044484
0003d0 b9 87 07 bd 19 38 19 3e e9 78 11 be 75 f7 cb 3d
       -0.03308842 0.14962806 -0.1420628 0.09959308
0003e0 09 59 84 3d 6e 28 ae 3d fa da fe 3d 6d df 04 be
       0.064622946 0.08503805 0.1244411 -0.12975855
0003f0 f5 35 2b be 5e f3 2f 3e 49 2b 54 3e f6 ab 05 be
       -0.16719802 0.17182681 0.20719637 -0.13053879

mhsa_key_dense/Tensordot/MatMul f4 [64, 64]
000000 34 84 54 3e a5 14 3c be 59 32 07 3e 30 cf 9a 3d
       0.20753556 -0.1836725 0.132028 0.07559049
000010 13 e2 f2 3d e8 5f 74 bd 7a 5e 24 3d a8 52 2b 3e
       0.118595265 -0.059661776 0.040129162 0.1673075
000020 96 1b 06 3e 97 20 b0 3d 9e c8 d1 bd 49 55 62 be
       0.1309646 0.08599966 -0.10243343 -0.22102846
000030 58 1d b7 bd ed e2 33 bc 1b b7 f2 bd ef 33 51 3e
       -0.08941144 -0.010979396 -0.11851331 0.20429967
000040 d6 6c 21 be dc 38 7c bd 3b 89 9f bd fb 93 b1 3d
       -0.15764174 -0.061577663 -0.077898465 0.08670803
000050 0c f3 1c be 99 f4 51 3e 5f 06 d4 3d b4 11 03 bd
       -0.1532709 0.20503463 0.10352778 -0.031999305
000060 17 69 4d 3e 5a 9d a0 3d 2b da 28 3e 6d 80 b3 3d
       0.2005962 0.078425124 0.16489474 0.0876473
000070 d7 b2 68 bd f8 df 1c be d0 32 0f 3e 39 73 bb bd
       -0.05681118 -0.15319812 0.13984227 -0.09152836
000080 3f 9a 55 bd e7 26 da bd a1 6e 90 bc a8 e1 9c bc
       -0.052149054 -0.10651951 -0.017630877 -0.01915057
000090 17 4e 43 be a7 16 af 3d b4 74 62 3e cf 73 ea bd
       -0.19072758 0.085492425 0.22114831 -0.1144787
0000a0 5f 03 4d be 58 fb 34 be da be 93 bc 29 fe 4f 3e
       -0.20020817 -0.17674005 -0.018035341 0.20311798
0000b0 1f 10 64 3d 41 fb 56 3c 7c 23 19 bd 87 54 4e be
       0.055679437 0.013121427 -0.037387356 -0.20149432
0000c0 76 71 01 be 69 96 9c 3c ba 4d ee 3b 45 cb 06 be
       -0.12640938 0.01911469 0.0072724493 -0.13163479
0000d0 5f 68 40 3d c3 eb 5f be f3 30 28 be 27 02 b8 3b
       0.046974536 -0.2186728 -0.16424923 0.005615491
0000e0 e0 f4 a7 3d fd 0a 40 be dd fe 3e be 89 e8 25 3e
       0.08201003 -0.18754192 -0.1865191 0.16201986
0000f0 7d 39 93 bd 97 dc 4e 3d e4 5c 88 bd 37 7e 76 3d
       -0.071886994 0.05050334 -0.066583425 0.06017896
000100 30 f6 1f bc 7c fd 2f 3e 06 94 c7 bc 1b 0b 81 bd
       -0.0097632855 0.1718654 -0.024362575 -0.06300946
000110 a9 9e 0c 3e 3f 65 0d bd b0 01 b5 bd 94 82 99 3d
       0.13732399 -0.034520384 -0.088382125 0.07495609
000120 79 73 44 be a2 34 06 be 51 be 07 be c2 ce 22 be
       -0.19184674 -0.13106015 -0.13256194 -0.15899184
000130 bf b5 ed 3d 31 62 8e 3d d2 77 35 be 10 c4 e2 3b
       0.11606931 0.06952322 -0.17721489 0.006920345
000140 a1 58 24 3e 26 f3 e1 3d 48 35 2c be 6a 80 00 be
       0.16049434 0.11032705 -0.168172 -0.12548986
000150 2b 59 14 3e 96 fe 53 be 10 28 45 be 76 64 2a bd
       0.1448714 -0.20702586 -0.19253564 -0.041599713
000160 fb 03 50 3e e7 41 f2 bd 0e c2 44 be cc 0a 25 be
       0.20314018 -0.11828976 -0.19214651 -0.161174
000170 37 68 62 3e 05 f7 81 bb cc e3 fc 3c 9e a0 81 3d
       0.22110067 -0.0039662146 0.03087034 0.063294634
000180 d4 ff 54 be b0 2b 95 3c 3a d5 4f 3e f1 e4 2b be
       -0.20800716 0.018209308 0.20296183 -0.16786553
000190 a7 7f ba 3c 3b bf ce bd c9 c0 ef 3d 8b d3 3c 3e
       0.022765948 -0.10095068 0.11706693 0.18440072
0001a0 af 8c 05 be 1b 28 22 be 09 c7 a4 bd d0 4d 18 bd
       -0.13041948 -0.15835612 -0.080457754 -0.037183583
0001b0 bd d1 2d be 58 90 ed 3c d0 e4 32 3e 3a b1 4c be
       -0.1697454 0.028999493 0.17470098 -0.19989482
0001c0 77 af ed 3d b2 65 1b be aa e3 2d be 9a 5c 53 3e
       0.11605733 -0.15175512 -0.16981378 0.20640793
0001d0 b1 26 9d bd 0f f8 48 be ff 5e b1 bd 48 d6 10 3d
       -0.076733954 -0.19625877 -0.08660697 0.035360605
0001e0 b9 8d 7c 3c 28 7e 17 be d0 ea 1e be 61 72 61 be
       0.015414649 -0.14794219 -0.15519261 -0.22016288
0001f0 35 d9 10 be 94 50 4a be ec 3c d0 bd 51 d8 5a 3e
       -0.14145358 -0.197573 -0.1016787 0.2137158
000200 1f 5c c8 3d ad 41 1b 3e b2 41 35 3e de c6 47 bd
       0.09783196 0.15161772 0.17700842 -0.04877364
000210 6a ae f3 3b 10 d6 05 be f9 68 d8 bc 8c e2 5a be
       0.0074365633 -0.1306994 -0.026417242 -0.21375483
000220 35 61 dc 3d e9 31 41 3e a6 b7 2e be ce 2d d2 3d
       0.10760728 0.18866695 -0.17062244 0.10262643
000230 18 65 2f be 81 eb c6 3d f5 a8 78 3c db 03 20 be
       -0.17128408 0.097128876 0.015177001 -0.1562647
000240 d6 9b 44 be 40 59 ed bd 16 de c7 3d 96 61 b5 bd
       -0.19200072 -0.11589289 0.097591564 -0.08856504
000250 6c a0 0c bd cd ac 81 bd 85 3c 36 3e 33 aa 90 bc
       -0.034332678 -0.06331787 0.17796524 -0.017659282
000260 bb fa 23 3e 23 21 2a 3e d8 e5 b3 bd be 1c 93 bd
       0.16013615 0.16614203 -0.087840736 -0.071832165
000270 e5 f6 39 3e 7b f0 5e 3e 69 80 d2 bd bd 9a ed bd
       0.18160589 0.21771424 -0.102783985 -0.116017796
000280 76 e9 bf 3d 7d 52 c9 3d b3 a9 eb bd 2a d2 13 3e
       0.09370701 0.098301865 -0.11506977 0.1443564
000290 56 d4 32 be 85 32 10 be f5 b2 f0 3c 9a 0a 3a bd
       -0.17463812 -0.14081772 0.029382208 -0.045420267
0002a0 2e 5f 34 3e 6d d5 8c 3d ca 30 0a 3d 7c 08 80 bd
       0.17614433 0.06876645 0.033737935 -0.06251618
0002b0 be 46 47 bd 10 e0 8c 3d 8a 85 56 3e 77 58 39 be
       -0.04865145 0.06878674 0.20949379 -0.18100153
0002c0 76 d9 23 3e 52 81 bc bc 31 49 49 3e 22 4f 99 bd
       0.16000924 -0.023010883 0.19656827 -0.074857965
0002d0 03 b0 5c 3d 52 07 58 be 2b ed 2f 3e b5 3f 89 bd
       0.053878795 -0.21096542 0.17180316 -0.06701604
0002e0 3f 75 ab 3d 51 d4 41 be e8 ee 57 bd e5 6e 1b be
       0.08371972 -0.18928649 -0.052718073 -0.15179022
0002f0 a4 62 0d be 8d 0a 0c 3e 8f f3 4a be f8 0c e3 bc
       -0.1380716 0.136759 -0.19819473 -0.027716145
000300 2b ea 5c be 44 7a 1a 3e 01 59 f8 3d e0 d5 2b 3e
       -0.21573703 0.15085703 0.12126351 0.16780806
000310 17 82 4f 3e 47 72 ce bc 6f 26 76 3d 16 98 f9 bd
       0.20264469 -0.025200976 0.060095247 -0.12187211
000320 3f c1 51 3d 53 95 b2 bd e0 1c 47 be fe 97 a6 bc
       0.051209684 -0.087198876 -0.19444609 -0.020336147
000330 86 57 db 3b e6 82 e6 3d 96 76 b5 3d 94 ab bb bd
       0.006693783 0.11255436 0.08860509 -0.09163585
000340 0a 2e 0e 3e 59 42 2c 3e b6 c5 46 be 77 6f 4f 3e
       0.1388475 0.16822185 -0.19411358 0.20257364
000350 20 41 2a 3e ca d8 b7 bd a2 6b 56 3d 50 aa 48 3e
       0.16626406 -0.08976896 0.05234874 0.19596219
000360 a4 4f 0a be 3d 04 f3 bd 15 e5 38 be 2a ad 54 bd
       -0.13506943 -0.11866043 -0.18056138 -0.051922955
000370 0a ac 51 3d 6f 2b 0a 3e 4e e0 cb 3d 64 52 16 be
       0.05118946 0.13493131 0.09954892 -0.14679867
000380 4e 80 82 bd d9 3d f7 3c c5 8d 1d bc ea 33 3c bd
       -0.063721284 0.030180858 -0.00961632 -0.045947947
000390 4f b6 08 3e 63 bc 0d bd 2c 12 ed bd bc c2 d1 3c
       0.13350795 -0.034603488 -0.11575732 0.025605552
0003a0 11 d5 0f be 06 02 49 3d 84 3e 23 be 89 4d 34 3e
       -0.14046122 0.049074195 -0.15941817 0.17607702
0003b0 8b 46 ff bd 3a 0f 28 bd 75 82 ff bd 8e 70 02 3d
       -0.12464627 -0.041030146 -0.124760546 0.03184562
0003c0 0e a4 14 3e 59 f6 f8 bd af 60 cd 3d 16 29 96 3d
       0.14515707 -0.12156362 0.100282066 0.07332055
0003d0 26 61 e8 bd 2b b4 34 be 23 a1 f5 3d b0 e7 20 3e
       -0.113466546 -0.17646854 0.11993625 0.15713382
0003e0 32 7a 18 be 6f 71 f4 bc d2 2b ea bd f2 af 83 3c
       -0.14890364 -0.029839246 -0.11434139 0.016075108
0003f0 79 64 48 3d e8 2b 0f bd ea 96 92 3d c5 dd 43 3e
       0.048923943 -0.03495398 0.07157691 0.19127567
